input/pytorchresnetstartertrainingoptuned/online_model2.pth (torch, 926515 bytes, 30 tensors)

batch_norm0.weight f4 [132]
0	0x3f4a5f66	0.79051816
1	0x3f6bf34a	0.92168105
2	0x3f6884b5	0.90827495
3	0x3f76c488	0.9639363
4	0x3f71b5ed	0.9441822
5	0x3f862b65	1.0481993
6	0x3f75131a	0.9573227
7	0x3f8124d5	1.0089365
8	0x3f7e6a2d	0.9938076
9	0x3f5bcb38	0.8585696
10	0x3f55e1d8	0.83547735
11	0x3f6163ca	0.8804289
12	0x3f6b72dc	0.91972136
13	0x3f511ea4	0.8168738
14	0x3f5f21f5	0.8716119
15	0x3f5b2304	0.85600305
16	0x3f5458a1	0.82947737
17	0x3f56dea7	0.8393349
18	0x3f6d6c36	0.9274324
19	0x3f562461	0.8364926
20	0x3f63db51	0.89006525
21	0x3f4ecc32	0.8078033
22	0x3f552209	0.8325506
23	0x3f40b819	0.7528091
24	0x3f4b5b89	0.79436547
25	0x3f412151	0.7544146
26	0x3f62cbaa	0.88592017
27	0x3f70ef00	0.94114685
28	0x3f71efc3	0.9450647
29	0x3f4f552d	0.8098934
30	0x3f5c4f6a	0.86058676
31	0x3f521e95	0.82077914
32	0x3f521f24	0.82078767
33	0x3f4c6783	0.79845446
34	0x3f4b66e7	0.7945389
35	0x3f502c35	0.81317455
36	0x3f470c83	0.77753466
37	0x3f60ffe6	0.8789047
38	0x3f5a621f	0.8530597
39	0x3f7f3314	0.99687314
40	0x3f6cb4e8	0.9246354
41	0x3f5d1b6e	0.8636998
42	0x3f54b145	0.8308299
43	0x3f6f4fe2	0.93481266
44	0x3f8816c6	1.063195
45	0x3f7782a3	0.9668371
46	0x3f55f8c6	0.83582723
47	0x3f5e6108	0.8686681
48	0x3f5859cf	0.8451204
49	0x3f5dd2d9	0.86649853
50	0x3f61d2bb	0.88212174
51	0x3f7a0ea2	0.9767858
52	0x3f5e919e	0.86940944
53	0x3f554207	0.83303875
54	0x3f513fa9	0.8173776
55	0x3f78fa28	0.9725671
56	0x3f683b72	0.90715706
57	0x3f81367c	1.0094752
58	0x3f7646c9	0.9620176
59	0x3f6e07c3	0.92980593
60	0x3f55c783	0.83507556
61	0x3f552472	0.83258736
62	0x3f5007da	0.8126198
63	0x3f56b7f2	0.8387443
64	0x3f86c1a4	1.0527844
65	0x3f76b6a4	0.9637244
66	0x3f71a69a	0.9439484
67	0x3f68b704	0.9090426
68	0x3f6c831f	0.92387575
69	0x3f6bc774	0.92101216
70	0x3f75242a	0.95758307
71	0x3f767943	0.9627878
72	0x3f4ae92e	0.79262054
73	0x3f448abb	0.76774186
74	0x3f461ceb	0.77387875
75	0x3f3efcd2	0.74604523
76	0x3f434b40	0.762867
77	0x3f724f4a	0.94652236
78	0x3f618a42	0.8810159
79	0x3f47106a	0.7775942
80	0x3f459284	0.7717669
81	0x3f3d4146	0.73927724
82	0x3f4180f4	0.7558739
83	0x3f746e0b	0.9548041
84	0x3f735219	0.95047146
85	0x3f4c6148	0.7983594
86	0x3f722056	0.9458059
87	0x3f5e8666	0.86923826
88	0x3f4f014c	0.80861354
89	0x3f5723c3	0.84038943
90	0x3f671a26	0.90274274
91	0x3f46609f	0.7749118
92	0x3f599fb4	0.8500931
93	0x3f42ae74	0.76047444
94	0x3f396759	0.7242332
95	0x3f4eae5f	0.8073482
96	0x3f6fb2ff	0.936325
97	0x3f4500e9	0.76954514
98	0x3f4dff87	0.8046803
99	0x3f5186c5	0.81846267
100	0x3f4a92ff	0.7913055
101	0x3f555b80	0.8334274
102	0x3f49f8b6	0.7889513
103	0x3f45673b	0.7711064
104	0x3f3d086e	0.7384099
105	0x3f3b7741	0.7322884
106	0x3f456f1b	0.7712266
107	0x3f549e48	0.8305402
108	0x3f6acd26	0.9171928
109	0x3f58138f	0.84404844
110	0x3f65bb25	0.89738685
111	0x3f50c9a1	0.8155766
112	0x3f4f96fe	0.8108977
113	0x3f5ab174	0.8542702
114	0x3f56cffc	0.8391111
115	0x3f5d9f71	0.86571413
116	0x3f4778f6	0.77918947
117	0x3f492864	0.78577256
118	0x3f4a3b8d	0.7899712
119	0x3f4c5039	0.7980991
120	0x3f4957ad	0.7864941
121	0x3f55c056	0.83496606
122	0x3f4e8d01	0.80683905
123	0x3f53b113	0.8269207
124	0x3f4d51c2	0.8020288
125	0x3f532eba	0.82493174
126	0x3f503888	0.8133626
127	0x3f48c82f	0.78430456
128	0x3f488059	0.78320843
129	0x3f51e5c7	0.8199124
130	0x3f362629	0.7115198
131	0x3f5afffc	0.8554685

batch_norm0.bias f4 [132]
0	0x3d35a3c8	0.044345647
1	0x3c9e3bee	0.019315686
2	0xbd3458b7	-0.044029918
3	0xbbabe462	-0.005245731
4	0xbcf71b2e	-0.030164327
5	0x3d2b7321	0.041857842
6	0xbd28cb9c	-0.041209802
7	0xbcb4f840	-0.022091031
8	0xbd788447	-0.060673025
9	0xbd29cd80	-0.041455746
10	0xbd3562c6	-0.04428365
11	0xbcfa0c70	-0.030523509
12	0xbd32dc1b	-0.04366694
13	0xbbd689d4	-0.006547192
14	0xbc96573e	-0.018352147
15	0xbcc191f3	-0.023629164
16	0xbd7f37c4	-0.06230904
17	0x3c1989e8	0.009371258
18	0xbce37ee7	-0.027770473
19	0xbc8d0e6d	-0.017218793
20	0xbcb882a4	-0.022523232
21	0xbc219ae7	-0.009863592
22	0x3ce9932b	0.028512558
23	0xbcb8f566	-0.022577953
24	0xbbf3d68a	-0.0074413465
25	0xbbb0192e	-0.0053740954
26	0xbc05dd04	-0.00817037
27	0x3d7f613b	0.062348586
28	0x3d83f0a6	0.064423844
29	0x3c80fc33	0.015745258
30	0xbbe50231	-0.0069887866
31	0x3d1ac654	0.037786797
32	0xbcf76b3a	-0.030202497
33	0xbbf27c8f	-0.0074001024
34	0x3c815dbd	0.015791768
35	0x3ca241ca	0.019806761
36	0xbc4a6797	-0.012353799
37	0xbc41554d	-0.011800122
38	0x3cc1a644	0.023638852
39	0x3d04b0f6	0.032395326
40	0x3c9f9205	0.019478807
41	0x3c067d99	0.008208656
42	0xbb6167c1	-0.0034394118
43	0x3b1e9cce	0.002420235
44	0x3cdfe1fb	0.027329436
45	0x3d9536d3	0.072858475
46	0xbca391d7	-0.019967003
47	0xbd6359e8	-0.055505663
48	0xbd9b5ed0	-0.075864434
49	0xbd692b85	-0.05692627
50	0xbd1fa42f	-0.038974937
51	0xbd034113	-0.03204448
52	0x3c3bda8e	0.011465682
53	0xbcb362e3	-0.021897739
54	0x3cf778df	0.030209003
55	0x3cca15be	0.02466857
56	0x3cfc0349	0.030763285
57	0x3d224100	0.03961277
58	0x3d0d78dc	0.03453909
59	0x3d24ac15	0.040203173
60	0xbd1f7fa4	-0.038940087
61	0xbc8150ee	-0.01578566
62	0xbcb83303	-0.022485262
63	0xbc204b4c	-0.009783577
64	0xbe6ec940	-0.23318958
65	0xbd43e5fd	-0.047826756
66	0xbd09d770	-0.033652723
67	0xbcede002	-0.02903748
68	0xbd93c817	-0.072158985
69	0xbc0c28b5	-0.008554627
70	0xbd6279cb	-0.055291932
71	0xbcd17b77	-0.025571568
72	0x3d0623f8	0.032749146
73	0xbc8a3341	-0.016870143
74	0x3cfa6374	0.030565001
75	0xb94b5826	-0.00019392426
76	0x3c91fbe5	0.017820308
77	0x3da61903	0.08110239
78	0xba114935	-0.000554222
79	0x3b209efc	0.0024508825
80	0x3b96fdd5	0.004607896
81	0x3c0a4f41	0.008441747
82	0xb9f359b2	-0.000464154
83	0x3d3bcb85	0.04584839
84	0x3c84bcf9	0.01620339
85	0xbd03fb5e	-0.032222144
86	0xbbf66d48	-0.0075203516
87	0x3c50e1c4	0.012749139
88	0xbcb077f8	-0.02154158
89	0xbb57a4f2	-0.0032904712
90	0x3b93252c	0.004490515
91	0x3aa5d896	0.0012653049
92	0x3ca8e645	0.020617614
93	0xbbd82b35	-0.0065969476
94	0xbc93c1ad	-0.018036688
95	0x3cbccdbf	0.023047326
96	0xbd2b7c34	-0.041866496
97	0xbb3a0a17	-0.0028387362
98	0x3c47f9b6	0.012205532
99	0x3b641b07	0.0034806149
100	0x3af7d150	0.0018906984
101	0xbd0d28f8	-0.0344629
102	0x3c9c8bb7	0.01910959
103	0xbc82ad05	-0.015951643
104	0xbc5192ce	-0.012791349
105	0xbd0ac810	-0.0338822
106	0x3d50cc86	0.0509763
107	0x3d6a3d8d	0.057187606
108	0x3d0df31a	0.034655668
109	0xbb0ad66c	-0.0021184934
110	0x3c827ec0	0.01592958
111	0x3cf09376	0.02936719
112	0xbd887a8e	-0.066640005
113	0x3a77c945	0.0009452294
114	0x3c3759f8	0.011190884
115	0xbc7c997a	-0.015417451
116	0xbc4a9aa4	-0.012365971
117	0xbc977c0c	-0.018491767
118	0x3d2006f6	0.03906914
119	0x3d2e75f4	0.042592958
120	0x3c8d0d2e	0.017218199
121	0x3d4c42ed	0.049868513
122	0xbd123b79	-0.03570125
123	0x3cf4a282	0.029862646
124	0xbd092ed8	-0.03349194
125	0xbb4ad9b9	-0.0030952527
126	0x3c0693a9	0.008213916
127	0x3c9acd6b	0.018896779
128	0x3b31bfbe	0.0027122344
129	0xbc1b356a	-0.009473184
130	0xbcc08879	-0.023502575
131	0xbccb4893	-0.02481488

batch_norm0.running_mean f4 [132]
0	0x3cf94b73	0.030431485
1	0x3ee10157	0.43946335
2	0x3eed70e6	0.46375197
3	0xbc3087a8	-0.0107745305
4	0xbb81feea	-0.0039671557
5	0xbd1504e1	-0.036381606
6	0xbd216970	-0.039407194
7	0x3d2a6181	0.041596893
8	0x3b5f23eb	0.0034048508
9	0x3e9f61d7	0.31129333
10	0x3e7d503f	0.24737643
11	0x3dc4d756	0.096113846
12	0x3d7395a8	0.059468895
13	0x3e35bf9a	0.17748871
14	0x3e035f4b	0.1282932
15	0x3e6bef95	0.23040612
16	0x3e57057d	0.20998187
17	0x3e1a7783	0.15084653
18	0x3e07f6b8	0.1327771
19	0x3ea67c98	0.32516932
20	0x3e97aa9c	0.29622352
21	0x3e78de34	0.24303514
22	0x3e52897d	0.2056026
23	0x3e9e04a6	0.3086292
24	0x3e980f09	0.2969897
25	0x3eaa4744	0.33257496
26	0x3e9db451	0.30801633
27	0x3dd996d0	0.10624468
28	0x3e002abe	0.12516305
29	0x3e84fd65	0.25974575
30	0x3e888f94	0.2667204
31	0x3e30cffc	0.1726684
32	0x3e3f60e9	0.18689312
33	0x3e75f463	0.24019007
34	0x3e8d8b5a	0.2764538
35	0x3e7299f1	0.23691536
36	0x3e8f725f	0.28016946
37	0x3d5c2cf4	0.05375381
38	0x3d45c4bc	0.048283324
39	0xbc3d5b7c	-0.011557456
40	0xbc977c52	-0.018491898
41	0x3e9c246c	0.30496538
42	0x3ed9e158	0.42554736
43	0x3e847c91	0.25876287
44	0x3e8ed13f	0.27894017
45	0x3e317999	0.17331542
46	0x3eb98f25	0.36242023
47	0x3ed62bc1	0.41830257
48	0x3effd7da	0.4996937
49	0x3f055a9f	0.520914
50	0x3eb10f8c	0.34582174
51	0x3ed031e7	0.40663072
52	0xbc528aa7	-0.01285044
53	0x3ec88ea1	0.39171317
54	0x3ea34165	0.3188583
55	0x3e894f3e	0.2681827
56	0x3eb5d6b0	0.35515356
57	0x3e92c142	0.2866307
58	0x3e8ffa59	0.28120688
59	0x3e980e23	0.29698285
60	0x3f03bcdd	0.5146006
61	0x3f059c9d	0.521921
62	0x3ef3f778	0.4764974
63	0x3ef1d5ca	0.4723342
64	0x3eb7659d	0.35819712
65	0x3f0e4bf7	0.55584663
66	0x3f10d52f	0.5657529
67	0x3f0eaa4f	0.5572862
68	0x3f0f86e1	0.56065184
69	0x3eeab021	0.458375
70	0x3eb9c43b	0.36282524
71	0x3ee53b1e	0.44771665
72	0x3b561b9c	0.0032670265
73	0xbd8d6eb4	-0.069058806
74	0xbd416cc1	-0.047222856
75	0xbd5f7358	-0.05455336
76	0xbd307275	-0.043077905
77	0xbda0bb8d	-0.078482725
78	0xbc5d2ce0	-0.013499469
79	0xbd95298a	-0.072833136
80	0xbd350b25	-0.04420008
81	0xbd7fae52	-0.062422104
82	0xbd480e14	-0.04884155
83	0xbd120663	-0.035650622
84	0x3ede23e9	0.43386772
85	0x3f061cb7	0.52387565
86	0x3eda5205	0.426407
87	0x3ee50871	0.44733003
88	0x3f02bae7	0.5106644
89	0x3ee83825	0.45355335
90	0x3e4f6539	0.20253457
91	0x3eac126e	0.3360781
92	0x3e75f7c8	0.24020302
93	0x3e7ea46e	0.24867412
94	0x3e9ae96d	0.30256215
95	0x3e3f1393	0.1865981
96	0x3ee582b7	0.4482629
97	0x3f160563	0.5860197
98	0x3ef65875	0.48114362
99	0x3efbb050	0.49157953
100	0x3f04cd87	0.5187611
101	0x3eee97bd	0.46600142
102	0x3e32f284	0.17475325
103	0x3ed351f5	0.41273466
104	0x3e97d6cf	0.29656073
105	0x3ea07bd6	0.3134448
106	0x3ea836c2	0.32854277
107	0x3e3cd989	0.18442358
108	0x3ee17ee8	0.44042134
109	0x3efb8ac6	0.49129313
110	0x3ee9c827	0.45660517
111	0x3eeb155b	0.4591473
112	0x3efce80e	0.49395794
113	0x3eeb2c6c	0.4593233
114	0x3e477bd3	0.19480829
115	0x3e67836d	0.22608729
116	0x3e6260c2	0.22107223
117	0x3e5c8e1a	0.21538582
118	0x3e65e605	0.22451027
119	0x3e6aac00	0.22917175
120	0x3eb65e31	0.35618737
121	0x3e5bc915	0.21463425
122	0x3ebc21f1	0.36744645
123	0x3e5c2520	0.21498537
124	0x3eb59236	0.35463113
125	0x3e3c5230	0.18390727
126	0x3eb9878f	0.36236235
127	0x3e360749	0.17776217
128	0x3ebb9f2e	0.36644882
129	0x3e417b82	0.1889477
130	0x3f452c78	0.7702098
131	0x3fc89ed0	1.5673466

batch_norm0.running_var f4 [132]
0	0x3f7eed69	0.9958101
1	0x40ce7459	6.4517026
2	0x40c45e17	6.1364856
3	0x4066888d	3.6020844
4	0x4041d2d8	3.028494
5	0x402e1d1d	2.720527
6	0x4028dab4	2.6383486
7	0x40279035	2.6181767
8	0x40589491	3.3840678
9	0x40ad4b5b	5.4154487
10	0x4032fd03	2.7966926
11	0x402a676a	2.662562
12	0x40b8d570	5.7760544
13	0x409c0baf	4.876426
14	0x408599f2	4.175042
15	0x40501f58	3.251913
16	0x40991933	4.784326
17	0x4019fd85	2.4060986
18	0x4081625b	4.0432563
19	0x4035c0bf	2.8398893
20	0x4069d0c8	3.653368
21	0x40b8477d	5.7587266
22	0x40536eba	3.3036332
23	0x408cc7e9	4.399403
24	0x40dd04c4	6.9068317
25	0x4085d55a	4.182294
26	0x40a83ae4	5.257189
27	0x3feef381	1.8668061
28	0x405f3ebb	3.4882038
29	0x403845f5	2.8792698
30	0x409030ea	4.505971
31	0x402a558a	2.661471
32	0x40c68733	6.204004
33	0x4068a3de	3.6350017
34	0x408f28ee	4.4737463
35	0x40b69371	5.705498
36	0x40ad042b	5.406759
37	0x4076698e	3.8501925
38	0x408aa74e	4.332923
39	0x401836db	2.378348
40	0x40a39571	5.1119924
41	0x406d685a	3.709494
42	0x40b6cfaf	5.712852
43	0x40aa6124	5.324358
44	0x40fe9baa	7.956502
45	0x4009fdd1	2.1561167
46	0x4007363c	2.1126852
47	0x4086e7da	4.215802
48	0x405ee658	3.482809
49	0x401947ba	2.3950028
50	0x403117bc	2.7670736
51	0x406f2770	3.736782
52	0x404d484d	3.207538
53	0x40915044	4.541048
54	0x405f76f2	3.4916348
55	0x410b095e	8.689787
56	0x41b1a2b6	22.204449
57	0x4159966d	13.599225
58	0x4182f308	16.368668
59	0x41c5bc67	24.716993
60	0x409a58cd	4.82334
61	0x40792a01	3.8931887
62	0x40940960	4.6261444
63	0x40a0075c	5.0008984
64	0x40acdb44	5.401766
65	0x40925cb0	4.5738144
66	0x403c47f3	2.9418914
67	0x40d0e7f6	6.5283155
68	0x40c6f322	6.2171793
69	0x40a9b595	5.303416
70	0x40d6778a	6.702092
71	0x40597cbd	3.3982384
72	0x40643750	3.565876
73	0x40986779	4.762631
74	0x40585c59	3.3806365
75	0x407b9524	3.9309778
76	0x40a9f6cd	5.311377
77	0x40f94eb4	7.7908573
78	0x4084fd3a	4.1559114
79	0x4022a526	2.5413299
80	0x403063ad	2.7560837
81	0x408d6654	4.418741
82	0x405389bb	3.3052814
83	0x40a49630	5.1433334
84	0x409024f0	4.504509
85	0x40c3b284	6.1155415
86	0x40884e68	4.259571
87	0x40f25af6	7.5736036
88	0x40ecdea6	7.402179
89	0x41103de5	9.015111
90	0x408194db	4.049421
91	0x40b79580	5.7369995
92	0x407d0851	3.9536326
93	0x408b16a9	4.346516
94	0x407c3ca6	3.9412017
95	0x40b36ccd	5.6070313
96	0x40a6f867	5.2178226
97	0x40d53fd8	6.6640434
98	0x40cac4f9	6.3365445
99	0x409ac9e8	4.8371468
100	0x409e3de5	4.9450555
101	0x410fc5eb	8.98582
102	0x40a2a270	5.082329
103	0x407b53b6	3.9269843
104	0x404d1981	3.2046816
105	0x4082c90c	4.087042
106	0x40cecc97	6.4624743
107	0x40b00d50	5.501625
108	0x40dabbd0	6.8354263
109	0x40c8a8ab	6.2705894
110	0x4090e65a	4.528119
111	0x4085c175	4.1798654
112	0x40d4919b	6.642774
113	0x41299edd	10.601285
114	0x408455c9	4.135472
115	0x4085d4ba	4.1822176
116	0x40a41333	5.1273437
117	0x40bd5571	5.91668
118	0x409b63cb	4.8559318
119	0x406fb51e	3.7454295
120	0x4054a1cc	3.3223753
121	0x40900d1c	4.5016003
122	0x409040f3	4.5079284
123	0x4083e69a	4.1218996
124	0x40338c54	2.80544
125	0x409a833b	4.8285193
126	0x40c5e6cf	6.184425
127	0x40484443	3.1291664
128	0x40a880bb	5.265714
129	0x404870dc	3.1318884
130	0x4166dbbd	14.428647
131	0x4687af2d	17367.588

dense1.weight f4 [224, 132]
0	0x3ce711ba	0.028206695
1	0x3b983f7a	0.004646239
2	0x3d38405f	0.044983264
3	0xbd9d2be9	-0.07674391
4	0xbcb73aa2	-0.022366825
5	0xbcef5a0c	-0.029217742
6	0xbd9e47d0	-0.07728541
7	0xbd07c0e8	-0.033142954
8	0x3dce1b43	0.100637935
9	0x3ccc8813	0.024967229
10	0x3d82ba9d	0.0638325
11	0x3d0a2cc3	0.033734094
12	0x3d6d7364	0.057971373
13	0xbdb16d04	-0.08663371
14	0x3cc838e5	0.024441192
15	0xbb916b91	-0.0044378717
16	0x3ca0e6b8	0.019641265
17	0x3ca3021c	0.019898467
18	0x3d3bfedb	0.045897346
19	0xbd32b3fb	-0.043628674
20	0x3d2572af	0.040392574
21	0x3cd8a59c	0.026446156
22	0x3d5db27a	0.054125287
23	0xbc965df5	-0.01835535
24	0xbc437f18	-0.011932157
25	0xbca542e4	-0.020173497
26	0xbd8df129	-0.06930763
27	0x3bbd30bb	0.0057736314
28	0x3d0feb19	0.035136316
29	0xbbcd424e	-0.0062640077
30	0xbd3778f9	-0.044793103
31	0x3d15f2e1	0.03660858
32	0xbc9ed86d	-0.01939031
33	0xbd2333a1	-0.03984416
34	0x3c9b9604	0.018992431
35	0xbda6b6ac	-0.08140311
36	0xbc1fc9a8	-0.009752668
37	0xbcff5835	-0.03116999
38	0xbc056403	-0.00814152
39	0xbc7a62c0	-0.015282333
40	0xbd6d6203	-0.0579548
41	0x3c89fd41	0.016844394
42	0x3cf166da	0.029467989
43	0xbd66d33a	-0.056353785
44	0xbdc0f272	-0.09421243
45	0xbe065d50	-0.13121533
46	0x3d0a4f57	0.03376707
47	0xbc7e3532	-0.015515612
48	0xbd27e4fc	-0.04098986
49	0x3d1414f3	0.03615279
50	0xbd1a52b7	-0.03767654
51	0x3d51183d	0.051048506
52	0x3da7845e	0.08179544
53	0xbdbd791a	-0.09251614
54	0xbd5cae2a	-0.053877033
55	0x3caf1de2	0.021376554
56	0xbd5b526b	-0.053545397
57	0x3ca8c80c	0.020603202
58	0x3d591214	0.052995756
59	0xbc2386a4	-0.009980831
60	0xbd17eb2e	-0.03708952
61	0xbbf67f07	-0.007522467
62	0x3c8f32e0	0.017480314
63	0x3d228a94	0.03968294
64	0x3d9cc76a	0.07655223
65	0x3c7ec9d3	0.015551048
66	0x3cddca8b	0.02707412
67	0x3cf338de	0.029690202
68	0x3d1f2a35	0.03885861
69	0xbc8be06e	-0.01707479
70	0x3caaabd2	0.020833883
71	0x3ce2e079	0.027694928
72	0xbd3bf654	-0.045889214
73	0x3d243706	0.040091537
74	0x3ca3d029	0.01999672
75	0x3beac34a	0.0071643936
76	0xbd7e530e	-0.062090926
77	0x3db66778	0.08906454
78	0xbd0cb3fb	-0.03435133
79	0xbc966965	-0.018360803
80	0xbd99a196	-0.07501523
81	0xbbb53914	-0.005530486
82	0x3b631422	0.0034649451
83	0x3da3990a	0.07988174
84	0x3dc0abc8	0.09407765
85	0x3c2070f1	0.009792552
86	0x3d60fded	0.054929662
87	0x3da2792a	0.079332665
88	0xbd09275f	-0.033484813
89	0xbca8631c	-0.020555072
90	0x3d8d574a	0.06901415
91	0xbd450b79	-0.048106644
92	0x3d1b5298	0.037920564
93	0x3c19258d	0.009347332
94	0xbd337af2	-0.04381842
95	0xbc417e85	-0.01180995
96	0x3d5b35b9	0.05351803
97	0x3cc8c430	0.024507612
98	0xbbbdf686	-0.00579721
99	0xbc9e82e7	-0.019349528
100	0x3d0d8060	0.034546256
101	0xbd1f1068	-0.038834006
102	0xbcbfd901	-0.023418905
103	0x3d1a077f	0.037604805
104	0x3da8dab7	0.082448415
105	0xbc8682e3	-0.016419834
106	0xbcc664b1	-0.024217935
107	0xbc688aff	-0.0141932955
108	0x3dc7cb40	0.09755564
109	0xbd76f6f7	-0.060294118
110	0x3b6c69eb	0.0036073874
111	0x3c929fd3	0.017898476
112	0x3a69ed00	0.00089235604
113	0x3cf2921a	0.029610682
114	0xbd4353d0	-0.04768735
115	0xbdbacb1c	-0.09120771
116	0x3d839591	0.06425012
117	0xbd983692	-0.074322835
118	0xbd8f2da2	-0.06991126
119	0x3d712dc4	0.058881536
120	0x3ce462e6	0.02787919
121	0x3c7c6e07	0.015407092
122	0xbd5e2d47	-0.0542424
123	0x3c78bbeb	0.015181522
124	0x3d220e5b	0.03956447
125	0x3cb98bde	0.022649702
126	0xbd23b8d5	-0.03997119
127	0x3d8e8c5c	0.06960365
128	0xbcdaf251	-0.026726874
129	0x3d05507b	0.032547455
130	0xbd7b8554	-0.06140645
131	0xbcfdba73	-0.030972695
132	0x3d2fd2c1	0.0429256
133	0xbc860fa3	-0.016364878
134	0xbcc2314b	-0.023705145
135	0xbcfacc76	-0.030615073
136	0x3c47ca9b	0.012194301
137	0xbd9b5bda	-0.07585879
138	0xbdbd6ff2	-0.092498675
139	0xbda929a2	-0.08259894
140	0x3cba7705	0.022761831
141	0xbd629284	-0.05531551
142	0x3dd398fd	0.103319146
143	0xbd8f7603	-0.07004931
144	0x3d578fdf	0.05262744
145	0xbda2e252	-0.079533234
146	0xbd22eb15	-0.039774973
147	0xbd729ac9	-0.059229646
148	0x3d5feaa2	0.054667123
149	0xb6ccef60	-6.1075407e-06
150	0xbdb0b6f1	-0.08628643
151	0xbd083574	-0.033254102
152	0xbd4a5fd8	-0.04940781
153	0xbd1fe352	-0.03903515
154	0x3d4885ff	0.048955914
155	0x3c3bd576	0.011464467
156	0xbd644a65	-0.05573501
157	0xbd978b15	-0.07399575
158	0x3be0fce0	0.0068660825
159	0x3ba86a12	0.0051395977
160	0x3d260194	0.04052885
161	0x3d194d9f	0.03742754
162	0x3d7950f3	0.060868215
163	0xbd2eb601	-0.04265404
164	0x3b146897	0.0022645348
165	0x3cca4cdb	0.02469485
166	0x3d94573d	0.07243202
167	0x39417067	0.00018447787
168	0x3d212548	0.039342195
169	0xbb3c895e	-0.00287684
170	0xbcb69ec3	-0.0222925
171	0xbdbfbabb	-0.09361788
172	0x3d58845f	0.052860614
173	0xbca1487c	-0.019687884
174	0x3b06fc9d	0.0020597347
175	0xbd4877c8	-0.048942357
176	0xbe0104c3	-0.12599473
177	0xbc8a92e8	-0.016915753
178	0x3d3f3a6a	0.046686567
179	0xbda757d1	-0.081710465
180	0x3d35203e	0.0442202
181	0xbd2ac0d2	-0.041687794
182	0x3cf6fac1	0.030148866
183	0xbb984002	-0.004646302
184	0x3d765d8e	0.060147814
185	0x3c31d190	0.010853186
186	0xbca99b38	-0.020703897
187	0xbca6c610	-0.020358115
188	0x3ca30790	0.019901067
189	0x3dc42855	0.09578005
190	0xbca3a85b	-0.01997774
191	0x3d00608b	0.03134207
192	0x3d5cb386	0.053882144
193	0x3ce8f0f7	0.028435213
194	0x3c2136e0	0.009839743
195	0xbd4bc571	-0.04974884
196	0x3d76f633	0.060293388
197	0x3c488b0d	0.012240184
198	0x3d5129a1	0.05106509
199	0x3d081e28	0.033231884
200	0x3c198caa	0.009371916
201	0xbc9f3b40	-0.019437432
202	0xbd125b98	-0.03573188
203	0x3b20ce83	0.0024537153
204	0xbcfeb031	-0.031089874
205	0x3c225c81	0.00990975
206	0x3d1b9a52	0.03798897
207	0x3d43899e	0.047738664
208	0x3c62f759	0.013852918
209	0xbcbfa99d	-0.023396308
210	0xbc95b9f0	-0.018277138
211	0xbc8901ed	-0.016724551
212	0x3d6a4a48	0.057199746
213	0xbcaff37a	-0.021478403
214	0xbd5303d8	-0.051517338
215	0xba35f18e	-0.00069405965
216	0xbc272d1d	-0.010203627
217	0x3c2c37c5	0.010511343
218	0xbd58d6a6	-0.05293908
219	0xbbe3b6b7	-0.0069492715
220	0xbd3a9554	-0.045552567
221	0xbc2eecc0	-0.010676563
222	0x3d873373	0.0660161
223	0xbd73c07a	-0.05950973
224	0x3d19af98	0.037520975
225	0xbca895f9	-0.020579325
226	0xbbbab511	-0.0056978543
227	0x3c9dfee6	0.019286584
228	0xbc007093	-0.00783934
229	0xbcf953b0	-0.030435413
230	0xbcdbf90c	-0.026852153
231	0xbdaa0e21	-0.08303476
232	0xbdbcb16d	-0.09213529
233	0x3ce93def	0.028471915
234	0x3bb7991b	0.0056029684
235	0xbd06dcd2	-0.032925434
236	0x3d8f5b27	0.06999808
237	0x3d70eb97	0.058818426
238	0x3b7cd807	0.003858091
239	0xbd612ad3	-0.05497248
240	0xbd4acacb	-0.049509805
241	0x3d8cf37d	0.06882379
242	0xbc35527d	-0.01106703
243	0x3d037df6	0.032102548
244	0xbb47e79f	-0.0030503047
245	0x3bfe992d	0.007769725
246	0x3dad93d4	0.084754616
247	0xbd3644f0	-0.044499338
248	0xbd376bb6	-0.044780456
249	0x3d8a1a2b	0.067432724
250	0x3ce235a9	0.027613478
251	0xbc847f3c	-0.016173951
252	0x3caaa4a3	0.020830458
253	0x3aa71d89	0.0012749891
254	0xbd8d2412	-0.068916455
255	0x3d84ae27	0.064785294

dense1.bias f4 [224]
0	0xb4518d97	-1.9516152e-07
1	0x350c08fd	5.2167144e-07
2	0x3434ce98	1.6838965e-07
3	0x34660fb7	2.1426136e-07
4	0x341f5846	1.4840143e-07
5	0x3554d74c	7.928945e-07
6	0x3436bbfb	1.7018458e-07
7	0xb4fa4fbd	-4.6624146e-07
8	0xb4c87467	-3.7337597e-07
9	0xb518774b	-5.6798007e-07
10	0xb3e0574a	-1.04466906e-07
11	0x34365e2e	1.6984333e-07
12	0xb485d6e3	-2.492953e-07
13	0xb3fd9a52	-1.1809301e-07
14	0xb4cfb835	-3.8690783e-07
15	0xb4a464d9	-3.0620757e-07
16	0xb36d8264	-5.5299452e-08
17	0xb387b853	-6.319956e-08
18	0x34a9a261	3.159685e-07
19	0xb50e955e	-5.311648e-07
20	0xb4c9a904	-3.7562143e-07
21	0xb5c0646a	-1.4334339e-06
22	0xb457508d	-2.005274e-07
23	0xb3e8752c	-1.0824655e-07
24	0x342f6dd9	1.6338107e-07
25	0xb45c7533	-2.0531733e-07
26	0x359743b1	1.1270077e-06
27	0x33499fa9	4.694417e-08
28	0x3389de66	6.420014e-08
29	0xb53580c7	-6.761515e-07
30	0xb5913221	-1.0817931e-06
31	0x3583870c	9.799564e-07
32	0xb1668f67	-3.355092e-09
33	0xb5280609	-6.259366e-07
34	0x34bdeb10	3.5375024e-07
35	0xb43e34ff	-1.7714409e-07
36	0x3501010a	4.8057757e-07
37	0x34da02c1	4.0607668e-07
38	0x34faeccd	4.6738424e-07
39	0xb4cf03b4	-3.855945e-07
40	0xb3ec602b	-1.1007099e-07
41	0x355c3aa3	8.2041714e-07
42	0x35721753	9.0185966e-07
43	0xb475b4b6	-2.2883145e-07
44	0xb29dfb66	-1.8391528e-08
45	0xb47d3086	-2.3580114e-07
46	0x3489f90c	2.5699444e-07
47	0x34c3e922	3.6491207e-07
48	0xb4933dbf	-2.742581e-07
49	0xb45e25f3	-2.0689167e-07
50	0xb483f38b	-2.4577852e-07
51	0xb3f20a7b	-1.12709095e-07
52	0x34623d7e	2.1070261e-07
53	0xb3bdc75d	-8.837262e-08
54	0xb51bfe4c	-5.811205e-07
55	0xb5fa3f77	-1.8644922e-06
56	0xb44be185	-1.8987892e-07
57	0x346a127b	2.1799671e-07
58	0xb4dd12c1	-4.1178103e-07
59	0x34044be9	1.2321074e-07
60	0x35a5c690	1.2351247e-06
61	0xb416cc00	-1.4044053e-07
62	0x34c48df7	3.6611138e-07
63	0xb48d00c0	-2.6263842e-07
64	0x356771e3	8.6219933e-07
65	0x34a702b8	3.1108152e-07
66	0xb4d40af0	-3.9496035e-07
67	0x33854f49	6.207717e-08
68	0xb46b53ff	-2.1916638e-07
69	0xb5ba00e1	-1.3858336e-06
70	0x353ea27b	7.1016956e-07
71	0x33bf26c4	8.901182e-08
72	0xb3238af6	-3.807778e-08
73	0x34ddaa96	4.1288575e-07
74	0xb4edc8db	-4.4290832e-07
75	0x34b4ff5e	3.3713417e-07
76	0xb3aa779f	-7.938001e-08
77	0xb4b0fcf1	-3.2966594e-07
78	0xb5ae8f0e	-1.3005645e-06
79	0x33e1a8eb	1.0508105e-07
80	0x34899f73	2.5634253e-07
81	0xb4b32a60	-3.337218e-07
82	0xb59d754e	-1.1731552e-06
83	0xb4abd5b8	-3.2006733e-07
84	0x343da2be	1.7661202e-07
85	0x33ca7ae3	9.428711e-08
86	0x3433275d	1.6684994e-07
87	0x3522fa39	6.0713825e-07
88	0x3468ab08	2.1668905e-07
89	0x33e26c17	1.05436065e-07
90	0xb48fc770	-2.6780936e-07
91	0xb3116a98	-3.385739e-08
92	0x344a2429	1.8825871e-07
93	0x3389cd71	6.416929e-08
94	0xb46b570d	-2.191775e-07
95	0x34ea1e0c	4.3607758e-07
96	0xb50d8c2f	-5.273059e-07
97	0xb44c151b	-1.9006659e-07
98	0x353f10b6	7.117736e-07
99	0x35176258	5.639499e-07
100	0xb534b9f1	-6.7325806e-07
101	0xb511f594	-5.437407e-07
102	0x34071d4a	1.258351e-07
103	0xb4702694	-2.2365776e-07
104	0xb3ed78f9	-1.1058177e-07
105	0xb3e40f30	-1.061984e-07
106	0xb42b3cbd	-1.5947712e-07
107	0xb1f2ba2e	-7.064293e-09
108	0x355f47e3	8.317858e-07
109	0x35f101eb	1.7956457e-06
110	0xb46b1d3e	-2.1896719e-07
111	0xb31f7bbe	-3.7132615e-08
112	0x3491a229	2.7126342e-07
113	0xb48dc7d0	-2.640868e-07
114	0xb52f1de9	-6.5236105e-07
115	0x3497e001	2.8288926e-07
116	0xb1b92c1e	-5.389224e-09
117	0x3437e1d0	1.7125353e-07
118	0x341e2c38	1.4730983e-07
119	0xb53ac53a	-6.95774e-07
120	0x3217ebd7	8.842981e-09
121	0x34de1c38	4.1371254e-07
122	0xb413307b	-1.3708079e-07
123	0x35582647	8.052197e-07
124	0x32e92a2f	2.7143953e-08
125	0xb45f428f	-2.0792707e-07
126	0xb4b7a6dc	-3.4207812e-07
127	0xb5394130	-6.901273e-07
128	0xb5928464	-1.0916378e-06
129	0xb49e264c	-2.9457658e-07
130	0x34fda00a	4.7241366e-07
131	0xb33ba10b	-4.3685798e-08
132	0xb47ce7e0	-2.3553685e-07
133	0xb522b567	-6.061368e-07
134	0x33b4240d	8.388461e-08
135	0x34c7496b	3.7120057e-07
136	0x339c7d37	7.2870925e-08
137	0x344db53d	1.9158047e-07
138	0x35fbdda4	1.8765463e-06
139	0x33fc0f7a	1.17374796e-07
140	0xb34684d3	-4.622127e-08
141	0x31aaeb06	4.9743702e-09
142	0x3425fefd	1.5459587e-07
143	0xb504aed1	-4.9428223e-07
144	0x32e834fd	2.7032451e-08
145	0x35099f88	5.1268626e-07
146	0x3475c541	2.2889164e-07
147	0xb4988fa5	-2.841672e-07
148	0x34989528	2.8420732e-07
149	0x32dca82e	2.568785e-08
150	0x351f265f	5.9287953e-07
151	0x33f3522b	1.13305155e-07
152	0x346cba46	2.2046979e-07
153	0x32fdfad7	2.9567145e-08
154	0x34a464eb	3.0620808e-07
155	0x33378826	4.2731834e-08
156	0x3398f693	7.122903e-08
157	0xb38cd9d4	-6.558881e-08
158	0x31ceb4df	6.0159517e-09
159	0xb52cba4c	-6.434609e-07
160	0xb4f898fa	-4.6304905e-07
161	0xb3806a40	-5.979791e-08
162	0xb3ef8183	-1.1152863e-07
163	0x32fcc009	2.9423989e-08
164	0xb481a4e6	-2.4148102e-07
165	0xb47b3810	-2.3396592e-07
166	0x33e15d9f	1.04944085e-07
167	0xb37f8956	-5.949672e-08
168	0x3487819a	2.5240007e-07
169	0x346733b0	2.1532355e-07
170	0x3576e4e6	9.197523e-07
171	0x343669f3	1.6988615e-07
172	0xb4a89ccd	-3.1406526e-07
173	0xb37f9d4b	-5.951487e-08
174	0xb4c99975	-3.7550822e-07
175	0xb5ca2355	-1.5060456e-06
176	0x348188c9	2.4127647e-07
177	0x355c3d86	8.2045915e-07
178	0xb557e8cd	-8.043251e-07
179	0xb47535b4	-2.283694e-07
180	0xb361f55a	-5.261004e-08
181	0xb42b8532	-1.5974072e-07
182	0x33d25707	9.794717e-08
183	0xb54a47d5	-7.5355393e-07
184	0x355fee76	8.342098e-07
185	0xb544ea0c	-7.3356273e-07
186	0xb4f5df7f	-4.579742e-07
187	0x31e5407a	6.6721073e-09
188	0x346d0b41	2.2076439e-07
189	0x342d2c52	1.6128004e-07
190	0xb483c734	-2.454559e-07
191	0xb586c3d5	-1.0040773e-06
192	0xb31ea292	-3.69351e-08
193	0x32a95c37	1.9716124e-08
194	0xb366dc1f	-5.3751247e-08
195	0x33663062	5.3595052e-08
196	0xb5751122	-9.1294544e-07
197	0xb5beff91	-1.4230483e-06
198	0xb4b9ba86	-3.459465e-07
199	0xb40f06bf	-1.3320367e-07
200	0x33b78240	8.545294e-08
201	0x34ce0a96	3.8378192e-07
202	0xb31bc029	-3.626352e-08
203	0x34250b9b	1.5371045e-07
204	0xb422547e	-1.5118164e-07
205	0x349a4aee	2.8739254e-07
206	0xb468d90c	-2.1685645e-07
207	0x358c1af2	1.0438655e-06
208	0x36080103	2.0266168e-06
209	0xb3dd1770	-1.0295378e-07
210	0x3438aaf4	1.7198528e-07
211	0xb49825c4	-2.8339684e-07
212	0xb4d27029	-3.9197155e-07
213	0xb52df1ba	-6.479928e-07
214	0x354db641	7.6633665e-07
215	0xb49f41c1	-2.96639e-07
216	0xb4149502	-1.3837783e-07
217	0x34dd0ad4	4.1172336e-07
218	0xb34113d0	-4.4954334e-08
219	0xb4761b24	-2.2920409e-07
220	0x349f55d5	2.967851e-07
221	0xb54ea1d6	-7.697648e-07
222	0xb6236479	-2.4347376e-06
223	0xb19975a5	-4.4662607e-09

batch_norm1.weight f4 [224]
0	0x3f39a3ae	0.7251538
1	0x3f3ed761	0.7454739
2	0x3f37bd0d	0.71772844
3	0x3f3394fe	0.7014922
4	0x3f3d63ac	0.7398021
5	0x3f4a29b2	0.7896987
6	0x3f29a3c1	0.66265494
7	0x3f3e369d	0.74302083
8	0x3f426dc5	0.75948745
9	0x3f396fd6	0.72436273
10	0x3f2c3209	0.6726385
11	0x3f41202d	0.7543972
12	0x3f406dc3	0.75167483
13	0x3f382dca	0.7194487
14	0x3f37b59e	0.717615
15	0x3f361388	0.7112355
16	0x3f320972	0.6954566
17	0x3f2de21d	0.67923146
18	0x3f2e8cc7	0.6818356
19	0x3f3059d6	0.6888708
20	0x3f3d8a60	0.7403927
21	0x3f35bb5d	0.7098902
22	0x3f2b5a44	0.6693461
23	0x3f35f4de	0.7107676
24	0x3f36820c	0.71292186
25	0x3f4325a2	0.762293
26	0x3f4b0af2	0.79313576
27	0x3f1df172	0.6169654
28	0x3f479c4d	0.7797287
29	0x3f45aa26	0.7721275
30	0x3f422559	0.7583824
31	0x3f430bf8	0.7619014
32	0x3f42b09e	0.76050746
33	0x3f352585	0.70760375
34	0x3f326e6e	0.6969975
35	0x3f25546a	0.6458193
36	0x3f3b0b11	0.7306376
37	0x3f38661d	0.7203081
38	0x3f3ee43b	0.74567
39	0x3f3f70c3	0.74781436
40	0x3f307b2c	0.68937945
41	0x3f3aba1a	0.7294022
42	0x3f44d68d	0.7688988
43	0x3f343ca2	0.7040502
44	0x3f2c4e64	0.67307115
45	0x3f366774	0.71251607
46	0x3f2b7c4a	0.66986525
47	0x3f491174	0.78542256
48	0x3f3ee29b	0.7456452
49	0x3f3e0f93	0.74242514
50	0x3f4da0e5	0.8032363
51	0x3f415099	0.7551361
52	0x3f308096	0.68946207
53	0x3f4537ad	0.7703808
54	0x3f2b3271	0.6687384
55	0x3f4132aa	0.7546793
56	0x3f3bea95	0.7340482
57	0x3f2be0fc	0.67140174
58	0x3f418f04	0.7560885
59	0x3f35addf	0.7096843
60	0x3f428ba6	0.75994337
61	0x3f34856b	0.7051608
62	0x3f416a89	0.75553185
63	0x3f37dda5	0.7182258
64	0x3f39ccce	0.7257813
65	0x3f355028	0.70825434
66	0x3f2c32bd	0.6726492
67	0x3f44be91	0.7685328
68	0x3f2e4956	0.6808065
69	0x3f4468bd	0.7672232
70	0x3f43d2fb	0.76493806
71	0x3f3d0888	0.7384114
72	0x3f3885a5	0.72078925
73	0x3f3fea73	0.74967116
74	0x3f49f400	0.7888794
75	0x3f496d2f	0.78682226
76	0x3f3f70a2	0.7478124
77	0x3f3106d2	0.6915103
78	0x3f2efcac	0.68354297
79	0x3f32a0c7	0.69776577
80	0x3f458e88	0.7717061
81	0x3f3d751e	0.7400683
82	0x3f339353	0.70146674
83	0x3f3ad397	0.7297911
84	0x3f4e9086	0.80689275
85	0x3f2e820b	0.6816718
86	0x3f298590	0.66219425
87	0x3f379662	0.7171384
88	0x3f3db738	0.74107695
89	0x3f37b6c5	0.7176326
90	0x3f36daef	0.71427816
91	0x3f4577a4	0.7713568
92	0x3f38c792	0.7217952
93	0x3f2cce75	0.6750253
94	0x3f386202	0.7202455
95	0x3f3cca3e	0.737461
96	0x3f320e45	0.69553024
97	0x3f3914f4	0.72297597
98	0x3f3b97d6	0.7327856
99	0x3f4418f7	0.76600593
100	0x3f57c7dd	0.8428934
101	0x3f3a2f4e	0.7272843
102	0x3f38f89e	0.7225436
103	0x3f3752ed	0.7161091
104	0x3f2fe3aa	0.6870676
105	0x3f32269e	0.69590175
106	0x3f308776	0.68956697
107	0x3f33c19d	0.70217305
108	0x3f3ec466	0.7451843
109	0x3f327ed3	0.6972477
110	0x3f40aa72	0.7526008
111	0x3f3c90fa	0.73658717
112	0x3f4016f2	0.7503501
113	0x3f369d72	0.7133399
114	0x3f3475fd	0.70492536
115	0x3f394d97	0.7238402
116	0x3f338c1b	0.7013566
117	0x3f350297	0.70707077
118	0x3f36a17a	0.71340144
119	0x3f473ef8	0.7783046
120	0x3f337c76	0.7011179
121	0x3f38b078	0.7214427
122	0x3f26c7e7	0.65148777
123	0x3f3fed8c	0.7497184
124	0x3f3f2051	0.74658686
125	0x3f48d2ad	0.78446466
126	0x3f428c11	0.75994974
127	0x3f21e602	0.6324159
128	0x3f487e02	0.7831727
129	0x3f4c7fe6	0.7988266
130	0x3f422f48	0.75853395
131	0x3f254dd6	0.64571893
132	0x3f396acf	0.724286
133	0x3f2eb0df	0.68238634
134	0x3f2b4f6c	0.66918063
135	0x3f2b25af	0.66854376
136	0x3f3cb6d4	0.73716474
137	0x3f36b1f1	0.7136527
138	0x3f4044d2	0.7510501
139	0x3f320001	0.69531256
140	0x3f4cff49	0.80077034
141	0x3f4464db	0.76716393
142	0x3f357699	0.7088409
143	0x3f382725	0.7193473
144	0x3f4acbe2	0.7921735
145	0x3f3d57e2	0.73962224
146	0x3f338c51	0.7013598
147	0x3f33c44d	0.70221406
148	0x3f332a90	0.6998682
149	0x3f457826	0.77136457
150	0x3f3d86f7	0.74034065
151	0x3f27e086	0.6557697
152	0x3f413cce	0.75483406
153	0x3f390b36	0.7228273
154	0x3f350e9b	0.7072541
155	0x3f455f4d	0.7709854
156	0x3f33ae7f	0.70188135
157	0x3f4a86c8	0.7911191
158	0x3f3b192f	0.730853
159	0x3f31d1fa	0.69461024
160	0x3f2e7d7e	0.68160236
161	0x3f42398d	0.75869066
162	0x3f4445ca	0.7666899
163	0x3f3463d9	0.70464855
164	0x3f25fb53	0.64836615
165	0x3f3adbd0	0.7299166
166	0x3f4a7615	0.7908643
167	0x3f34bff7	0.70605415
168	0x3f4390cd	0.76392823
169	0x3f3056d9	0.6888252
170	0x3f4323ec	0.7622669
171	0x3f341151	0.7033892
172	0x3f300679	0.68759876
173	0x3f3d5456	0.7395681
174	0x3f34ad8c	0.7057731
175	0x3f5c115e	0.85964
176	0x3f2bf666	0.6717285
177	0x3f4d4bfa	0.80194056
178	0x3f43f50a	0.76545775
179	0x3f29b57b	0.6629254
180	0x3f36aab3	0.71354216
181	0x3f21b15a	0.6316124
182	0x3f320027	0.6953148
183	0x3f461704	0.7737887
184	0x3f3416d3	0.70347327
185	0x3f489adb	0.7836129
186	0x3f2ae5c5	0.6675685
187	0x3f1669d7	0.5875525
188	0x3f389790	0.72106266
189	0x3f2f9d4b	0.68599385
190	0x3f38a435	0.7212556
191	0x3f360634	0.71103215
192	0x3f3a7dcf	0.7284822
193	0x3f301e83	0.6879656
194	0x3f32a663	0.69785136
195	0x3f3217b6	0.6956743
196	0x3f3ec55d	0.745199
197	0x3f4d76dc	0.8025949
198	0x3f2a543d	0.6653479
199	0x3f2dfb57	0.6796164
200	0x3f2c6d5a	0.6735436
201	0x3f3da8df	0.740858
202	0x3f327ec1	0.6972466
203	0x3f417a8e	0.7557763
204	0x3f481dbf	0.7817039
205	0x3f24cf27	0.6437859
206	0x3f386c45	0.72040206
207	0x3f4b9dcf	0.7953767
208	0x3f3ad987	0.7298817
209	0x3f3037c1	0.68835074
210	0x3f31f384	0.695122
211	0x3f4f7073	0.8103096
212	0x3f32722c	0.6970546
213	0x3f32dd62	0.69869053
214	0x3f498e29	0.78732544
215	0x3f3a3bbe	0.7274741
216	0x3f42e840	0.76135635
217	0x3f43171b	0.7620713
218	0x3f3fdce6	0.7494644
219	0x3f285327	0.6575188
220	0x3f325eb7	0.69675773
221	0x3f4e3ecc	0.8056457
222	0x3f415500	0.75520325
223	0x3f2f97a3	0.68590754

batch_norm1.bias f4 [224]
0	0xbcb76484	-0.022386797
1	0xbd0902ca	-0.033449925
2	0xbaa3e1bc	-0.0012503187
3	0xbd77b0d3	-0.060471367
4	0xbc620848	-0.01379592
5	0xbcbcc81e	-0.023044642
6	0xbd30e7dc	-0.04318987
7	0xbd54d1e1	-0.05195797
8	0xbdb24e63	-0.08706357
9	0xbc00642e	-0.007836385
10	0xbd879251	-0.066197045
11	0xbd71f018	-0.059066862
12	0xbd5b5b40	-0.05355382
13	0xbd15f015	-0.036605913
14	0xbd52837e	-0.051394932
15	0x3b882abf	0.0041554864
16	0xbc93fcc9	-0.018064873
17	0xbd6f70de	-0.058457248
18	0xbcc8613e	-0.024460431
19	0x3b0a3136	0.002108646
20	0xbd9e8037	-0.07739299
21	0xbd26a618	-0.040685743
22	0xbd8d0bfa	-0.0688705
23	0xbd791eef	-0.060820516
24	0xbd1a2be1	-0.037639502
25	0xbd9eee9b	-0.07760354
26	0x3bab5de5	0.005229699
27	0xbd19efd0	-0.03758222
28	0xbcbecad1	-0.02329007
29	0xbc5c0516	-0.013428947
30	0xbd76c974	-0.060250714
31	0xbd47edd5	-0.0488108
32	0xbcc86757	-0.024463339
33	0xbd637942	-0.055535562
34	0xbceab098	-0.02864866
35	0xbcc554a5	-0.024088213
36	0xbc1f6b1b	-0.009730126
37	0xbd463bdc	-0.04839693
38	0x3cb50ddc	0.022101335
39	0x3a4bb1ef	0.00077703496
40	0xbbc9e1db	-0.0061609573
41	0xbd8216fe	-0.06352042
42	0xbd770e7c	-0.060316548
43	0xbd140c43	-0.036144506
44	0xbd8b94a9	-0.06815464
45	0xbd8dbf2b	-0.06921228
46	0xbce5ef9c	-0.028068356
47	0xbc1b0516	-0.009461662
48	0xbd33c623	-0.04389013
49	0xbd71ca2e	-0.059030704
50	0x3b33e556	0.0027449927
51	0xbb3fd848	-0.00292732
52	0xbda2e094	-0.07952991
53	0xbd18ffcb	-0.03735332
54	0xbd53595c	-0.05159889
55	0xbd3a614d	-0.04550295
56	0xbcedfd7b	-0.029051533
57	0xbd783556	-0.06059774
58	0xbcbd2978	-0.023091063
59	0xbd8cb3f0	-0.06870258
60	0xbd3761c3	-0.044770967
61	0xbd394da0	-0.045240045
62	0xbc73bd15	-0.014876624
63	0xbcf47369	-0.029840188
64	0xbce415db	-0.027842453
65	0xbdaa739a	-0.083228305
66	0xbd92258f	-0.0713607
67	0xbd9209e1	-0.071307905
68	0xbd942ab6	-0.07234709
69	0xbd3dc697	-0.04633197
70	0xbcec2ece	-0.028830912
71	0xbd19c1fe	-0.03753852
72	0xbdb289b9	-0.08717675
73	0xbd06bb4f	-0.032893475
74	0xbd22146f	-0.03957027
75	0xbdb2ccdb	-0.08730479
76	0xbd99969e	-0.07499431
77	0xbd55bacc	-0.052180097
78	0xbca6f41a	-0.020380069
79	0xbd2c2b52	-0.0420335
80	0xbcdab62f	-0.0266982
81	0xbc163278	-0.009167306
82	0xbdb1cc8a	-0.08681591
83	0x3b4f6b66	0.0031649708
84	0xbdbff34a	-0.093725756
85	0xbc0fb55b	-0.008771266
86	0x3b88c86b	0.0041742823
87	0xbd7988d9	-0.060921524
88	0xbcb15997	-0.021649165
89	0xbd9e018c	-0.07715139
90	0xbd850a7a	-0.06496139
91	0xbd4c12e4	-0.049822703
92	0xbd85228f	-0.06500732
93	0xbce1c387	-0.027559055
94	0xbd302436	-0.043003283
95	0xbd3aa0ab	-0.04556338
96	0xbcd07ab5	-0.025449136
97	0xbc995d4e	-0.018721249
98	0xbcd26485	-0.025682697
99	0xbd4b4be9	-0.04963294
100	0xbdcbe6a4	-0.099561006
101	0xbc633401	-0.013867379
102	0xbd9ddb69	-0.07707865
103	0xbaaae3cb	-0.0013037858
104	0xbd2ec742	-0.042670496
105	0xbd7e75ea	-0.06212417
106	0xbda3d523	-0.07999637
107	0xbd919c2f	-0.07109868
108	0xbd792c1d	-0.060833085
109	0xbd04b068	-0.032394797
110	0xbcf9e016	-0.03050236
111	0xbd6c6c1a	-0.05772028
112	0xbcd4316f	-0.025902478
113	0xbd2942d5	-0.0413235
114	0xbcce190e	-0.025158431
115	0x3cbc168c	0.02295997
116	0xbd1159bb	-0.035485964
117	0xbd554c4d	-0.05207472
118	0xbdc798d6	-0.09745948
119	0xbd88393c	-0.066515416
120	0xbc8ff451	-0.017572554
121	0xbd63f380	-0.05565214
122	0xbd8890c1	-0.066682346
123	0xbd97fa73	-0.07420816
124	0xbd319df4	-0.043363526
125	0xbd222dd0	-0.03959447
126	0xbd47a8ed	-0.048745085
127	0xbcc7ff87	-0.024413837
128	0xbcd0126a	-0.025399406
129	0xbd78cde3	-0.060743224
130	0xbd90602a	-0.07049592
131	0xbc06a481	-0.008217932
132	0xbd30b99a	-0.043145753
133	0xbd4f0b11	-0.050547663
134	0xbd5f077e	-0.054450504
135	0xbd06ce18	-0.03291139
136	0xbd315d76	-0.043302022
137	0xbcc7310d	-0.024315381
138	0xbcbdb398	-0.023156926
139	0xbda762ce	-0.081731424
140	0xbdc7f685	-0.09763817
141	0xbd83e94b	-0.064409815
142	0xbd98df94	-0.07464519
143	0xbd2f21d4	-0.04275687
144	0xbd1449d8	-0.036203235
145	0xbcc4e764	-0.024036117
146	0xbcd7f99e	-0.026364144
147	0xbcd04c78	-0.025427088
148	0xbc0871f2	-0.008327948
149	0xbd9b0121	-0.07568575
150	0xbd8a82b4	-0.06763211
151	0xbd3857e3	-0.04500569
152	0xbd0b4aa4	-0.03400673
153	0xbc05f59b	-0.008176233
154	0xbd0df7f6	-0.034660302
155	0xbc488ba2	-0.012240322
156	0xbd190411	-0.037357394
157	0xbd2406f8	-0.04004571
158	0xbda70cdb	-0.08156749
159	0xbd81992a	-0.06328042
160	0xbd418189	-0.047242675
161	0xbd6af2c8	-0.05736044
162	0xbc879454	-0.01655022
163	0xbd8699cb	-0.065723024
164	0xbd1c1fab	-0.03811614
165	0xbd79b455	-0.060962994
166	0xbdbc4593	-0.09192958
167	0xbd8be3f0	-0.06830585
168	0xbd4c787c	-0.04991959
169	0xbcf43b88	-0.029813543
170	0xbc338d4f	-0.010958984
171	0xbd3d85d0	-0.04627019
172	0xbd32d69b	-0.043661695
173	0xbd6239d5	-0.055230934
174	0xbd0d9254	-0.034563377
175	0xbd951d79	-0.07281012
176	0xbd58e368	-0.052951247
177	0xbd3fe461	-0.04684866
178	0xbdbccd21	-0.09218813
179	0xbc69505c	-0.014240351
180	0xbd1df553	-0.038564038
181	0xbd45a32c	-0.048251316
182	0xbd5ecfbd	-0.054397333
183	0xbd037f63	-0.032103907
184	0x3c821cc5	0.015882859
185	0xbd525575	-0.05135103
186	0xbd0cd4bf	-0.034382578
187	0xbd5a92cd	-0.053362656
188	0xbd5f2121	-0.054474954
189	0xbd7099ce	-0.05874043
190	0xbd60e67a	-0.0549073
191	0x3a2eefc1	0.00066732994
192	0x39e7e959	0.0004423361
193	0xbd883796	-0.06651227
194	0xbd19c692	-0.037542887
195	0xbd166bc5	-0.03672387
196	0xbc3a0d42	-0.0113557
197	0xbd96b651	-0.07358993
198	0xbd7241af	-0.059144672
199	0xbd28bc67	-0.0411953
200	0xbcff1fdb	-0.03114312
201	0xbd9819a6	-0.07426767
202	0xbd01ad86	-0.031659625
203	0x3cae981e	0.02131277
204	0xbd9ddd56	-0.07708232
205	0xbc611ce9	-0.013739803
206	0xbd297705	-0.04137327
207	0xbd6ce1cf	-0.057832535
208	0xbccc986d	-0.024975026
209	0xbd3ada11	-0.04561812
210	0xbd6f7304	-0.058459297
211	0xba25e9de	-0.00063290994
212	0xbd475ef5	-0.048674542
213	0xbd442700	-0.047888756
214	0xbd9b1431	-0.075722106
215	0x3c975b52	0.018476162
216	0xbd4bf465	-0.04979362
217	0xbdb4b333	-0.08823242
218	0xbdaba70f	-0.08381473
219	0xbdab719f	-0.08371281
220	0xbd13d323	-0.036090028
221	0xbc95291f	-0.018208085
222	0xbc99b558	-0.01876323
223	0xbd0c91a2	-0.034318574

batch_norm1.running_mean f4 [224]
0	0xbcecc37d	-0.02890181
1	0xbc831c80	-0.0160048
2	0x3b8bf79a	0.0042714598
3	0x3c133d72	0.008986818
4	0xbd3b21c3	-0.045686495
5	0x3bc3ad92	0.005971619
6	0x3c14a911	0.009073512
7	0xbc74599c	-0.014913943
8	0xbcc04945	-0.023472438
9	0x3d13730c	0.03599839
10	0xbcc002ac	-0.023438774
11	0xbc6cc7e0	-0.014451951
12	0xbc737950	-0.014860466
13	0x3d4e18bd	0.05031656
14	0xbc0799d8	-0.008276425
15	0xbc3c6466	-0.011498546
16	0x3ce037a6	0.027370285
17	0xbbb97573	-0.005659753
18	0x3b55aa65	0.0032602784
19	0x3d09bafa	0.03362558
20	0xbcc0c163	-0.023529714
21	0x3c99b063	0.018760866
22	0xbca3b77c	-0.019984953
23	0x3bfe82db	0.007767064
24	0xbccffff5	-0.025390605
25	0xbcdde607	-0.027087225
26	0xbd11f519	-0.035634134
27	0x3d4eeb8f	0.050517615
28	0x3d3591fe	0.044328682
29	0xbd83af94	-0.06429973
30	0xbc79d465	-0.015248393
31	0xbc784471	-0.015153036
32	0xbc4ba4f3	-0.012429464
33	0x3bbdd3fa	0.005793092
34	0xbcdb91b7	-0.02680288
35	0x3d1eea0d	0.038797427
36	0x3c0ab0db	0.008465017
37	0x3b69cb46	0.003567414
38	0x3ca09674	0.019602992
39	0x3cb162e3	0.021653598
40	0xbcd32b6e	-0.025777545
41	0x3a66c49b	0.00088031
42	0x3c9967e5	0.018726299
43	0x3ca19bd3	0.019727623
44	0x3cd218b6	0.025646549
45	0xbcf37aa3	-0.029721564
46	0xbcfe3d10	-0.031034976
47	0x3d447966	0.047967337
48	0x3cb7299a	0.022358704
49	0x3cc6fbb9	0.024289953
50	0x3c9bc915	0.019016782
51	0x3cf65672	0.030070517
52	0xbca25fc8	-0.019821063
53	0x3b938bde	0.0045027575
54	0x3d33efe7	0.04392996
55	0xbd29b60f	-0.04143339
56	0x3d12863b	0.035772543
57	0x3bfbac44	0.007680448
58	0x3c9418be	0.018078204
59	0xbd22e978	-0.039773434
60	0xbccd60c1	-0.02507055
61	0x3c8ba100	0.017044544
62	0x3cb66c3d	0.022268409
63	0x3c5d641a	0.013512636
64	0xbd1218fe	-0.035668366
65	0xbd7ce27f	-0.06173944
66	0xbc308d93	-0.010775941
67	0xbd400292	-0.04687745
68	0xbcfc11ec	-0.030770265
69	0x3d237b77	0.039912667
70	0xbd84df37	-0.06487887
71	0x3cfec9fe	0.031102177
72	0x3d2e9b0f	0.042628344
73	0x3d4aee5b	0.04954372
74	0xbd931d7d	-0.07183359
75	0x3d189b0b	0.037257235
76	0xbce75448	-0.02823843
77	0x3ccdc5d8	0.025118753
78	0xbd0aa66a	-0.03385011
79	0xbbf11389	-0.007357065
80	0x3c0ad97c	0.008474704
81	0x3c2cfef5	0.010558833
82	0xbb414a01	-0.0029493573
83	0xbc98eaa6	-0.018666577
84	0xbd17327f	-0.03691339
85	0x3c88cb56	0.01669852
86	0x3c2fb85c	0.010725107
87	0x3b7bdd8c	0.0038431613
88	0xbcdfcac7	-0.027318371
89	0xbced3194	-0.028954305
90	0x3bc7104e	0.0060749417
91	0x3ca48082	0.020080809
92	0x3b286faf	0.0025701334
93	0x3cd00ba0	0.025396168
94	0x3bd79a82	0.006579698
95	0x3c7a469f	0.015275626
96	0x3c109e41	0.008826793
97	0x3c0488c7	0.008089251
98	0xbd2ee3de	-0.04269778
99	0x3d0dbe01	0.03460503
100	0xbdbeb275	-0.09311382
101	0x3d03edef	0.032209333
102	0xbb8bac35	-0.004262472
103	0x3bef3d61	0.007301018
104	0x3c9f39e2	0.01943678
105	0xbbaa0bfb	-0.0051894165
106	0xbc24cff1	-0.010059343
107	0x3ba8f297	0.005155872
108	0xbd411e5e	-0.0471481
109	0xbcd32893	-0.025776183
110	0xbc0a6ad1	-0.008448319
111	0xbc371074	-0.011173356
112	0xbc9827b4	-0.01857362
113	0x3b2ea3d9	0.0026647954
114	0x3bf62c8c	0.0075126346
115	0x3d743161	0.059617404
116	0xbaf61c82	-0.0018776807
117	0xbd2bf18b	-0.0419784
118	0xbc903fde	-0.01760858
119	0xbd363ec7	-0.044493463
120	0x3d00a939	0.031411383
121	0xbd6fa9a4	-0.05851139
122	0xbc48e2a5	-0.0122610675
123	0xbca18d42	-0.019720677
124	0x3cc672ae	0.024224605
125	0xbc4413ab	-0.01196758
126	0xbca102fb	-0.019654742
127	0x3cbf0614	0.023318328
128	0xbd0ed71a	-0.034873106
129	0xbd3b324e	-0.04570227
130	0xbcee1aea	-0.029065568
131	0xbce756cf	-0.028239636
132	0xbca5cd16	-0.020239394
133	0xbc957388	-0.018243566
134	0x3c7c0003	0.015380862
135	0xbb67d5fe	-0.0035375352
136	0x3d099135	0.033585746
137	0x3cb85fab	0.022506556
138	0x3cf07dd7	0.02935688
139	0xbc9ee218	-0.01939492
140	0xbd8aace1	-0.06771255
141	0x3c1cdc7a	0.00957405
142	0x3c286e0a	0.010280142
143	0xbcacd525	-0.021097729
144	0xbc531086	-0.012882357
145	0xbbdebbfb	-0.0067973114
146	0xbc5439c2	-0.012953224
147	0x3b88326d	0.004156402
148	0xbc8e9165	-0.017403314
149	0xbcaee417	-0.021348996
150	0xbd4f617c	-0.050630078
151	0x3c402bde	0.011729209
152	0x3bcc69a5	0.0062381797
153	0x3d2dc4e8	0.042424113
154	0xbc4b2b44	-0.012400452
155	0x3cc40062	0.023925964
156	0xbc640e66	-0.0139194485
157	0x3bf0b3ae	0.0073456382
158	0x3c8162fb	0.015794268
159	0x3c6b49a6	0.014360821
160	0xbccb80d3	-0.024841702
161	0x3b9f5330	0.0048622116
162	0xbbcaae32	-0.0061853165
163	0x3d2382ef	0.03991979
164	0x3cf2f88c	0.029659532
165	0xbbf06e11	-0.0073373397
166	0xbcae1698	-0.021251008
167	0xbd1007e3	-0.03516377
168	0x3c981ec2	0.018569354
169	0x3b947cdd	0.0045314864
170	0xb90a428a	-0.00013185493
171	0x3baf82ff	0.005356192
172	0x3ca48c67	0.02008648
173	0xbc2625a2	-0.010140808
174	0xbc34720f	-0.011013522
175	0xbd7fee80	-0.06248331
176	0xbcb7b9f3	-0.022427535
177	0xbd2925d5	-0.041295845
178	0xbd8ddae3	-0.06926515
179	0x3babc648	0.005242143
180	0x3c06fe52	0.008239346
181	0xbb149705	-0.0022673022
182	0xbcbfd21a	-0.023415614
183	0xbc39f3ab	-0.011349599
184	0x3cef8d6f	0.029242245
185	0xbc1f09c7	-0.009706921
186	0x3d35b41f	0.04436123
187	0xbb869a5d	-0.004107757
188	0x3c07a303	0.008278611
189	0x3d3c7ca5	0.046017308
190	0x3ca2e88d	0.01988628
191	0xbb184415	-0.002323394
192	0x3cd53ec3	0.026030904
193	0xbcdd1986	-0.02698971
194	0x3ad536d3	0.0016266949
195	0xbd21c33a	-0.039492823
196	0x3d074cec	0.033032343
197	0xbd8e74ac	-0.06955847
198	0x3ba91e9f	0.005161121
199	0xbbe04f82	-0.0068454156
200	0xbc5bf51e	-0.01342514
201	0xbc107596	-0.008817097
202	0x3d260b0b	0.040537875
203	0x3c82636e	0.015916552
204	0x3ba1b566	0.0049349545
205	0x3c1434ad	0.009045762
206	0x3d2a8087	0.04162648
207	0x3c3e9385	0.011631851
208	0xbc3dd6f0	-0.01158689
209	0x3c47cdb4	0.01219504
210	0x3ac97826	0.001537089
211	0x3d27635b	0.040866237
212	0xbc6ef876	-0.014585605
213	0xbcdb646f	-0.026781289
214	0x3c5ff355	0.013668855
215	0x3c85320e	0.01625922
216	0x3d09c1e8	0.03363219
217	0x3d323418	0.04350671
218	0xbcc2d5ef	-0.023783652
219	0x3cc4228d	0.023942256
220	0x3bcaa951	0.006184735
221	0xbd2dea68	-0.042459875
222	0xbd572be9	-0.05253211
223	0x3d080f06	0.033217452

batch_norm1.running_var f4 [224]
0	0x3ead2b6e	0.33822197
1	0x3ed1c5b1	0.4097114
2	0x3ed93b3a	0.42428
3	0x3ea4ff04	0.3222581
4	0x3ed201bf	0.41016957
5	0x3ee0c53e	0.43900484
6	0x3e9213ed	0.28530827
7	0x3e92d97f	0.2868156
8	0x3ed05206	0.4068758
9	0x3eb6d918	0.35712504
10	0x3ec1c2d1	0.37843946
11	0x3ebcfa25	0.36909595
12	0x3ec9735d	0.39345828
13	0x3ed1d80e	0.4098515
14	0x3e87baef	0.26509807
15	0x3ea51505	0.322426
16	0x3ed30738	0.41216445
17	0x3f33180f	0.69958586
18	0x3f0eba2a	0.55752814
19	0x3e8d26c9	0.27568653
20	0x3eb95570	0.36197996
21	0x3ec662cc	0.3874725
22	0x3ea29608	0.3175509
23	0x3e9be361	0.30446914
24	0x3ee7efae	0.4530005
25	0x3f25aee8	0.6472001
26	0x3ed391e8	0.41322255
27	0x3ec78061	0.38965133
28	0x3f112ad9	0.56706005
29	0x3f324587	0.6963734
30	0x3eded3e5	0.43521038
31	0x3ee46bdd	0.44613543
32	0x3eb811c4	0.35951054
33	0x3ee62f61	0.44958022
34	0x3eb943af	0.3618445
35	0x3e8f31d4	0.27967703
36	0x3f0568da	0.52113116
37	0x3eb27623	0.34855756
38	0x3e86d689	0.26335552
39	0x3ecee019	0.40405348
40	0x3ec05b9e	0.37569898
41	0x3f23deff	0.6401214
42	0x3f0186d0	0.5059633
43	0x3f113820	0.56726265
44	0x3f018402	0.5059205
45	0x3f01ef9b	0.50756234
46	0x3eeb1f0a	0.45922118
47	0x3ef08ca1	0.4698229
48	0x3ee69ee4	0.450431
49	0x3f0f2945	0.5592235
50	0x3ebfa00f	0.37426803
51	0x3eec4434	0.46145785
52	0x3ead020c	0.33790624
53	0x3ecca1a3	0.3996707
54	0x3ed6e289	0.41969708
55	0x3edbc64c	0.42924726
56	0x3eea00bf	0.45703694
57	0x3ec10619	0.37699965
58	0x3ebf0598	0.37308955
59	0x3ee371ab	0.4442266
60	0x3eb87e06	0.36033648
61	0x3ed2b728	0.41155362
62	0x3eaba7c8	0.33526444
63	0x3ec20611	0.37895253
64	0x3f076443	0.5288736
65	0x3ed39e12	0.41331536
66	0x3ecac9db	0.39607129
67	0x3f0227b0	0.5084181
68	0x3ec79b27	0.3898556
69	0x3ea3cee8	0.31993794
70	0x3ee0b7d1	0.4389024
71	0x3f05c1a3	0.5224859
72	0x3e9598f4	0.29218256
73	0x3eaab76d	0.33343068
74	0x3f224e2d	0.63400537
75	0x3ed2968b	0.4113048
76	0x3ecdf4e5	0.40225902
77	0x3efd791b	0.4950646
78	0x3eef2331	0.46706536
79	0x3e8fe195	0.28101793
80	0x3e9a9ccf	0.3019776
81	0x3ef628d7	0.48078033
82	0x3ecddf6a	0.40209514
83	0x3ecbb696	0.3978774
84	0x3ee0cb4e	0.4390511
85	0x3e8f5448	0.2799399
86	0x3f11c4e6	0.5694107
87	0x3ee59014	0.44836485
88	0x3ecbea79	0.39827326
89	0x3f09ea46	0.538731
90	0x3ee0d160	0.4390974
91	0x3efa5437	0.48892376
92	0x3ee4b3d6	0.44668454
93	0x3ecb78a6	0.39740485
94	0x3eac66f6	0.33672303
95	0x3ee50fd9	0.44738653
96	0x3e8cf700	0.27532196
97	0x3e647a41	0.22312261
98	0x3ee54415	0.44778505
99	0x3eb3becc	0.35106504
100	0x3f118dc7	0.5685696
101	0x3e99a989	0.30012158
102	0x3f0b5428	0.5442529
103	0x3e9d4912	0.3071981
104	0x3ed2e128	0.41187406
105	0x3e6c0607	0.23049174
106	0x3ea7afe4	0.3275138
107	0x3edf8621	0.4365702
108	0x3ef5568c	0.47917593
109	0x3e926b20	0.28597355
110	0x3ebd2dca	0.36948997
111	0x3f7ab5b5	0.9793351
112	0x3ece2f78	0.4027059
113	0x3eccbb9c	0.39986885
114	0x3e9e7f94	0.3095671
115	0x3ec76553	0.38944492
116	0x3f070157	0.5273642
117	0x3eaa767c	0.3329352
118	0x3ebd8e61	0.3702269
119	0x3ebdd7bc	0.37078655
120	0x3ed70389	0.41994885
121	0x3f1e46fd	0.6182707
122	0x3ead0faa	0.33801013
123	0x3f10ddc2	0.56588376
124	0x3ed830d6	0.4222476
125	0x3f1c4140	0.61037064
126	0x3f11a241	0.56888205
127	0x3eeda508	0.4641497
128	0x3f0adb72	0.54241097
129	0x3ef90400	0.48635864
130	0x3ec7a56b	0.3899339
131	0x3e85755b	0.26066098
132	0x3ec7c5a7	0.39017984
133	0x3e7e1630	0.24813151
134	0x3eb22daa	0.34800464
135	0x3e5848b4	0.21121484
136	0x3e84eb33	0.25960693
137	0x3ebd7a41	0.37007335
138	0x3eedb5a9	0.46427658
139	0x3eb19153	0.34681186
140	0x3f3941d5	0.72366077
141	0x3f02230b	0.5083472
142	0x3e9caa14	0.3059851
143	0x3ee330e6	0.44373244
144	0x3f09c0da	0.53809893
145	0x3ec521e9	0.38502434
146	0x3eb4e2b9	0.35329226
147	0x3f05b8f3	0.52235335
148	0x3ebd5c5b	0.36984524
149	0x3ee1ee87	0.44127294
150	0x3eb74e2f	0.35801837
151	0x3eb06fbc	0.34460247
152	0x3f0d4ad9	0.55192333
153	0x3eb418e6	0.35175246
154	0x3ed53bc1	0.4164715
155	0x3ea1c1b8	0.31593108
156	0x3eacb2ff	0.33730313
157	0x3eea433b	0.45754418
158	0x3ead5363	0.33852682
159	0x3eab7b22	0.3349238
160	0x3eb51cf5	0.35373655
161	0x3eb8840a	0.36038238
162	0x3ebc5177	0.36780903
163	0x3ef97e43	0.48729143
164	0x3ea34dab	0.31895193
165	0x3ead1b9e	0.33810133
166	0x3f129211	0.5725413
167	0x3ef15358	0.471339
168	0x3ef363ac	0.4753698
169	0x3f2bd8bd	0.6712759
170	0x3f1845aa	0.594813
171	0x3ea065c7	0.3132765
172	0x3ea6af7e	0.32555765
173	0x3ec323fd	0.38113394
174	0x3ec6ecd5	0.38852564
175	0x3f12c750	0.57335377
176	0x3ec4df8a	0.38451797
177	0x3ef5012c	0.47852457
178	0x3eb0b641	0.3451405
179	0x3ef5b606	0.47990435
180	0x3e9b9afe	0.30391687
181	0x3f00f3f1	0.50372225
182	0x3f041ac8	0.51603365
183	0x3f083bc6	0.5321621
184	0x3ebfb74f	0.3744454
185	0x3ec96628	0.39335752
186	0x3ec121e5	0.37721172
187	0x3f09106a	0.5354067
188	0x3ee7bdd8	0.45262027
189	0x3ecefefd	0.40428916
190	0x3ecc6f7f	0.39928815
191	0x3f0aacf6	0.5417017
192	0x3f44aa01	0.76821905
193	0x3ecd5235	0.4010178
194	0x3eb6e33e	0.35720247
195	0x3ef6fe37	0.48240826
196	0x3ef7387c	0.48285282
197	0x3ec73795	0.38909593
198	0x3f1569ab	0.5836436
199	0x3eb1941f	0.3468332
200	0x3ea9291a	0.3303917
201	0x3f007cb3	0.50190276
202	0x3eadd0a3	0.3394824
203	0x3f10100b	0.5627448
204	0x3ef5c393	0.48000774
205	0x3e2f5d96	0.17125544
206	0x3f0a208b	0.53955907
207	0x3f060747	0.52354854
208	0x3ed229d3	0.41047534
209	0x3f0e1fac	0.5551708
210	0x3ef4ab0d	0.4778675
211	0x3ea5ede9	0.32408074
212	0x3ed4abe5	0.41537395
213	0x3eaa9388	0.33315682
214	0x3ebbdb86	0.3669092
215	0x3ee9155c	0.45524108
216	0x3e9851be	0.29749864
217	0x3ee8c7bf	0.45464894
218	0x3ee0faf7	0.4394147
219	0x3ed8bdc9	0.42332295
220	0x3f038914	0.5138104
221	0x3f0fb7cf	0.56139845
222	0x3ee7e71d	0.45293513
223	0x3ef606d2	0.48052078
