input/pytorchresnetstartertrainingoptuned/online_model3.pth (torch, 926515 bytes, 30 tensors)

batch_norm0.weight f4 [132]
0	0x3f50bf28	0.8154168
1	0x3f6f6499	0.93512875
2	0x3f6dcd7c	0.9289167
3	0x3f7ba3fd	0.982971
4	0x3f702729	0.93809754
5	0x3f88af96	1.0678585
6	0x3f82b619	1.0211822
7	0x3f79ebab	0.97625226
8	0x3f84b644	1.0368123
9	0x3f5680e0	0.837904
10	0x3f52f17f	0.82399744
11	0x3f6d4554	0.9268391
12	0x3f7457d8	0.9544654
13	0x3f571687	0.8401875
14	0x3f58582c	0.8450954
15	0x3f543865	0.8289855
16	0x3f6872dd	0.9080027
17	0x3f565021	0.83716017
18	0x3f667525	0.900225
19	0x3f5d27b3	0.863887
20	0x3f6d72d8	0.9275336
21	0x3f540a89	0.82828575
22	0x3f67d320	0.90556526
23	0x3f4df0cb	0.80445546
24	0x3f60cc06	0.87811315
25	0x3f52afb8	0.82299376
26	0x3f6824ff	0.9068145
27	0x3f7393e1	0.9514752
28	0x3f6fa5de	0.9361247
29	0x3f4fefdb	0.81225365
30	0x3f5df0a5	0.8669532
31	0x3f591874	0.8480294
32	0x3f5d2c0b	0.8639533
33	0x3f5d739f	0.8650455
34	0x3f623d8e	0.88375175
35	0x3f5104b9	0.8164783
36	0x3f5e95a6	0.86947095
37	0x3f62c2db	0.88578576
38	0x3f5ca8cd	0.8619507
39	0x3f836641	1.026558
40	0x3f645839	0.8919712
41	0x3f6240a8	0.8837991
42	0x3f5aa88c	0.8541343
43	0x3f7398fc	0.9515531
44	0x3f8159ea	1.0105565
45	0x3f75bff0	0.95996
46	0x3f5a6ade	0.85319316
47	0x3f67a471	0.9048529
48	0x3f65dfe1	0.8979474
49	0x3f6afd54	0.917928
50	0x3f5fe26a	0.87454855
51	0x3f77e8cf	0.9683961
52	0x3f5a7d9d	0.8534792
53	0x3f5e0713	0.86729544
54	0x3f59bdb3	0.85055083
55	0x3f839bdb	1.0281938
56	0x3f705de3	0.9389326
57	0x3f858e70	1.0434093
58	0x3f77788d	0.9666832
59	0x3f72300a	0.9460455
60	0x3f53eeaf	0.8278608
61	0x3f5cded5	0.86277515
62	0x3f5ebde6	0.8700851
63	0x3f5e1e1e	0.86764705
64	0x3f857475	1.0426165
65	0x3f72d06c	0.94849277
66	0x3f748de0	0.95528984
67	0x3f6d20cb	0.92628163
68	0x3f6f1270	0.9338751
69	0x3f6bf2a1	0.921671
70	0x3f788aff	0.9708709
71	0x3f76d052	0.9641162
72	0x3f5a7a84	0.85343194
73	0x3f4ca0ad	0.7993267
74	0x3f580a11	0.8439036
75	0x3f453e0e	0.7704781
76	0x3f47596f	0.7787084
77	0x3f678ecd	0.9045227
78	0x3f675c32	0.90375054
79	0x3f49f9eb	0.7889697
80	0x3f54cd31	0.831256
81	0x3f3edb8f	0.7455377
82	0x3f494344	0.78618264
83	0x3f796e6d	0.9743412
84	0x3f70e1c9	0.9409452
85	0x3f56ae69	0.8385988
86	0x3f739381	0.9514695
87	0x3f598a48	0.84976625
88	0x3f465804	0.7747805
89	0x3f5ec5c0	0.8702049
90	0x3f67f762	0.9061185
91	0x3f55d4fe	0.83528125
92	0x3f62b86d	0.8856266
93	0x3f54f05c	0.8317926
94	0x3f4d13ae	0.80108154
95	0x3f5a020b	0.8515937
96	0x3f6a7cb7	0.9159655
97	0x3f52efc2	0.8239709
98	0x3f5f0b97	0.8712706
99	0x3f561e56	0.8364004
100	0x3f563c79	0.83686024
101	0x3f598538	0.849689
102	0x3f607e16	0.8769239
103	0x3f4cc622	0.79989827
104	0x3f547a98	0.82999563
105	0x3f4c3421	0.7976704
106	0x3f4ebad5	0.80753833
107	0x3f5ac739	0.8546024
108	0x3f6bdbd3	0.921323
109	0x3f536037	0.8256869
110	0x3f65caf8	0.8976283
111	0x3f5ab62e	0.85434234
112	0x3f57a63a	0.84238017
113	0x3f5a0ba7	0.8517403
114	0x3f646f49	0.8923231
115	0x3f60c13a	0.8779484
116	0x3f4a5cd7	0.7904791
117	0x3f55223f	0.8325538
118	0x3f4fa32f	0.81108373
119	0x3f5e08e9	0.86732346
120	0x3f51de0e	0.81979454
121	0x3f5f3dbe	0.87203586
122	0x3f5afd00	0.855423
123	0x3f5213b5	0.8206132
124	0x3f4462b2	0.767131
125	0x3f588961	0.84584624
126	0x3f53d729	0.82750183
127	0x3f64ab6a	0.8932406
128	0x3f4d8ec0	0.80295944
129	0x3f608549	0.87703377
130	0x3f4fdeaf	0.81199163
131	0x3f47d917	0.7806563

batch_norm0.bias f4 [132]
0	0x3d2ef8d2	0.042717762
1	0xbcfa4064	-0.030548282
2	0xbd37fe5d	-0.044920314
3	0xbcbb3418	-0.022851989
4	0xbaa55b15	-0.0012615646
5	0xbbf9f96a	-0.0076286094
6	0x3c4acd9c	0.012378123
7	0xbc9bc4ca	-0.019014735
8	0xbc6f0ddb	-0.014590706
9	0xbd2228ae	-0.039589576
10	0xbd51cedf	-0.05122268
11	0xbd498fba	-0.049209334
12	0xbc035075	-0.008014788
13	0x3c9180d7	0.017761631
14	0x3b466bf3	0.0030276745
15	0xbbab4d78	-0.005227741
16	0xbb317fb2	-0.002708417
17	0x3c450101	0.012024165
18	0xbbc4868c	-0.0059974845
19	0x3c3891ab	0.011265199
20	0x3a953255	0.0011382798
21	0x3c112b8f	0.008860483
22	0xbc21a28f	-0.009865417
23	0xbb394f2b	-0.0028275948
24	0x3d456242	0.04818941
25	0xbc3cb480	-0.011517644
26	0x3b4eacc4	0.0031536082
27	0x3d3864b0	0.045017898
28	0x3d9df248	0.07712227
29	0xbd0d16cb	-0.034445565
30	0x3d3e8e9d	0.046522725
31	0x3bc711e6	0.0060751317
32	0xbb8c32a6	-0.0042784987
33	0x3cf3ff32	0.029784773
34	0xba888bc3	-0.0010417629
35	0xbbb34562	-0.0054709176
36	0x3c61d7f5	0.013784398
37	0xbd106995	-0.03525694
38	0x3b2abbb5	0.0026051824
39	0x3c9069e1	0.017628612
40	0x3d2369c6	0.039895795
41	0x3c36c0d3	0.011154371
42	0xbc3daca1	-0.0115768025
43	0xbcf1370a	-0.02944519
44	0x3d4f9f9e	0.050689332
45	0x3d57336d	0.052539278
46	0xbca6940d	-0.020334268
47	0xbd32a045	-0.043609876
48	0xbd9457f9	-0.07243342
49	0xbd3414bd	-0.04396509
50	0xbd5dc803	-0.054145824
51	0xbc4093ba	-0.011753971
52	0xbc89ac49	-0.016805785
53	0xbcb9d76e	-0.022685733
54	0x3c83e5be	0.01610076
55	0xbb9a92a1	-0.0047171866
56	0x38adfc89	8.296321e-05
57	0x3cca16b2	0.024669025
58	0x3cce4af6	0.025182229
59	0x3c73c1a3	0.01487771
60	0xbcd1bebe	-0.025603648
61	0x3b81b308	0.0039581098
62	0xbd4df037	-0.050277915
63	0xbd53f640	-0.051748514
64	0xbe882522	-0.2659083
65	0xbd923823	-0.071396135
66	0xbd41a211	-0.0472737
67	0xbd4cb0e8	-0.0499734
68	0xbd1e7e50	-0.03869468
69	0xbcc08352	-0.023500118
70	0xbd3ccb37	-0.04609224
71	0xbdbc1a1d	-0.09184668
72	0x3d2e1031	0.04249591
73	0xbd1f9e44	-0.038969293
74	0x3c51c50a	0.012803325
75	0x3c1f86d5	0.009736736
76	0xbcda3693	-0.026637351
77	0xbb44f5f0	-0.0030053817
78	0x3ba88027	0.00514223
79	0x3cbcf895	0.023067752
80	0x3cc27a59	0.02373998
81	0xba85cc08	-0.0010207901
82	0x3cf5402c	0.029937826
83	0x3add0c5f	0.0016864649
84	0x3b988f25	0.004655736
85	0x3c87d896	0.016582768
86	0x3b1af3a8	0.0023643766
87	0x3c99193c	0.01868879
88	0x3cf3665e	0.029711898
89	0x3ba6074c	0.005066788
90	0x3ace05e6	0.0015718311
91	0xbc3893a5	-0.01126567
92	0x3d29c690	0.04144913
93	0xbc70dc5a	-0.014700973
94	0x3bb3301d	0.005468382
95	0x3cea4b12	0.02860025
96	0x3c85b36a	0.016320903
97	0x3cc52ed8	0.024070188
98	0xbc4311e6	-0.011906123
99	0xbd1935c6	-0.037404798
100	0x3c942d7e	0.018088099
101	0x3b6667e3	0.0035157136
102	0x3d2bf60b	0.04198269
103	0xbce4a8e9	-0.027912574
104	0xbca14aad	-0.019688928
105	0x3cb72156	0.022354763
106	0xbbdf9362	-0.0068229893
107	0x3ba018ea	0.0048857825
108	0xbc6b3780	-0.014356494
109	0x3c8294ee	0.015940156
110	0xbc84aea2	-0.016196553
111	0x3c039732	0.008031653
112	0x3c3065c3	0.010766449
113	0xbd0169cb	-0.031595033
114	0x3ce7e2be	0.028306361
115	0xbcd8c8e6	-0.026462983
116	0x3cf810ec	0.030281506
117	0xbc9d117e	-0.01917338
118	0xbd032714	-0.03201969
119	0x3cb31e8a	0.021865148
120	0x3bdc27d8	0.006718617
121	0x3d85c69a	0.06532021
122	0x3ba758f9	0.005107042
123	0x3c7e1fc7	0.015510506
124	0x3b9fabf3	0.004872793
125	0x3d53489b	0.051582914
126	0xbd04d1d6	-0.032426678
127	0x3d42f828	0.04759994
128	0x3c40d0b0	0.011768505
129	0x3bbf1814	0.0058317278
130	0x3c04bf7f	0.008102297
131	0xbcddee39	-0.027091132

batch_norm0.running_mean f4 [132]
0	0x3bc29976	0.005938704
1	0x3ef50b83	0.47860345
2	0x3f08251a	0.5318161
3	0xbd53d14a	-0.051713265
4	0xbd868c54	-0.06569734
5	0xbc91ee4b	-0.017813822
6	0xbc7748ab	-0.015093009
7	0x3ce2236a	0.027604777
8	0x3c96bf22	0.018401686
9	0x3e8fed59	0.2811077
10	0x3e7fff4d	0.24999733
11	0x3daddcf8	0.08489412
12	0x3d9673cc	0.07346305
13	0x3e1cb62e	0.15303871
14	0x3df9c2c7	0.12195354
15	0x3e7030d8	0.23456132
16	0x3e709b50	0.23496747
17	0x3dfd814a	0.123781756
18	0x3e071811	0.13192774
19	0x3e86b7a6	0.26311988
20	0x3e83a435	0.25711218
21	0x3e3de55a	0.18544522
22	0x3e408a83	0.18802838
23	0x3e6ed4b4	0.23323327
24	0x3e735c95	0.23765786
25	0x3e861010	0.2618413
26	0x3e8648dd	0.26227465
27	0x3de8202a	0.1133426
28	0x3e0f6460	0.14003134
29	0x3e9c496a	0.3052476
30	0x3ea374eb	0.3192514
31	0x3e556807	0.20840465
32	0x3e712969	0.23550953
33	0x3e9680b8	0.2939508
34	0x3ea5238f	0.32253692
35	0x3ea5087e	0.32233042
36	0x3eaff747	0.34368345
37	0x3c86df45	0.016463885
38	0x3b47b3c0	0.003047213
39	0x3c0bfe30	0.00854449
40	0x391286d8	0.00013973878
41	0x3ec534aa	0.38516742
42	0x3ec985a7	0.3935978
43	0x3e6513aa	0.22370782
44	0x3e89903d	0.26867858
45	0x3e33cfc5	0.17559727
46	0x3eb206e6	0.34770888
47	0x3ebbc285	0.36671844
48	0x3eec45c7	0.46146986
49	0x3eff85bd	0.49906722
50	0x3ea72b43	0.32650194
51	0x3ed2017e	0.41016763
52	0xbd6d32f8	-0.057909936
53	0x3ea2a139	0.31763628
54	0x3e84847a	0.25882322
55	0x3ebeda22	0.37275797
56	0x3ee5b08f	0.44861266
57	0x3ec47de7	0.38377306
58	0x3eb4e529	0.35331085
59	0x3ec23a37	0.3793504
60	0x3f0a392f	0.53993505
61	0x3f0aeaaa	0.5426432
62	0x3ee3cbb6	0.44491357
63	0x3ee3c86a	0.4448884
64	0x3ec7dc75	0.39035383
65	0x3f13fa52	0.57803833
66	0x3f157daf	0.583949
67	0x3f20d858	0.62830114
68	0x3f212898	0.62952566
69	0x3ee92412	0.45535332
70	0x3eb65572	0.35612065
71	0x3ef11915	0.4708945
72	0x3c99c6bb	0.01877152
73	0xbd52ffaf	-0.05151337
74	0x3b2fef20	0.002684541
75	0xbcb93452	-0.022607956
76	0xbd4aae6d	-0.04948275
77	0x3caf67e9	0.021411853
78	0x3d31996d	0.04335921
79	0xbd1a36bb	-0.03764985
80	0x3cc179aa	0.023617584
81	0x3c03988b	0.008031975
82	0xbd01b05d	-0.031662334
83	0x3d4d0ee8	0.050063044
84	0x3ee5170b	0.44744143
85	0x3f104807	0.56359905
86	0x3edced7f	0.43149945
87	0x3eee39e5	0.46528545
88	0x3f0469ff	0.5172424
89	0x3ed9fe1a	0.42576677
90	0x3e762b17	0.24039875
91	0x3eccf4a2	0.4003039
92	0x3e849524	0.25895035
93	0x3e898832	0.2686172
94	0x3e9e48d4	0.30914938
95	0x3e60768d	0.21920224
96	0x3ee3d795	0.44500414
97	0x3f161980	0.5863266
98	0x3edc4569	0.43021706
99	0x3ee74440	0.45169258
100	0x3f04d20e	0.5188302
101	0x3ed3860b	0.41313204
102	0x3e444fba	0.19171038
103	0x3ec7ab0a	0.3899768
104	0x3e835b42	0.25655562
105	0x3e82a974	0.25519907
106	0x3e96c7cc	0.29449308
107	0x3e427e6d	0.1899354
108	0x3ee15446	0.44009608
109	0x3f06446a	0.5244814
110	0x3edeac6f	0.4349093
111	0x3ee090cd	0.43860474
112	0x3efda33c	0.495386
113	0x3ed4a461	0.4153166
114	0x3e61cdd6	0.22051176
115	0x3e814805	0.2525026
116	0x3e554260	0.20826101
117	0x3e4a222d	0.197396
118	0x3e638af9	0.22220983
119	0x3e796b2d	0.2435729
120	0x3ea15d3b	0.31516442
121	0x3e2c233d	0.16810317
122	0x3e902b51	0.28158048
123	0x3e0a8a7f	0.13529395
124	0x3ea2d041	0.3179951
125	0x3e0d68d6	0.13809523
126	0x3e9a03ec	0.30081117
127	0x3e08e12b	0.13367145
128	0x3e911a4f	0.28340384
129	0x3dfa3911	0.12217916
130	0x3f3837d1	0.7196017
131	0x3f5d5736	0.864612

batch_norm0.running_var f4 [132]
0	0x3f8030a2	1.0014842
1	0x40d47fbc	6.6405926
2	0x40d4d2cd	6.6507325
3	0x4069c2b6	3.6525092
4	0x403c0a62	2.9381337
5	0x402f5251	2.7393992
6	0x402c41d6	2.6915183
7	0x4021e97b	2.5298755
8	0x4052bd27	3.292795
9	0x40a7a7e0	5.2392426
10	0x4032967c	2.7904348
11	0x4022a76c	2.5414686
12	0x40b0ea70	5.528618
13	0x4095b136	4.677882
14	0x407c20f5	3.9395115
15	0x404a629b	3.1622684
16	0x40958f00	4.673706
17	0x400f1672	2.235745
18	0x407e882b	3.977061
19	0x402c6e50	2.694233
20	0x4070a511	3.7600749
21	0x40aad733	5.3387694
22	0x404b25ef	3.1741903
23	0x4084385d	4.1318803
24	0x40d4a21e	6.6447897
25	0x407ef9a7	3.9839876
26	0x40a7a668	5.2390633
27	0x3ff51515	1.9147059
28	0x405f8a67	3.4928224
29	0x4031dd8a	2.7791467
30	0x408c6be0	4.3881683
31	0x402e0032	2.718762
32	0x40c69acd	6.2063966
33	0x405e3e9e	3.4725718
34	0x4089fabc	4.311857
35	0x40ae3237	5.4436297
36	0x40a65812	5.198251
37	0x4069e761	3.6547472
38	0x408566f9	4.16882
39	0x401f2eee	2.4872394
40	0x40a5a6f4	5.17663
41	0x40834eeb	4.1033835
42	0x40bb884d	5.8603883
43	0x40b0e900	5.5284424
44	0x41097c55	8.5928545
45	0x400c49ac	2.1919966
46	0x400a5a33	2.1617553
47	0x4087e6ae	4.246909
48	0x4061dbb1	3.529034
49	0x401e42d2	2.4728284
50	0x4032fe29	2.7967627
51	0x406c4e30	3.6922722
52	0x40507166	3.2569213
53	0x40873461	4.225144
54	0x403d4f87	2.957979
55	0x413fa0ee	11.976789
56	0x417d81d7	15.844199
57	0x417924ae	15.571455
58	0x41749f9d	15.288968
59	0x419d27b4	19.644386
60	0x409a1939	4.815579
61	0x407967bc	3.8969564
62	0x409586a4	4.6726856
63	0x40a0ada8	5.0211983
64	0x40adc4f4	5.430292
65	0x4095d188	4.6818275
66	0x4041160a	3.0169702
67	0x40d2bb7a	6.5853853
68	0x40c8ce82	6.2752085
69	0x40a63018	5.193371
70	0x40c7f199	6.248242
71	0x40683bbb	3.6286457
72	0x406ba04f	3.6816595
73	0x40a29dec	5.0817776
74	0x4064c2ad	3.574382
75	0x408b1aa3	4.3470016
76	0x40ac7ba8	5.3900948
77	0x40f2514e	7.572425
78	0x40874763	4.227464
79	0x402278c7	2.5386217
80	0x4022a73c	2.5414572
81	0x4086e651	4.215615
82	0x4039cacf	2.9030035
83	0x40a19406	5.0493193
84	0x40933163	4.5997787
85	0x40c3da56	6.1204023
86	0x408a888a	4.3291674
87	0x40e764a4	7.231035
88	0x40d4558e	6.6354437
89	0x40ea84ce	7.3287115
90	0x407f4d09	3.9890769
91	0x40be6ea7	5.9510074
92	0x4075c75d	3.8402932
93	0x408518ca	4.159276
94	0x405a1b0d	3.407901
95	0x40b29079	5.580136
96	0x40a87817	5.2646594
97	0x40f0ed84	7.5289936
98	0x40c684cc	6.2037106
99	0x40a8d153	5.2755523
100	0x40b735d5	5.7253213
101	0x40e6bcec	7.2105618
102	0x409f29ea	4.9738665
103	0x4070e35e	3.7638774
104	0x4037acf9	2.8699324
105	0x40639567	3.5559938
106	0x40bc036d	5.875418
107	0x40af9c2b	5.4878135
108	0x40deeb64	6.966234
109	0x40d56e4c	6.669714
110	0x408f56ff	4.4793696
111	0x40847a83	4.139955
112	0x40d601d2	6.687722
113	0x410c73d9	8.778283
114	0x4081c72c	4.055563
115	0x4083144b	4.096227
116	0x409abac9	4.835301
117	0x40ad4e87	5.415836
118	0x4089f017	4.310558
119	0x406c0dd5	3.6883442
120	0x4056ae0a	3.3543725
121	0x408865d6	4.262431
122	0x4081b89d	4.053786
123	0x405f43f6	3.488523
124	0x403773fb	2.866454
125	0x4094bf4b	4.648351
126	0x40c499ee	6.1437902
127	0x403df6ae	2.9681811
128	0x40a07258	5.013958
129	0x40350708	2.8285542
130	0x415f6ca6	13.9640255
131	0x473e4c4a	48716.29

dense1.weight f4 [224, 132]
0	0xbd5bca16	-0.05365952
1	0x3cd105ea	0.025515515
2	0x3d0b0996	0.03394469
3	0x3d573598	0.052541345
4	0xbd843faf	-0.06457459
5	0x3cac432c	0.021028124
6	0x3d841b8f	0.06450569
7	0xbd428c6a	-0.04749719
8	0x3d4e7bd6	0.050411068
9	0xbd987b21	-0.0744536
10	0xbd346eaa	-0.04405085
11	0xbd80037d	-0.06250665
12	0xbcb7a767	-0.02241869
13	0xbda982d6	-0.08276908
14	0x3c7885eb	0.015168647
15	0xbca4add4	-0.020102419
16	0x3ce59c31	0.02802858
17	0x3ce2da53	0.027691996
18	0xbc74792d	-0.014921469
19	0x3d6671f4	0.056261018
20	0xbd9517da	-0.0727994
21	0xbd8196a9	-0.06327564
22	0xbc6c48b7	-0.014421633
23	0x3c6e1146	0.0145304855
24	0xbd23587a	-0.0398793
25	0x3c40cc65	0.011767481
26	0xbd7abe4a	-0.06121663
27	0xbd0a084b	-0.033699315
28	0xbd1e0876	-0.038582288
29	0x3c0175ab	0.007901589
30	0xbc6517ec	-0.013982754
31	0xbc31788c	-0.010831963
32	0x3d3de568	0.046361357
33	0x3c54f4f9	0.012997859
34	0xbd01a3e5	-0.031650443
35	0xbdae4d92	-0.08510889
36	0x3d623ca7	0.055233624
37	0xbcf947cf	-0.030429749
38	0xbd706ecf	-0.058699425
39	0x3bdb3a32	0.006690287
40	0x3c9fa48f	0.019487647
41	0xbd7bc024	-0.061462536
42	0x3c7b019c	0.015320208
43	0xbde8fadf	-0.11375975
44	0xbceccb1b	-0.028905442
45	0xbd0d6673	-0.03452153
46	0x3c596752	0.013269262
47	0x3cdfeb1e	0.027333792
48	0xbb98af1a	-0.0046595456
49	0x3d4a44dd	0.04938208
50	0xbb255d70	-0.0025232695
51	0x3ccb47ac	0.02481445
52	0x3d82cb1f	0.063863985
53	0xbc43b106	-0.011944061
54	0xbda4af96	-0.08041303
55	0x3daa7481	0.083230026
56	0x3c323636	0.010877183
57	0x3bf7c8c0	0.007561773
58	0x3c5a6724	0.013330255
59	0x3d76a09e	0.06021177
60	0x3d0567d9	0.03256974
61	0x3cfc5c31	0.030805679
62	0xbcdd4985	-0.027012596
63	0xbd341918	-0.043969244
64	0x3d8502ed	0.06494699
65	0x3c06bb71	0.0082234
66	0xbcfd3b18	-0.030911967
67	0x3d64a941	0.055825476
68	0xbcab3cfa	-0.0209031
69	0xbd316ec9	-0.043318544
70	0xbd8bdb4f	-0.06828939
71	0x3ceeb342	0.029138211
72	0xbd01f2a3	-0.031725537
73	0x3d2c65da	0.04208932
74	0x3ce3cfd5	0.027809063
75	0x3d318f0a	0.043349303
76	0x3c644f27	0.013934887
77	0xbc3f8766	-0.011689996
78	0xbce45952	-0.027874622
79	0x3c2209c6	0.0098900255
80	0xbd913367	-0.07089882
81	0xbc26e898	-0.010187291
82	0xbbc7a0b2	-0.0060921544
83	0x3c0c9cdc	0.00858232
84	0xbc991b96	-0.018689912
85	0x3d712bbb	0.058879595
86	0x3ccb820b	0.024842283
87	0xbd1b90cd	-0.03797989
88	0xbd829b4d	-0.063772775
89	0xbc311c77	-0.010810009
90	0xbd8442a2	-0.06458022
91	0x3c090424	0.008362804
92	0x3d0b3bdf	0.033992644
93	0xbd8b0868	-0.06788713
94	0xbd2291b0	-0.03968972
95	0x3c25109a	0.010074759
96	0xbd871ae0	-0.06596923
97	0xbda8911d	-0.08230803
98	0xbd14f9fe	-0.036371224
99	0x3d373e28	0.04473701
100	0xbdeabc05	-0.11461643
101	0x3c4668d8	0.012109958
102	0xbd80b5ec	-0.06284699
103	0xbd963959	-0.07335157
104	0xbd651743	-0.055930387
105	0xbd758826	-0.059944294
106	0xbd26a0cb	-0.040680688
107	0xbca53969	-0.020168977
108	0xbd2c1280	-0.04200983
109	0xbc8406fb	-0.01611661
110	0xbb3cd1e5	-0.002881163
111	0xbcc6c251	-0.02426258
112	0x3d56f82f	0.05248278
113	0x3b44de93	0.003003989
114	0x3b740796	0.0037235967
115	0xbcb9dd73	-0.022688603
116	0xbd76e729	-0.060279045
117	0xbc894920	-0.016758502
118	0xbccfe725	-0.025378773
119	0x3d950939	0.0727715
120	0xbc55ae74	-0.013042081
121	0x3ba24131	0.004951619
122	0xbdd1458f	-0.102183454
123	0xbaa78ec0	-0.0012783632
124	0xbca72206	-0.020401966
125	0x3d8404fd	0.06446264
126	0xbd6815e0	-0.056661487
127	0x3d719220	0.058977246
128	0xbd9b8475	-0.075936235
129	0xbd333e25	-0.043760438
130	0x3d2ad5fa	0.04170797
131	0x3cf8928f	0.030343322
132	0xbd0ccb10	-0.034373343
133	0x3d9ba980	0.07600689
134	0x3da46ab9	0.08028168
135	0xbcfbb2ac	-0.030724846
136	0x3d2bfdba	0.04199002
137	0xbcac8726	-0.021060538
138	0xbd298bc1	-0.041393045
139	0xbc409101	-0.011753322
140	0x3d869458	0.06571263
141	0x3d0c5460	0.034260154
142	0x3c61d236	0.013783028
143	0x3cd1bf1d	0.025603825
144	0xbcf9b968	-0.030483916
145	0xbd14ca95	-0.03632601
146	0x3bacabaf	0.0052694897
147	0xbc862de2	-0.0163793
148	0xbd0c461d	-0.034246553
149	0xbd767155	-0.060166676
150	0x3d3ff7d9	0.046867225
151	0xbd79e045	-0.061004896
152	0x3cd2dc51	0.02573982
153	0x3d8551ce	0.06509744
154	0x3d10c441	0.035343412
155	0xbcff82e2	-0.03119034
156	0xbd3396de	-0.04384505
157	0x3ca8464d	0.020541335
158	0x3d7a6612	0.061132498
159	0x3d402c6a	0.046917357
160	0xbb9b6027	-0.004741687
161	0x3cdf039d	0.027223403
162	0x3d435ad0	0.047694027
163	0x3d390bd2	0.04517729
164	0x3dab6ed8	0.08370751
165	0x3b789a6c	0.003793384
166	0x3d0b12cc	0.033953473
167	0x3c9457c5	0.018108258
168	0x3d8abf43	0.067747615
169	0xbd20cba8	-0.03925672
170	0xbbd2deb8	-0.0064352416
171	0x3c79b460	0.015240759
172	0x3d28ef69	0.041243944
173	0x3d451b1b	0.048121553
174	0xbd6d62f9	-0.057955716
175	0x3c8fd909	0.017559545
176	0x3d2b3b99	0.041804884
177	0x3d95bb45	0.073111095
178	0xbcd74690	-0.026278764
179	0x3d04f694	0.032461718
180	0xbca5d34f	-0.020242361
181	0xbd59f03d	-0.053207625
182	0x3d5d47a5	0.054023404
183	0xbd3027de	-0.04300677
184	0x3bb10bdb	0.0054030246
185	0x3da506de	0.080579504
186	0x3cd6faf5	0.026242713
187	0xbd956d35	-0.0729622
188	0x3c9cd1e4	0.019143052
189	0xbd358c41	-0.04432321
190	0xbd6d2395	-0.05789526
191	0xbd8ea6c7	-0.06965404
192	0xbd72223d	-0.059114683
193	0xbd447fac	-0.04797332
194	0x3d30ffc5	0.04321267
195	0xbce86216	-0.028367084
196	0xbdaf0ff2	-0.08547963
197	0x3ccaa1fb	0.024735441
198	0xbd9175f0	-0.07102573
199	0x3d10faa9	0.0353953
200	0xbd94bcf6	-0.07262604
201	0xbcded240	-0.027199864
202	0xbd609d23	-0.054837357
203	0x3b46f627	0.003035912
204	0xbd080289	-0.033205543
205	0xbd83d42d	-0.06436954
206	0x3d9161ce	0.07098733
207	0x3d99eb0e	0.07515536
208	0xbc7b1a85	-0.015326147
209	0x3c8f3aa2	0.017484013
210	0xbd42edce	-0.04759007
211	0x3ca92ae2	0.02065033
212	0xbbdd155c	-0.006746931
213	0x3beb8145	0.007187041
214	0xbd97b6f0	-0.074079394
215	0xbc926a49	-0.017872946
216	0xbd217f5d	-0.039428104
217	0x3d8c2262	0.068424955
218	0xbd7c0817	-0.061531153
219	0xbc633e43	-0.013869825
220	0x3c2c2562	0.01050696
221	0x3d47a5c7	0.048742082
222	0xbc9fe9d4	-0.019520678
223	0xba3cb588	-0.0007198681
224	0x3cc80380	0.024415731
225	0x3d1e4482	0.038639553
226	0xbd49e021	-0.04928601
227	0xbcb8b91d	-0.022549206
228	0xbd8768d0	-0.06611788
229	0x3d0104f4	0.031498864
230	0xbc6d57e1	-0.014486284
231	0xbd131b64	-0.035914794
232	0xbc0a955c	-0.008458462
233	0x3d85d3b8	0.06534523
234	0x3d5e800e	0.05432134
235	0x3d177ad0	0.036982358
236	0xbc79410f	-0.015213265
237	0xbd71b313	-0.05900867
238	0xbcde4c81	-0.02713609
239	0xb89c7c58	-7.4618205e-05
240	0xbd9f172b	-0.07768091
241	0xbd5a4e13	-0.053297114
242	0xbd1ee4ad	-0.0387923
243	0xbd222bd9	-0.039592598
244	0x3d154d41	0.03645063
245	0x3d04dd31	0.032437507
246	0xbc4371a2	-0.011928948
247	0xbc5871fc	-0.01321077
248	0x3c147dd8	0.009063207
249	0xbda09f5a	-0.07842894
250	0x3cc463e8	0.02397342
251	0x3dafc8ed	0.085832454
252	0x3d82c8ac	0.063859314
253	0x3d10d4ff	0.03535938
254	0xbd828f0d	-0.06374941
255	0x3a986067	0.001162541

dense1.bias f4 [224]
0	0x34c3b937	3.6456342e-07
1	0x3431dcca	1.6564732e-07
2	0xb4175638	-1.4094337e-07
3	0xb33bc8b0	-4.3721855e-08
4	0xb4320851	-1.6580567e-07
5	0x34becbe8	3.553862e-07
6	0x312fb6c6	2.5569746e-09
7	0xb4427586	-1.8110413e-07
8	0x349c6786	2.9132588e-07
9	0xb50cab6a	-5.2403504e-07
10	0xb47378b7	-2.2675054e-07
11	0xb42b769c	-1.5968766e-07
12	0x352e879f	6.5017406e-07
13	0xb4a8dfb9	-3.1455218e-07
14	0x34ae5505	3.2471885e-07
15	0xb571bd6f	-9.005516e-07
16	0x359a5d72	1.150109e-06
17	0x349f14d4	2.9631212e-07
18	0x33382c38	4.2881055e-08
19	0xb5a78aa0	-1.2482815e-06
20	0xb3fc5e95	-1.1751869e-07
21	0x35909308	1.0771628e-06
22	0xb5c10367	-1.4380611e-06
23	0xb4e29e3c	-4.221091e-07
24	0xb5225508	-6.047344e-07
25	0xb503f499	-4.915724e-07
26	0x32f7e05c	2.8856611e-08
27	0xb47f9270	-2.3802e-07
28	0x356aff0f	8.754295e-07
29	0xb54f6805	-7.726488e-07
30	0xb23678e7	-1.0621284e-08
31	0xb468011d	-2.1607089e-07
32	0xb441c9bd	-1.8047918e-07
33	0xb6268009	-2.4810454e-06
34	0xb5832481	-9.770885e-07
35	0xb4ece952	-4.4128188e-07
36	0x34466440	1.8476658e-07
37	0x31bdef35	5.5278186e-09
38	0x34c79298	3.71733e-07
39	0x341b2a02	1.4450782e-07
40	0xb40580d4	-1.2433458e-07
41	0xb5a4d640	-1.2281307e-06
42	0x3406a95e	1.2541338e-07
43	0xb52335fd	-6.0800795e-07
44	0x34ae64ea	3.248345e-07
45	0xb310509a	-3.360092e-08
46	0x34b01550	3.2798062e-07
47	0xb4881fa2	-2.535499e-07
48	0xb51ca4db	-5.8354425e-07
49	0xb501f681	-4.8414955e-07
50	0x35477a1a	7.431096e-07
51	0x33a26376	7.561805e-08
52	0xb4887c5f	-2.5422466e-07
53	0xb4056378	-1.2422777e-07
54	0x348eaf8a	2.6577283e-07
55	0x3519c2ab	5.728022e-07
56	0x33e174e9	1.0498645e-07
57	0x35dfe8bd	1.668253e-06
58	0xb41b406b	-1.4458935e-07
59	0x32c00459	2.2353719e-08
60	0xb4bf2067	-3.5600098e-07
61	0xb2c97ef7	-2.3457217e-08
62	0xb598db2f	-1.1388673e-06
63	0xb5161a7f	-5.591791e-07
64	0x33b98667	8.6391815e-08
65	0x34a4223a	3.0572284e-07
66	0xb5310c65	-6.5955675e-07
67	0xb52531ae	-6.1539583e-07
68	0xb5a46ac7	-1.2250028e-06
69	0xb42e2dd4	-1.6221685e-07
70	0x33be85f7	8.8719325e-08
71	0x344d8a5d	1.9142449e-07
72	0x343b5071	1.7444997e-07
73	0x34e12bdb	4.1941425e-07
74	0x3171d9b3	3.5193863e-09
75	0x33a45bcb	7.653542e-08
76	0x328b40d4	1.621121e-08
77	0x34515e23	1.9498889e-07
78	0xb48b5428	-2.5952e-07
79	0x34a99048	3.1583681e-07
80	0x35325e80	6.6447683e-07
81	0x33a39d39	7.6188776e-08
82	0x34dfdb24	4.1696433e-07
83	0x34a0e72b	2.997052e-07
84	0x318bbdd5	4.067014e-09
85	0xb51ed5bf	-5.917063e-07
86	0x349ac25f	2.882616e-07
87	0xb5471066	-7.415714e-07
88	0xb434b0f8	-1.6828187e-07
89	0xb4022d1c	-1.2123604e-07
90	0x35d1a873	1.5620739e-06
91	0xb488e95d	-2.5501768e-07
92	0x345060ef	1.9406774e-07
93	0x33d24408	9.791262e-08
94	0xb4e44056	-4.251512e-07
95	0x3370e1aa	5.6084595e-08
96	0xb3eed0e1	-1.11207335e-07
97	0xb4c4c7f4	-3.665333e-07
98	0xb5115031	-5.4133403e-07
99	0x345886dd	2.016563e-07
100	0xb4b83964	-3.4314428e-07
101	0xb5235680	-6.0848106e-07
102	0x343b4607	1.7441208e-07
103	0xb538c3ce	-6.8830275e-07
104	0x3382c04d	6.088576e-08
105	0xb4a2c11d	-3.031536e-07
106	0xb38ba49a	-6.502633e-08
107	0x300e3c35	5.174486e-10
108	0x34759f5e	2.287538e-07
109	0xb3d1343f	-9.7418244e-08
110	0xb582c325	-9.742549e-07
111	0x33fe1fff	1.1833617e-07
112	0xb453d458	-1.9728157e-07
113	0x333f46aa	4.453492e-08
114	0xb3e2c10d	-1.0559061e-07
115	0xb402a365	-1.2166636e-07
116	0x34aeef20	3.2584012e-07
117	0xb3f72592	-1.1508668e-07
118	0x332993e2	3.9482877e-08
119	0x34a5e7d2	3.0902316e-07
120	0xb4bb54cd	-3.4893165e-07
121	0x33776eb6	5.760986e-08
122	0x343694c7	1.7004196e-07
123	0xb4e35b4e	-4.2348478e-07
124	0xb41cefde	-1.4615895e-07
125	0xb3fd0317	-1.17817926e-07
126	0xb398ae09	-7.1097084e-08
127	0xb490aee3	-2.6949337e-07
128	0xb49e47ad	-2.9481944e-07
129	0x33e29194	1.05504256e-07
130	0x34cca662	3.811902e-07
131	0x34c5213d	3.6718293e-07
132	0x359cb66b	1.1675996e-06
133	0x35c80662	1.4903019e-06
134	0xb5a71fea	-1.2451758e-06
135	0xb4847214	-2.466992e-07
136	0x346362fa	2.117703e-07
137	0x3587ef3d	1.0127911e-06
138	0xb305081b	-3.0973847e-08
139	0x34d5df41	3.983678e-07
140	0x34341232	1.6770426e-07
141	0x349c6d99	2.9137007e-07
142	0xb48e2f4a	-2.6483968e-07
143	0x347de86f	2.364702e-07
144	0x33854421	6.205688e-08
145	0xb334dd4c	-4.2110784e-08
146	0x3421cccf	1.5068802e-07
147	0xb4f0a476	-4.4823145e-07
148	0x34083dc6	1.268846e-07
149	0x344213ec	1.8074905e-07
150	0xb5969dfd	-1.1221852e-06
151	0x33794238	5.8035056e-08
152	0xb3ec10d7	-1.09926695e-07
153	0x33b8f564	8.612804e-08
154	0x33f3f31c	1.13597906e-07
155	0x33e86868	1.0822333e-07
156	0x350f26ae	5.332794e-07
157	0x339ce355	7.3056675e-08
158	0x3460a9f8	2.092346e-07
159	0xb4904aa3	-2.6876396e-07
160	0xb3f53d12	-1.141981e-07
161	0x343bb5e4	1.7481904e-07
162	0x344bf582	1.8995163e-07
163	0xb450ff69	-1.9464427e-07
164	0xb4634de7	-2.1169363e-07
165	0x34f5b685	4.5767607e-07
166	0x34948d1b	2.7669816e-07
167	0x35e1d516	1.6825823e-06
168	0xb417e86b	-1.4147524e-07
169	0xb4261d3f	-1.5470594e-07
170	0x34ac9c3a	3.2151166e-07
171	0x35009a4a	4.7908236e-07
172	0xb4e88958	-4.3313298e-07
173	0x340f6d30	1.3357635e-07
174	0xb566be3a	-8.5958493e-07
175	0x34cc6199	3.8068973e-07
176	0xb465f621	-2.1416828e-07
177	0x33057412	3.107204e-08
178	0xb41814b8	-1.416364e-07
179	0x3438c710	1.7208754e-07
180	0x34a3c368	3.0503293e-07
181	0xb2b2f24f	-2.0832116e-08
182	0x350197b6	4.8277013e-07
183	0xb4f747ed	-4.6059668e-07
184	0x34de15d0	4.1366593e-07
185	0xb43d4c0c	-1.7629662e-07
186	0xb4a47e9c	-3.06395e-07
187	0xb5f25cfc	-1.8057467e-06
188	0x3505927b	4.975952e-07
189	0xb5217ddb	-6.016032e-07
190	0xb4765b10	-2.2943664e-07
191	0x343b55f6	1.7447005e-07
192	0xb4913914	-2.7049884e-07
193	0xb49fb7ae	-2.9749702e-07
194	0xb34809da	-4.657509e-08
195	0xb4560996	-1.993379e-07
196	0x34a99b45	3.1591676e-07
197	0xb4ba4c96	-3.4700923e-07
198	0xb493b20f	-2.7510438e-07
199	0x3328d86f	3.9312393e-08
200	0xb3708308	-5.5998527e-08
201	0x349af0c8	2.8859927e-07
202	0xb45a3862	-2.0323344e-07
203	0xb28575dd	-1.5536836e-08
204	0xaff32a82	-4.4231646e-10
205	0x35116c0c	5.417394e-07
206	0x33c38807	9.105138e-08
207	0xb455c392	-1.9908319e-07
208	0xb32db6ba	-4.044589e-08
209	0xb39d06e4	-7.3121356e-08
210	0x346bf911	2.197669e-07
211	0x33e507b7	1.0665047e-07
212	0xb60f8232	-2.1384444e-06
213	0x33ee118c	1.10859304e-07
214	0x3404b96e	1.2360917e-07
215	0x3513ab30	5.501088e-07
216	0xb1c713a3	-5.7938947e-09
217	0xb4a1290c	-3.0018452e-07
218	0xb5293533	-6.303482e-07
219	0x333c06e9	4.3778446e-08
220	0x334f418f	4.825557e-08
221	0xb3b5f01c	-8.472145e-08
222	0x34022950	1.2122223e-07
223	0xb4d67078	-3.9942438e-07

batch_norm1.weight f4 [224]
0	0x3f4912ee	0.7854451
1	0x3f2d97af	0.67809576
2	0x3f41791d	0.7557543
3	0x3f4822af	0.7817792
4	0x3f499fac	0.78759265
5	0x3f44af01	0.76829535
6	0x3f4e8659	0.8067375
7	0x3f435288	0.7629781
8	0x3f3f8fb3	0.7482864
9	0x3f53455e	0.8252772
10	0x3f2e9abe	0.6820487
11	0x3f468518	0.77546835
12	0x3f45633a	0.7710453
13	0x3f39251b	0.72322243
14	0x3f4ca43f	0.7993812
15	0x3f4fb734	0.8113892
16	0x3f436f13	0.7634136
17	0x3f4f6ee0	0.81028557
18	0x3f315333	0.69267577
19	0x3f4bed09	0.7965856
20	0x3f43f2cf	0.7654237
21	0x3f432eca	0.7624327
22	0x3f40d697	0.7532744
23	0x3f40ec46	0.75360525
24	0x3f3e00ef	0.74220175
25	0x3f483087	0.78199047
26	0x3f451749	0.76988655
27	0x3f32c9b4	0.69839025
28	0x3f417d34	0.7558167
29	0x3f501e4c	0.8129623
30	0x3f41bb86	0.75676763
31	0x3f40c561	0.75301176
32	0x3f5c569d	0.8606966
33	0x3f4b546d	0.794257
34	0x3f4ec55d	0.807699
35	0x3f47046c	0.7774112
36	0x3f560df0	0.83615017
37	0x3f3b3664	0.7312987
38	0x3f54c745	0.8311656
39	0x3f44590a	0.7669836
40	0x3f426b27	0.7594475
41	0x3f4941fd	0.78616315
42	0x3f42d25e	0.76102245
43	0x3f34a080	0.70557404
44	0x3f41356b	0.75472134
45	0x3f442726	0.76622236
46	0x3f56e13e	0.8393744
47	0x3f343825	0.7039817
48	0x3f519e0b	0.8188178
49	0x3f42693a	0.75941813
50	0x3f4c1140	0.7971382
51	0x3f3cdc2e	0.7377347
52	0x3f4a44c0	0.79011154
53	0x3f36a78f	0.71349424
54	0x3f2e81a3	0.6816656
55	0x3f426ed7	0.7595038
56	0x3f489b2c	0.78361773
57	0x3f4efd8e	0.80855644
58	0x3f3c97a0	0.7366886
59	0x3f3ff0a0	0.7497654
60	0x3f405d15	0.7514203
61	0x3f40e28b	0.7534568
62	0x3f59bb54	0.85051465
63	0x3f52f9de	0.8241252
64	0x3f46b69b	0.77622384
65	0x3f3eee6e	0.74582565
66	0x3f58a0b7	0.8462023
67	0x3f3d855b	0.7403161
68	0x3f527fcc	0.8222625
69	0x3f4e3cf5	0.80561763
70	0x3f3c7534	0.7361634
71	0x3f4aad1c	0.79170394
72	0x3f4f0e85	0.8088153
73	0x3f4b0488	0.7930379
74	0x3f3ddb10	0.7416239
75	0x3f458c31	0.7716704
76	0x3f4799bd	0.7796896
77	0x3f3b210d	0.73097306
78	0x3f479ca2	0.7797338
79	0x3f3c1802	0.73474133
80	0x3f4264b6	0.7593492
81	0x3f4139a6	0.7547859
82	0x3f454ead	0.77073175
83	0x3f4f519d	0.80983907
84	0x3f4505df	0.76962084
85	0x3f5a3017	0.8522963
86	0x3f42f63b	0.7615697
87	0x3f4964c5	0.7866939
88	0x3f4eca94	0.8077786
89	0x3f395ec3	0.7241022
90	0x3f3bf56a	0.7342135
91	0x3f53128c	0.82450175
92	0x3f47a058	0.7797904
93	0x3f51e267	0.8198609
94	0x3f3ea6a3	0.7447302
95	0x3f319552	0.6936847
96	0x3f47e0d7	0.78077453
97	0x3f47774b	0.779164
98	0x3f450909	0.7696691
99	0x3f483c8e	0.782174
100	0x3f4aabff	0.79168695
101	0x3f4b0d86	0.7931751
102	0x3f47e714	0.7808697
103	0x3f52e34e	0.8237809
104	0x3f48cf24	0.7844107
105	0x3f44a602	0.7681581
106	0x3f4465d3	0.7671787
107	0x3f3f7a0b	0.747956
108	0x3f3aea4f	0.73013777
109	0x3f467cb1	0.77534014
110	0x3f2dab17	0.6783919
111	0x3f531b24	0.8246329
112	0x3f4679ce	0.7752961
113	0x3f32277e	0.6959151
114	0x3f472a58	0.77798986
115	0x3f383a6a	0.7196413
116	0x3f32a110	0.6977701
117	0x3f3a410c	0.72755504
118	0x3f3cfbc5	0.7382167
119	0x3f4c1f3c	0.7973516
120	0x3f412572	0.7544776
121	0x3f466b24	0.77507234
122	0x3f4774fb	0.77912873
123	0x3f4e8759	0.80675274
124	0x3f4c46c0	0.79795456
125	0x3f46e3cb	0.77691334
126	0x3f467793	0.77526206
127	0x3f3b9251	0.73270136
128	0x3f4b0dc0	0.79317856
129	0x3f48183b	0.7816197
130	0x3f483d78	0.78218794
131	0x3f53c76f	0.82726187
132	0x3f3febd5	0.74969226
133	0x3f48878b	0.7833182
134	0x3f3f4df1	0.74728304
135	0x3f459a69	0.77188736
136	0x3f41a7a4	0.75646424
137	0x3f4bb7f7	0.79577583
138	0x3f4fc258	0.8115592
139	0x3f31cb7e	0.6945113
140	0x3f4c5e8c	0.7983177
141	0x3f55b4f9	0.8347927
142	0x3f427119	0.75953823
143	0x3f4a0323	0.78911036
144	0x3f4833c5	0.78203994
145	0x3f431412	0.762025
146	0x3f4d866c	0.80283237
147	0x3f4c5ab6	0.79825914
148	0x3f382a02	0.719391
149	0x3f5137e0	0.81725883
150	0x3f43794a	0.7635695
151	0x3f43a91e	0.7642993
152	0x3f5c21f5	0.85989314
153	0x3f3b925d	0.7327021
154	0x3f3f3009	0.7468267
155	0x3f50cb05	0.81559783
156	0x3f4e5cb2	0.8061019
157	0x3f401552	0.7503253
158	0x3f4b9dfa	0.7953793
159	0x3f4531f9	0.7702938
160	0x3f4af96b	0.7928683
161	0x3f386980	0.7203598
162	0x3f4601e8	0.7734666
163	0x3f4b4b8a	0.7941214
164	0x3f3a43aa	0.727595
165	0x3f4b499c	0.79409194
166	0x3f401ed5	0.75047046
167	0x3f4cb483	0.7996294
168	0x3f411836	0.7542757
169	0x3f3d6953	0.73988837
170	0x3f46cbc5	0.7765468
171	0x3f534607	0.8252873
172	0x3f3fd9cf	0.74941725
173	0x3f4aec44	0.7926676
174	0x3f3c1a4b	0.7347762
175	0x3f3ef0d5	0.7458623
176	0x3f4a2bae	0.789729
177	0x3f4a9819	0.7913833
178	0x3f44032f	0.7656736
179	0x3f492ef3	0.78587264
180	0x3f40b001	0.7526856
181	0x3f459453	0.7717945
182	0x3f4930a1	0.78589827
183	0x3f39ed11	0.7262736
184	0x3f372dd9	0.7155433
185	0x3f493823	0.7860128
186	0x3f3b9ab8	0.7328296
187	0x3f5a5549	0.85286385
188	0x3f4f40f7	0.80958503
189	0x3f4aee99	0.7927032
190	0x3f37eab0	0.7184248
191	0x3f53a88b	0.8267905
192	0x3f4c731a	0.7986313
193	0x3f44aa70	0.76822567
194	0x3f47f423	0.781069
195	0x3f4059d6	0.7513708
196	0x3f5c0353	0.8594257
197	0x3f49e2b6	0.7886156
198	0x3f4eb3c1	0.8074303
199	0x3f4f4438	0.8096347
200	0x3f4e19b1	0.8050795
201	0x3f43bd3b	0.7646062
202	0x3f45baab	0.7723796
203	0x3f3ec765	0.74523
204	0x3f50fc82	0.81635296
205	0x3f390ad9	0.7228218
206	0x3f4aefe4	0.79272294
207	0x3f3f8f10	0.7482767
208	0x3f42e76b	0.76134366
209	0x3f45e552	0.7730304
210	0x3f56a90f	0.8385171
211	0x3f3dfe26	0.74215925
212	0x3f4e0d15	0.8048871
213	0x3f37eb2d	0.71843225
214	0x3f3b2776	0.7310709
215	0x3f4f163c	0.808933
216	0x3f47636b	0.77886075
217	0x3f407f71	0.7519446
218	0x3f3e0916	0.74232614
219	0x3f30d04e	0.6906785
220	0x3f3f1ef1	0.7465659
221	0x3f4a52ea	0.79032767
222	0x3f41ea23	0.7574789
223	0x3f42bd71	0.76070315

batch_norm1.bias f4 [224]
0	0xbcd2adce	-0.025717642
1	0xbd91e418	-0.071235836
2	0xbd2a9153	-0.0416425
3	0xbd07e35e	-0.03317582
4	0xbcb9bb8c	-0.022672437
5	0xbc30d15e	-0.0107921045
6	0xbd4d6b5c	-0.050151214
7	0xbcd6e18c	-0.026230596
8	0xbd4d776e	-0.050162725
9	0xbc8d6d21	-0.01726395
10	0x3c9003b0	0.017579883
11	0xbceedec1	-0.029158952
12	0xbd0cd392	-0.034381457
13	0xbd2765dc	-0.040868625
14	0xbc97c19d	-0.01852494
15	0xbcff104f	-0.031135706
16	0xbbe739f5	-0.0070564696
17	0xbd3b175e	-0.04567658
18	0xbc5e48a3	-0.013567123
19	0xbd978d53	-0.07400002
20	0xbdabe809	-0.083938666
21	0xbd92455e	-0.07142137
22	0xbd13d316	-0.03608998
23	0xbd09f3cc	-0.03367977
24	0xbc0a2cf2	-0.008433567
25	0xbd6b2b4b	-0.057414334
26	0xbcae9e33	-0.02131567
27	0xbd53f4b5	-0.051747043
28	0xbd8b0298	-0.06787604
29	0xbd6117b6	-0.054954253
30	0xbcdb61eb	-0.02678009
31	0xbd90f9ab	-0.070788704
32	0xbd86e4a1	-0.06586576
33	0xbdd88777	-0.10572713
34	0xbd3ee1f8	-0.04660222
35	0xbcf573bc	-0.029962413
36	0xbd319e49	-0.043363843
37	0xbbcf74b2	-0.00633105
38	0xbc058fbd	-0.008151946
39	0xbda8f4c5	-0.08249811
40	0xbd313405	-0.0432625
41	0xbc013655	-0.007886489
42	0xbd50634b	-0.050875943
43	0xbd3e74a6	-0.046497963
44	0xbd8d89e0	-0.06911063
45	0xbc56911e	-0.013096122
46	0xbcb8ad9c	-0.02254372
47	0xbd5b0c34	-0.053478435
48	0xbd2cac02	-0.042156227
49	0xbcf1abb5	-0.029500822
50	0xbcb784a2	-0.022402111
51	0xbd23a663	-0.0399536
52	0xbd4d4dba	-0.050122954
53	0xbcb664d9	-0.022264885
54	0xbd2043a8	-0.039127022
55	0xbbe1eeca	-0.006894921
56	0xbd5ed0ed	-0.054398466
57	0xbb1c2016	-0.0023822836
58	0xbd38b033	-0.04508991
59	0xbba668d9	-0.005078417
60	0xbd2e02aa	-0.04248301
61	0xbc0cf6b2	-0.008603739
62	0xbcfc4cae	-0.030798282
63	0xbc5cbb66	-0.013472414
64	0xbd42f2fa	-0.047595
65	0xbc4967e6	-0.012292838
66	0xbda956c6	-0.08268504
67	0xbca14755	-0.019687334
68	0xbc06b0d3	-0.008220869
69	0xbcfebfc3	-0.031097298
70	0xbdbdf02f	-0.09274327
71	0xbcb20da1	-0.021735014
72	0xbcd25ba2	-0.02567846
73	0xbd00888f	-0.031380232
74	0xbd19301f	-0.037399407
75	0xbd0aaf1f	-0.033858415
76	0xbcfd206a	-0.030899245
77	0xbd1428a9	-0.03617159
78	0xbd22e6dd	-0.03977095
79	0xbd336a30	-0.04380244
80	0xbd14bd49	-0.03631333
81	0xbd02f2b3	-0.031969737
82	0x3c500172	0.012695657
83	0xbd0d519e	-0.034501664
84	0xbcc9b3f8	-0.024621949
85	0xbd6a00ae	-0.057129554
86	0xbc981eb5	-0.01856933
87	0xbd8ab089	-0.06771953
88	0xbc8a1f92	-0.016860757
89	0xbb6d687c	-0.0036225608
90	0xbd0466e3	-0.032324683
91	0xbd2f9b85	-0.042872924
92	0xbd422e47	-0.047407415
93	0xbaa90b70	-0.0012897085
94	0xbd8a9dc3	-0.06768372
95	0xbd113d23	-0.035458695
96	0xbd28d02a	-0.041214146
97	0xbc994384	-0.018708952
98	0xbd6cdcff	-0.057827946
99	0xbc17c5ab	-0.009263436
100	0xbd14fbcf	-0.036372956
101	0xbd6030ae	-0.054733925
102	0xbd55b29d	-0.052172292
103	0xbaca59d9	-0.0015438154
104	0x3bb04c93	0.005380222
105	0xbd158244	-0.036501184
106	0xbd844fb6	-0.06460516
107	0xbd02796a	-0.03185407
108	0xbd58c87a	-0.052925564
109	0xbcf2c984	-0.029637106
110	0xbd731795	-0.05934866
111	0xbd536e91	-0.051619116
112	0xbd6e7c1b	-0.058223825
113	0xbd01754f	-0.031606015
114	0xbd59e590	-0.053197443
115	0xbd3458e7	-0.044030096
116	0xbd5dd64e	-0.054159455
117	0xbbc66aa7	-0.0060551944
118	0xbd314ec4	-0.043288007
119	0xbd54cbc5	-0.051952142
120	0xbd2272dd	-0.039660323
121	0x3c1cc616	0.009568712
122	0xbd55e861	-0.052223567
123	0xbcc73916	-0.024319213
124	0x3c1b8c1c	0.009493854
125	0xbc3513c8	-0.0110520795
126	0xbda32720	-0.07966447
127	0xbccd810f	-0.025085954
128	0xba4f1968	-0.0007900209
129	0xbc58820a	-0.0132145975
130	0xbc8df6d2	-0.017329607
131	0xbd0bc1cf	-0.034120377
132	0xbc79df9d	-0.0152510675
133	0xbd4b7958	-0.04967627
134	0xbd60eb4c	-0.054911897
135	0xbcc97978	-0.024594054
136	0x3ad4b6c7	0.0016228788
137	0xbcfb65df	-0.030688224
138	0xbd93a4ed	-0.072091915
139	0xbcfe66a4	-0.031054802
140	0xbd8258f3	-0.06364622
141	0xbcaa74aa	-0.020807583
142	0xbd4eefdd	-0.05052172
143	0xbd5a99c3	-0.053369295
144	0xbd44a9e0	-0.048013568
145	0xbd331e0c	-0.043729827
146	0xbd5918ec	-0.053002283
147	0x3c24b219	0.010052227
148	0xbd055d4f	-0.03255969
149	0xbd3742e7	-0.044741537
150	0xbd14cbe2	-0.03632725
151	0xbd19d520	-0.037556767
152	0xbce7d91b	-0.028301766
153	0xbd517dda	-0.051145412
154	0xbd054087	-0.03253224
155	0xbc71ae44	-0.014751021
156	0xbc2a7ae2	-0.010405274
157	0xbcbfb57f	-0.023401974
158	0x3b2d7e29	0.0026472902
159	0xbc502c8e	-0.012705935
160	0x3c995274	0.018716075
161	0xbca78541	-0.020449283
162	0xbca8d9e8	-0.020611718
163	0xbd818cae	-0.06325661
164	0xbcd10a59	-0.02551763
165	0xbce22f08	-0.027610317
166	0xbcbe0e30	-0.023200125
167	0xbd7396e8	-0.059470087
168	0x3c450402	0.012024881
169	0xbd8f9034	-0.070099264
170	0xbd86bdc5	-0.065791644
171	0xbd0fd481	-0.03511477
172	0xbd6c9b54	-0.05776532
173	0xbdbe3b0e	-0.092886075
174	0xbd15c38e	-0.03656345
175	0xbc9aeb74	-0.0189111
176	0xbd1ac842	-0.037788637
177	0xbceae05b	-0.028671434
178	0xbc8ea81d	-0.017414147
179	0xbcf1124b	-0.029427668
180	0xbc8334cd	-0.016016388
181	0xbd7437d8	-0.05962357
182	0xbd18ed9e	-0.037335984
183	0xbcd39cb7	-0.025831563
184	0xbd836d7d	-0.064173676
185	0xbcd0c521	-0.025484623
186	0xbd83e71a	-0.064405635
187	0xbd047f0d	-0.032347728
188	0x3bc12703	0.005894543
189	0xbb180ebe	-0.0023202146
190	0xbb336000	-0.0027370453
191	0x3b3a24e0	0.0028403327
192	0xbd0e038c	-0.03467135
193	0xbcfbc923	-0.030735558
194	0xbd314a99	-0.043284032
195	0xbcd25cc7	-0.025679005
196	0xbdd03051	-0.101654656
197	0xbd241ced	-0.04006665
198	0x3b9f2ba2	0.0048574964
199	0xbcd40234	-0.025879957
200	0xbd671e29	-0.056425247
201	0xbd2c7e7f	-0.042112824
202	0xbc523d7c	-0.012832042
203	0xbccdf334	-0.025140382
204	0xbc9572c7	-0.018243207
205	0xbc482d6c	-0.012217861
206	0xbd842c46	-0.06453757
207	0x3b7caf3f	0.0038556603
208	0xbd885db3	-0.06658497
209	0xbd0d080a	-0.034431495
210	0xbd847706	-0.064680144
211	0xbca904d6	-0.020632189
212	0xbda5d98a	-0.08098133
213	0xbd1273a7	-0.035754826
214	0xbd4071d1	-0.046983544
215	0xbd52a0b3	-0.051422786
216	0xbcd02c71	-0.025411816
217	0xbd495e37	-0.049162116
218	0xbd6c37a3	-0.057670247
219	0xbc6a6f9f	-0.014308839
220	0xbcea7065	-0.028618047
221	0xbcb6d9db	-0.022320678
222	0xbd1f8467	-0.038944628
223	0xbc6e7474	-0.014554132

batch_norm1.running_mean f4 [224]
0	0xbcb47821	-0.022029938
1	0x3d062b94	0.032756403
2	0xbc9538a4	-0.018215485
3	0xbc5f9198	-0.013645552
4	0x3d38fdda	0.045163967
5	0xbc624757	-0.013810954
6	0xbcb241e2	-0.021759931
7	0xbd375c31	-0.044765655
8	0x3c789520	0.015172273
9	0xbcffe418	-0.031236693
10	0x3c4d2c71	0.012522803
11	0xbc52cd6c	-0.012866359
12	0x3923d62e	0.0001562468
13	0xbbcf2486	-0.0063214926
14	0x3cd368c7	0.025806798
15	0x3c32bfcc	0.010909986
16	0x3c4c8334	0.012482453
17	0xbb415ecf	-0.0029505973
18	0xbbef591d	-0.0073043243
19	0xbbdcbe63	-0.006736563
20	0x3c95dba3	0.018293208
21	0xbbeeb53a	-0.0072847875
22	0x3c24e823	0.010065111
23	0xbd1cb381	-0.038257126
24	0xbb6bc816	-0.0035977415
25	0x3c8bc268	0.017060474
26	0xbd1dcc0c	-0.038524672
27	0x3d012e84	0.0315385
28	0xbd3bf33a	-0.045886256
29	0xbb18c8c5	-0.0023313027
30	0xbcc33b7e	-0.023832079
31	0x3c4a053c	0.01233035
32	0xbced8a6a	-0.028996665
33	0xbce02099	-0.027359294
34	0x3c5dfc52	0.013548927
35	0xbc798e79	-0.015231722
36	0xbd6adb0f	-0.057337817
37	0x3c8ad3a5	0.016946623
38	0x3d1fc0b3	0.03900213
39	0xbd33438c	-0.04376559
40	0xbd4d582b	-0.05013291
41	0xbaf05b49	-0.0018337752
42	0xbc887f1d	-0.016662175
43	0x3c6499e7	0.013952709
44	0x3d62c7ce	0.05536633
45	0x3cd4fc2a	0.025999147
46	0x3c51e2fe	0.012810467
47	0xbc1235a6	-0.008923924
48	0xbd3d85c9	-0.046270166
49	0xbca7b071	-0.020469876
50	0x3c9dbcd2	0.019255076
51	0x3cde883d	0.027164573
52	0x3d2a224b	0.04153661
53	0x3d1348d1	0.035958115
54	0x3ad0a79e	0.0015919094
55	0x3c30489d	0.0107595
56	0xbb8d1244	-0.004305156
57	0x3d099d28	0.03359714
58	0x3cb016ce	0.02149525
59	0x3be8fbc1	0.0071100895
60	0xbca08b1a	-0.019597579
61	0x3cabfa99	0.020993518
62	0x3d3cf087	0.046127822
63	0xbc90e6fb	-0.017688265
64	0xbc9300af	-0.017944662
65	0xbd81d5cf	-0.06339609
66	0x3bddedc0	0.006772727
67	0x3d08e23a	0.03341887
68	0x3bbff0b7	0.005857553
69	0x3baf0ecb	0.0053423396
70	0x3d20a7b1	0.039222423
71	0x3b3c6d63	0.0028751723
72	0x3cb4b346	0.02205814
73	0xbd2e79a6	-0.04259648
74	0xbca589bd	-0.02020728
75	0x3d4e5163	0.050370585
76	0x3bb8d9a4	0.005641179
77	0xbc7e9b02	-0.015539886
78	0xbbdf1a09	-0.0068085236
79	0xbcde3b13	-0.027127778
80	0xbd636349	-0.055514608
81	0xbc62a601	-0.013833524
82	0xba4ef342	-0.00078945246
83	0x3d467b4d	0.048457433
84	0xbc1b988e	-0.009496821
85	0xbd012430	-0.03152865
86	0x3cc48e51	0.023993643
87	0xbd2d9e30	-0.042387187
88	0x3d1a67fe	0.03769683
89	0xbd1973c7	-0.03746393
90	0x3b72e292	0.0037061316
91	0x3c85273e	0.016254064
92	0xbc1b0bc3	-0.009463253
93	0xbc3906c6	-0.011293119
94	0xbc9b625e	-0.018967804
95	0x3c2ff357	0.010739169
96	0x3cce08ce	0.025150683
97	0x3bdc0273	0.006714159
98	0x3cb46114	0.022018947
99	0x3c213094	0.009838242
100	0x3d0cf8cd	0.034416962
101	0x3ca6841f	0.020326672
102	0x3d318028	0.04333511
103	0x3c33ffda	0.010986293
104	0xbd2d435f	-0.04230058
105	0x3c44ed34	0.012019444
106	0x3d0d05ed	0.03442948
107	0x3b3ba552	0.0028632474
108	0x3b5b1373	0.003342834
109	0xb9ae8eb2	-0.00033294183
110	0x3d2c11d5	0.042009193
111	0xbcb3da91	-0.021954807
112	0xbc6d793d	-0.0144942375
113	0xbc77efe1	-0.015132875
114	0xbc247271	-0.010037051
115	0x3ac97c19	0.0015372067
116	0xbbb48084	-0.0055084843
117	0x3c5292a8	0.012852348
118	0x3cd36191	0.02580336
119	0x3d34b13b	0.044114333
120	0x3d6ddafe	0.058070175
121	0xbcb3cfae	-0.021949615
122	0x3b9d201c	0.0047950875
123	0x3c92fd3d	0.017943019
124	0x3cb0366b	0.021510324
125	0x3c12ca65	0.008959387
126	0x3d65e39a	0.05612526
127	0x3c9ae5a5	0.018908331
128	0x3d2334ba	0.039845206
129	0xbd1d3636	-0.038381778
130	0xbcc73f21	-0.024322094
131	0xbd93a8fb	-0.07209965
132	0x3b238dc7	0.0024956332
133	0xbcb50f2d	-0.022101963
134	0x3c35dafb	0.011099572
135	0xbc0ff988	-0.00878752
136	0xbc0907ba	-0.008363659
137	0xbc29e085	-0.010368471
138	0xbcfb716b	-0.03069373
139	0xbc8da4d0	-0.017290503
140	0x3c86420b	0.016388914
141	0x3cb5c8f3	0.022190547
142	0x3c17c2f3	0.009262788
143	0x3ccba290	0.02485779
144	0xbcde9ba2	-0.02717382
145	0xbb6cd85b	-0.00361397
146	0xbbb62d25	-0.005559581
147	0xbd010f7e	-0.031508915
148	0x3d53d909	0.051720653
149	0xbd2725ec	-0.04080765
150	0xbc623883	-0.013807419
151	0x3ccd8672	0.025088523
152	0x3ca911dd	0.0206384
153	0x3ce15ea4	0.027510948
154	0x3c3a5748	0.0113733485
155	0xbc000aa8	-0.007815041
156	0xbcc9b18f	-0.0246208
157	0x3b868ebb	0.0041063703
158	0x3a4ac19b	0.0007734538
159	0xbceee555	-0.029162088
160	0x3d8248ec	0.06361565
161	0x3cfd0e1e	0.03089052
162	0x3d5105a1	0.05103076
163	0x3bf8df75	0.0075949975
164	0xbb9dee41	-0.004819662
165	0xbca49331	-0.020089718
166	0xbcc2dff2	-0.023788426
167	0xbd22a82e	-0.03971117
168	0x3b9aa2a3	0.004719095
169	0x3d1aa918	0.037758917
170	0xbc858ccc	-0.016302489
171	0xbc80515a	-0.015663791
172	0xb872d78b	-5.7898036e-05
173	0xbca3a4be	-0.019976016
174	0xbd075944	-0.033044115
175	0x3cff5b3e	0.031171437
176	0x3d19f4a1	0.037586812
177	0x3c2944d1	0.0103313485
178	0x3c87edb5	0.01659284
179	0x3c7d5ce0	0.015464038
180	0xbcdbfbe2	-0.026853506
181	0xbd2db726	-0.042410992
182	0x3ce100f4	0.027466275
183	0xbb84c08a	-0.0040512728
184	0x3d092a4c	0.033487603
185	0xbbcd709e	-0.0062695285
186	0x3d2abf06	0.04168608
187	0x3c903ffb	0.017608633
188	0xbba7a0e3	-0.0051156147
189	0x3c14fb22	0.009093078
190	0x3cd81175	0.026375512
191	0x3c2ba8b0	0.01047723
192	0xbd3542ae	-0.044253044
193	0xbd327f63	-0.043578517
194	0x3cb29798	0.021800801
195	0x3d2e0a27	0.04249015
196	0xbd42f033	-0.047592353
197	0xbc0ef471	-0.008725272
198	0x3bd22ef4	0.0064142887
199	0xbcf61148	-0.030037537
200	0xbd34f47d	-0.044178475
201	0x3b9123f0	0.004429333
202	0x3be752ab	0.0070594153
203	0xbb84ee90	-0.004056759
204	0x3cf7e11e	0.030258711
205	0x3d758314	0.05993946
206	0x3d1313ba	0.035907485
207	0xbd07656d	-0.03305571
208	0x3cca309e	0.024681386
209	0xbac649f6	-0.0015128243
210	0x3bc9007c	0.006134091
211	0x3bc3d784	0.005976619
212	0xbd3cd705	-0.046103496
213	0xbb6881ae	-0.0035477686
214	0xbb893b34	-0.0041879658
215	0xbd0544bc	-0.032536253
216	0x3ccdd076	0.025123816
217	0xbd539000	-0.051651
218	0xbc6be14e	-0.014396979
219	0xbca97c02	-0.020689014
220	0xbd8a1801	-0.0674286
221	0xbc5d01a1	-0.013489158
222	0x3cceb9a0	0.025234997
223	0xbc0da5b4	-0.008645464

batch_norm1.running_var f4 [224]
0	0x3f2617cc	0.6488006
1	0x3ebe4670	0.37163115
2	0x3ed2789e	0.4110765
3	0x3eb4a9ff	0.35285947
4	0x3eef9dd2	0.46800095
5	0x3ec1c20b	0.37843356
6	0x3eeeecb9	0.4666498
7	0x3f30e0a3	0.6909277
8	0x3edc5de4	0.43040383
9	0x3e9f6259	0.3112972
10	0x3eca7f2d	0.39550152
11	0x3eb834da	0.35977823
12	0x3f0c2268	0.5474
13	0x3ed14376	0.4087178
14	0x3ebb0c0f	0.36532637
15	0x3ee887cc	0.45416105
16	0x3eb6c7af	0.35699221
17	0x3f14d9bb	0.5814473
18	0x3ee6f7aa	0.45110828
19	0x3ed5bc16	0.4174506
20	0x3edbbc84	0.42917264
21	0x3ef7272e	0.4827208
22	0x3e92044a	0.28518897
23	0x3edeb1e7	0.43495104
24	0x3ee913e0	0.45522976
25	0x3e8b2192	0.2717405
26	0x3eb1124f	0.3458428
27	0x3e8f9857	0.28045914
28	0x3ecdc9d2	0.4019304
29	0x3ec0c4cb	0.3765014
30	0x3eefd459	0.46841696
31	0x3eabe112	0.33570153
32	0x3f239d18	0.6391158
33	0x3edf3cbb	0.4360102
34	0x3f027590	0.50960636
35	0x3f08a50e	0.53376853
36	0x3f0c0b25	0.54704505
37	0x3ed73b59	0.42037466
38	0x3e8ce1cf	0.27516028
39	0x3f38f233	0.72244567
40	0x3eb5cb94	0.3550688
41	0x3ee81c10	0.4533391
42	0x3ecf90d5	0.40540186
43	0x3e8f37a8	0.2797215
44	0x3f0d4e12	0.5519725
45	0x3eb43004	0.35192883
46	0x3eaae31e	0.33376402
47	0x3e998e7b	0.29991516
48	0x3ede3949	0.4340308
49	0x3ed5eeb0	0.41783667
50	0x3ebaeb2b	0.36507544
51	0x3eb28b87	0.34872076
52	0x3ed6bf10	0.41942644
53	0x3efb43a3	0.4907504
54	0x3ea1843f	0.31546208
55	0x3eb815a6	0.35954016
56	0x3eb37152	0.35047394
57	0x3f09e504	0.53865075
58	0x3ec4e78c	0.38457906
59	0x3ed067cf	0.407042
60	0x3f12193d	0.5706976
61	0x3ed26608	0.4109347
62	0x3eaff880	0.34369278
63	0x3ee4670e	0.44609874
64	0x3ed2886b	0.41119704
65	0x3e87d0d4	0.2652651
66	0x3ed9fdd8	0.4257648
67	0x3f0a03db	0.5391213
68	0x3ef6717d	0.4813346
69	0x3f109769	0.56481034
70	0x3f12efff	0.57397455
71	0x3ecad8f4	0.39618647
72	0x3e8f82ed	0.28029576
73	0x3f01d62a	0.50717413
74	0x3eb36f05	0.3504564
75	0x3ec759b5	0.3893563
76	0x3efb589a	0.49091035
77	0x3f1754dc	0.5911386
78	0x3f233cd9	0.6376472
79	0x3f1d0ef3	0.61350936
80	0x3f005003	0.5012209
81	0x3eb36666	0.3503906
82	0x3f084860	0.53235435
83	0x3eb1a47f	0.34695813
84	0x3eb4e558	0.35331225
85	0x3ed03123	0.40662488
86	0x3f1f7492	0.6228725
87	0x3ed9b494	0.42520583
88	0x3f079975	0.5296853
89	0x3f0c87ec	0.548949
90	0x3f1a059b	0.60164803
91	0x3ee04aef	0.4380717
92	0x3e984c7e	0.2974586
93	0x3eb229f2	0.34797627
94	0x3eb75ffe	0.35815424
95	0x3eacecee	0.33774513
96	0x3eb2e56f	0.3494067
97	0x3eacf2ee	0.3377909
98	0x3eb1b6ca	0.3470977
99	0x3e989d6e	0.2980761
100	0x3ec8c9ff	0.3921661
101	0x3edeaa42	0.4348927
102	0x3ef06b14	0.46956694
103	0x3ec67fd8	0.38769412
104	0x3ec2f21b	0.38075337
105	0x3ecbffe8	0.39843678
106	0x3f0d9230	0.5530119
107	0x3eb33bd3	0.3500658
108	0x3ee9dd59	0.45676687
109	0x3eb36d74	0.35044444
110	0x3eae43ea	0.3403619
111	0x3f0b938c	0.54522014
112	0x3f40e53f	0.753498
113	0x3ef491a9	0.4776738
114	0x3ee97191	0.45594457
115	0x3ed75f4a	0.42064887
116	0x3f02da3f	0.5111427
117	0x3ec6c8a5	0.38824955
118	0x3f0341ef	0.5127248
119	0x3ee991eb	0.4561914
120	0x3f10987d	0.5648268
121	0x3ebd2160	0.36939526
122	0x3ec74796	0.38921803
123	0x3edc2734	0.4299866
124	0x3eda4047	0.42627165
125	0x3ef062e5	0.4695045
126	0x3eee32d3	0.4652315
127	0x3e975df5	0.2956387
128	0x3ee46384	0.44607174
129	0x3f1886b3	0.59580535
130	0x3e951e05	0.29124466
131	0x3f18430b	0.594773
132	0x3e95e0db	0.29273114
133	0x3ebd6092	0.3698774
134	0x3ecedce7	0.4040291
135	0x3ec33866	0.38128966
136	0x3ec6a37e	0.3879661
137	0x3e9b6ad5	0.30354944
138	0x3ef065d5	0.46952692
139	0x3ec08e4c	0.37608564
140	0x3ee5050f	0.44730422
141	0x3f0bd1e6	0.54617155
142	0x3f087c8c	0.53315043
143	0x3e9ae47d	0.30252448
144	0x3ebb998d	0.36640587
145	0x3ed63098	0.4183395
146	0x3f0d293f	0.5514106
147	0x3ef68b3f	0.4815311
148	0x3edb449a	0.42825776
149	0x3e89a534	0.26883852
150	0x3ebfa374	0.37429392
151	0x3eabe0ad	0.33569852
152	0x3f194e5b	0.59885186
153	0x3ee11f84	0.43969357
154	0x3e8c5dbf	0.27415273
155	0x3efc95e9	0.49333122
156	0x3e9f9517	0.31168434
157	0x3ed7c909	0.42145565
158	0x3ebebfc4	0.3725568
159	0x3ea13488	0.3148539
160	0x3ec899ba	0.39179784
161	0x3ee6c5b1	0.45072702
162	0x3ea90099	0.33008268
163	0x3f01c0a5	0.5068458
164	0x3e9ddefe	0.30834192
165	0x3edeb60c	0.43498266
166	0x3eaed7a2	0.3414889
167	0x3f01427c	0.5049207
168	0x3f0fd42e	0.56183136
169	0x3ebbb023	0.3665782
170	0x3f0565af	0.5210828
171	0x3ea40aac	0.32039392
172	0x3eb4f3e3	0.3534232
173	0x3f04a6d5	0.51817065
174	0x3ed508b5	0.41608205
175	0x3f123898	0.57117605
176	0x3e97c047	0.29638883
177	0x3f0b58ab	0.5443217
178	0x3e9b08b0	0.30280066
179	0x3ee160ed	0.4401926
180	0x3ea57512	0.3231588
181	0x3f10ec1d	0.5661028
182	0x3ece2293	0.40260753
183	0x3ec93113	0.39295253
184	0x3ed2d45f	0.4117765
185	0x3f180e0f	0.5939645
186	0x3efc0f6e	0.49230522
187	0x3e7bed1d	0.2460217
188	0x3e880b44	0.26571095
189	0x3e87646e	0.2644381
190	0x3ea27aa5	0.31734195
191	0x3eff79d2	0.4989763
192	0x3ee4113f	0.44544408
193	0x3e98b675	0.29826704
194	0x3ee0e6aa	0.43925983
195	0x3eba1ca2	0.3634997
196	0x3f28ceb1	0.65940386
197	0x3ed4d949	0.41572025
198	0x3ea8284c	0.32843244
199	0x3eb5c12a	0.35498935
200	0x3ed9421f	0.4243326
201	0x3f08a304	0.5337374
202	0x3efa9c10	0.4894719
203	0x3ef6b393	0.4818388
204	0x3f063b3b	0.5243413
205	0x3e9e26ba	0.3088892
206	0x3ec3b8ba	0.38226873
207	0x3eb99d06	0.36252612
208	0x3ee90aa5	0.45515934
209	0x3e9dadd7	0.30796692
210	0x3e986782	0.2976647
211	0x3e8b3ebf	0.2719631
212	0x3ebfcd41	0.37461284
213	0x3eb57f93	0.35448894
214	0x3eb6d118	0.357064
215	0x3ec1ce25	0.37852588
216	0x3f238017	0.63867325
217	0x3eeade0b	0.4587253
218	0x3f12823d	0.5722998
219	0x3eb9e70d	0.3630909
220	0x3eea03f3	0.45706138
221	0x3ecf4e04	0.4048921
222	0x3e8880f5	0.26660886
223	0x3ea5bb2c	0.32369363
