input/pytorchresnetstartertrainingoptuned/online_model4.pth (torch, 926515 bytes, 30 tensors)

batch_norm0.weight f4 [132]
0.85141456 0.9324989 0.9541693 0.97130924 0.9431529 1.0163126 0.97925144 1.0069283
1.0391097 0.8713983 0.9153053 0.923201 0.9735517 0.8964869 0.91566294 0.8654956
0.92198753 0.90633947 0.90834427 0.89492506 0.92796147 0.8995261 0.9033433 0.90893984
0.8835166 0.87926495 0.92375803 0.9749165 0.9419645 0.9115212 0.8735109 0.894128
0.89129126 0.89060205 0.87565166 0.86765647 0.8959971 0.9390024 0.9251292 1.002663
0.94847965 0.86857057 0.8939182 0.96733224 1.0616878 0.9890922 0.88983333 0.9276761
0.9039204 0.94989556 0.92182004 0.97236156 0.8861188 0.90515083 0.9168952 1.0310059
0.97744954 1.0354329 0.9778414 0.9850224 0.9012822 0.8794194 0.918719 0.91997045
1.0302248 0.97279274 0.96078 0.9504362 0.9326835 0.97733253 0.9947462 0.97008544
0.8812124 0.85106 0.8730016 0.8466848 0.854165 0.9446187 0.9604415 0.8637902
0.8616921 0.83221406 0.83225757 0.9825431 0.98391545 0.872361 0.95731765 0.8797335
0.85691196 0.9062157 0.9276889 0.88659376 0.90113264 0.8817368 0.8544231 0.8871432
0.9206645 0.8811077 0.9097344 0.893813 0.8818593 0.89358276 0.86026055 0.8616031
0.88948864 0.87586063 0.8572588 0.87163633 0.9204994 0.8760919 0.93704206 0.89856493
0.8730856 0.87311304 0.93374705 0.891087 0.8784887 0.8541497 0.8626421 0.89682055
0.8770449 0.9308689 0.8546397 0.86993766 0.86086977 0.8942868 0.8693273 0.8503858
0.8613178 0.85752094 0.8296481 0.9612163
00000000: 4ef6 593f 3fb8 6e3f 7044 743f b9a7 783f
00000010: 7872 713f 8816 823f 39b0 7a3f 07e3 803f
00000020: 8c01 853f f613 5f3f 7351 6a3f e756 6c3f
00000030: af3a 793f 2a80 653f e368 6a3f 1f91 5d3f
00000040: 6007 6c3f dd05 683f 4089 683f cf19 653f
00000050: e28e 6d3f 5847 663f 8241 673f 48b0 683f
00000060: 252e 623f 8217 613f 687b 6c3f 2194 793f
00000070: 9624 713f 7459 693f 699e 5f3f 93e5 643f
00000080: aa2b 643f 7ffe 633f b52a 603f bc1e 5e3f
00000090: 1160 653f 7662 703f 44d5 6c3f 4357 803f
000000a0: 90cf 723f a45a 5e3f d3d7 643f 16a3 773f
000000b0: 63e5 873f 2535 7d3f 1ecc 633f 2e7c 6d3f
000000c0: 5467 673f 5b2c 733f 66fc 6b3f b0ec 783f
000000d0: afd8 623f f7b7 673f a5b9 6a3f 00f8 833f
000000e0: 223a 7a3f 1189 843f d053 7a3f 6e2a 7c3f
000000f0: 6eba 663f a121 613f 2b31 6b3f 2f83 6b3f
00000100: 68de 833f f208 793f aef5 753f c94f 733f
00000110: 59c4 6e3f 7732 7a3f b0a7 7e3f 8557 783f
00000120: 2397 613f 11df 593f 087d 5f3f 56c0 583f
00000130: 8faa 5a3f 88d2 713f 7fdf 753f 5b21 5d3f
00000140: da97 5c3f fb0b 553f d50e 553f f287 7b3f
00000150: e2e1 7b3f 0d53 5f3f c512 753f 3736 613f
00000160: 955e 5b3f c1fd 673f 057d 6d3f cff7 623f
00000170: a1b0 663f 81b9 613f 79bb 5a3f d11b 633f
00000180: abb0 6b3f 4690 613f 5be4 683f eed0 643f
00000190: 88c1 613f d7c1 643f 093a 5c3f 0592 5c3f
000001a0: 87b5 633f 6738 603f 5075 5b3f 8f23 5f3f
000001b0: d9a5 6b3f 8f47 603f fde1 6f3f 5a08 663f
000001c0: 8a82 5f3f 5684 5f3f 0c0a 6f3f 471e 643f
000001d0: a3e4 603f 8ea9 5a3f 1dd6 5c3f 0896 653f
000001e0: 0486 603f 6d4d 6e3f abc9 5a3f 3cb4 5e3f
000001f0: f661 5c3f fbef 643f 3c8c 5e3f e2b2 593f
00000200: 537f 5c3f 7e86 5b3f d163 543f 4512 763f

batch_norm0.bias f4 [132]
0.008963115 0.01053629 -0.041880175 0.008921009 -0.01124224 -0.021833012 -0.0076233256 -0.028463028
-0.023494186 -0.017807465 -0.030068934 -0.034421816 -0.034316633 -0.031084955 -0.025584213 0.005082187
-0.04759274 0.04203788 -0.0060659763 -0.020873934 -0.008481805 0.008440485 -0.008380377 0.038519796
-0.033024296 -0.0146004055 0.0022056666 0.06744404 0.03372903 -0.015409655 -0.003748742 0.01657325
0.019954378 -0.0019966518 -0.0031738095 0.021417076 -0.009115992 -0.0066398913 -0.005119849 0.0489887
0.03592129 -0.008515324 -0.03624549 0.025755135 -0.02130332 0.015239782 -0.04734286 -0.027666837
-0.0614883 -0.06316154 -0.022236459 -0.028157609 -0.018211052 -0.009332683 -0.011262208 0.0033502134
-0.011464927 0.043174464 0.013467259 0.028931811 0.010007991 -0.016274206 -0.046572197 -0.042065017
-0.1619801 -0.037568048 -0.046252634 -0.047818393 -0.03726079 -0.03517011 -0.03222835 -0.054372977
0.0043595107 -0.017040642 0.009079872 -0.013638283 -0.015929082 -0.008526629 -0.0036532688 0.0065374393
0.0036242262 0.017542418 -0.0052025295 0.00058197614 0.011683142 -0.00110384 0.0006493829 -0.011041897
0.009660086 -0.0010171765 0.021137763 0.018864907 -0.024781255 0.0032224583 0.00087900925 0.0058928337
0.010485001 -0.008049522 -0.003823714 -0.010580984 0.02527491 0.018368041 0.008902597 -0.019319054
0.0074300477 -0.00058910355 0.0042790365 0.004458283 -0.023753133 0.050900232 0.001987738 0.012184232
-0.0073504495 -0.03205185 -0.0100120865 -0.016005231 0.0074995407 0.004441038 -0.0046453523 0.010038456
0.004692609 0.04956353 0.0022115416 -0.016142854 -0.0068725958 -0.01651787 0.017341329 0.017062189
0.0020317726 0.014099066 -0.0042404956 -0.011092794
00000000: 07da 123c 67a0 2c3c 8c8a 2bbd 6c29 123c
00000010: 5f31 38bc 25db b2bc 17cd f9bb 4c2b e9bc
00000020: e176 c0bc f6e0 91bc 2053 f6bc e4fd 0cbd
00000030: 998f 0cbd e0a5 febc fc95 d1bc 7988 a63b
00000040: 9bf0 42bd e92f 2c3d 19c5 c6bb d0ff aabc
00000050: 45f7 0abc f649 0a3c d94d 09bc efc6 1d3d
00000060: 7c44 07bd 8a36 6fbc f28c 103b 1a20 8a3d
00000070: 7427 0a3d c778 7cbc 74ad 75bb a0c4 873c
00000080: 5d77 a33c 42da 02bb b0ff 4fbb dd72 af3c
00000090: 3e5b 15bc 7293 d9bb 68c4 a7bb 60a8 483d
000000a0: 3422 133d dc83 0bbc 2776 14bd 6ffc d23c
000000b0: 4d84 aebc 47b0 793c 96ea 41bd 90a5 e2bc
000000c0: 28db 7bbd d65a 81bd 3c29 b6bc c9aa e6bc
000000d0: 582f 95bc 1ce8 18bc 2085 38bc 418f 5b3b
000000e0: 64d7 3bbc b5d7 303d c7a5 5c3c 6802 ed3c
000000f0: 8ff8 233c 7c51 85bc 7dc2 3ebd 5e4c 2cbd
00000100: 1dde 25be f4e0 19bd 6773 3dbd 38dd 43bd
00000110: c59e 18bd 890e 10bd e001 04bd 33b6 5ebd
00000120: 3ada 8e3b d198 8bbc bec3 143c 1b73 5fbc
00000130: b57d 82bc 46b3 0bbc ae6b 6fbb 0438 d63b
00000140: 6d84 6d3b 1eb5 8f3c fb79 aabb c28f 183a
00000150: a66a 3f3c b9ae 90ba 593b 2a3a 13e9 34bc
00000160: 5645 1e3c c852 85ba 1a29 ad3c 948a 9a3c
00000170: 0f02 cbbc e12f 533b 506d 663a ac18 c13b
00000180: 48c9 2b3c 24e2 03bc 4797 7abb dd5b 2dbc
00000190: 540d cf3c 9378 963c 33dc 113c fe42 9ebc
000001a0: c277 f33b 126e 1aba 2937 8c3b ca16 923b
000001b0: ee95 c2bc c37c 503d b644 023b 5fa0 473c
000001c0: 0adc f0bb cd48 03bd bc09 24bc 671d 83bc
000001d0: b5be f53b 2086 913b 0a38 98bb 5678 243c
000001e0: 75c4 993b 2103 4b3d 83ef 103b 053e 84bc
000001f0: 8333 e1bb 7c50 87bc 670f 8e3c 01c6 8b3c
00000200: 7d27 053b c5ff 663c dbf3 8abb 8dbe 35bc

batch_norm0.running_mean f4 [132]
0.0054140403 0.4820888 0.48525488 -0.015830465 -0.015508425 -0.02559729 -0.03256024 0.07840967
0.043192077 0.3259749 0.24549983 0.10143149 0.08004812 0.18429607 0.1257966 0.26234165
0.22476283 0.13591017 0.13216887 0.2731825 0.22987528 0.19139224 0.16828556 0.23758747
0.20697272 0.2689256 0.22814098 0.14452958 0.16458985 0.31894243 0.35018498 0.23279136
0.28215623 0.31794712 0.3599986 0.3442655 0.3830876 0.037995555 0.017330246 0.05930305
0.06776628 0.2972376 0.47570002 0.30723116 0.3841727 0.20035654 0.37092572 0.42645824
0.49673828 0.5017112 0.3107046 0.3583973 -0.069662325 0.41526002 0.28133914 0.30316344
0.38628703 0.3203292 0.33798632 0.33783814 0.5401942 0.543576 0.5148482 0.5132509
0.43332887 0.6248359 0.62242335 0.61435664 0.61325765 0.46609277 0.28060502 0.43382144
0.059028152 0.005082271 0.015325573 0.008953156 0.0054883854 -0.030559974 0.05009138 -0.001384423
0.022344152 0.026678072 8.09523e-05 -0.020575373 0.48565292 0.6048306 0.47028515 0.50655586
0.5442194 0.52970827 0.24498647 0.43461916 0.27255988 0.28500155 0.33036995 0.25714973
0.46427724 0.5401772 0.4647531 0.44880676 0.4825948 0.51982194 0.18289664 0.3625609
0.26992053 0.2534998 0.26916665 0.24348779 0.48174953 0.5330998 0.47483307 0.45911348
0.5045956 0.53940886 0.22111686 0.25179613 0.22909041 0.20984834 0.21914166 0.27947053
0.37698266 0.1776567 0.37120706 0.15542176 0.36488214 0.12884185 0.38632187 0.13123405
0.3772043 0.1377508 0.71061176 0.87614226
00000000: 4368 b13b 58d4 f63e 5473 f83e e4ae 81bc
00000010: 0d17 7ebc 68b1 d1bc e35d 05bd 4095 a03d
00000020: 2dea 303d 2fe6 a63e 4f64 7b3e 50bb cf3d
00000030: 45f0 a33d 1cb8 3c3e d3d0 003e a551 863e
00000040: 3a28 663e 092c 0b3e 4757 073e 94de 8b3e
00000050: 6d64 6b3e 54fc 433e 0d53 2c3e 214a 733e
00000060: a8f0 533e 9eb0 893e ca9d 693e 90ff 133e
00000070: 3e8a 283e 6c4c a33e 724b b33e dc60 6e3e
00000080: c876 903e f7c9 a23e bd51 b83e 9143 b03e
00000090: 0f24 c43e 3aa1 1b3d 29f8 8d3c c1e7 723d
000000a0: 0cc9 8a3d 872f 983e f48e f33e 674d 9d3e
000000b0: 49b2 c43e 442a 4d3e fae9 bd3e bc58 da3e
000000c0: 7b54 fe3e 2570 003f ac14 9f3e da7f b73e
000000d0: 1fab 8ebd f69c d43e af0b 903e 3d38 9b3e
000000e0: 6ac7 c53e 3002 a43e 8b0c ad3e 1ff9 ac3e
000000f0: 2b4a 0a3f cc27 0b3f 17cd 033f 6964 033f
00000100: 48dd dd3e 3ff5 1f3f 2357 1f3f 7a46 1d3f
00000110: 74fe 1c3f b6a3 ee3e 76ab 8f3e d81d de3e
00000120: 81c7 713d 2e89 a63b 1d18 7b3c 42b0 123c
00000130: ead7 b33b e958 fabc 9e2c 4d3d 8775 b5ba
00000140: 150b b73c f98b da3c efc4 a938 af8d a8bc
00000150: 80a7 f83e 2ed6 1a3f 37c9 f03e a5ad 013f
00000160: f651 0b3f f69a 073f bcdd 7a3e 6786 de3e
00000170: f88c 8b3e b9eb 913e 4026 a93e 21a9 833e
00000180: bfb5 ed3e 0e49 0a3f 1ef4 ed3e 00ca e53e
00000190: aa16 f73e 0d13 053f 4249 3b3e 95a1 b93e
000001a0: 0633 8a3e baca 813e 36d0 893e dd54 793e
000001b0: e0a7 f63e 3a79 083f 521d f33e ec10 eb3e
000001c0: 2d2d 013f b316 0a3f 756c 623e 6ceb 803e
000001d0: ad96 6a3e 7ce2 563e ac66 603e c316 8f3e
000001e0: df03 c13e a3eb 353e da0e be3e e226 1f3e
000001f0: d5d1 ba3e 1eef 033e fbcb c53e 3862 063e
00000200: ec20 c13e 8c0e 0d3e a7ea 353f dc4a 603f

batch_norm0.running_var f4 [132]
1.0015707 6.4173856 6.171281 3.7683291 2.9884846 2.8906517 2.6304126 2.5748734
3.2496336 5.290434 2.6976473 2.5894952 5.557447 4.8919716 4.0708065 3.20785
4.6466303 2.3998702 3.9583108 2.7608888 3.6430295 5.5401864 3.1452932 4.2464776
6.6825385 4.067982 5.1405554 2.0187426 3.4380765 2.877021 4.401465 2.7659326
6.21393 3.6850977 4.4571886 5.658349 5.206893 4.1720767 4.386237 2.630132
5.18947 3.7093349 5.780094 5.395201 8.682053 2.1838305 2.2444935 4.3317738
3.5694578 2.4044104 2.7484746 3.5484455 3.1964595 4.44013 2.979926 8.513611
27.149294 12.136365 16.816608 25.011606 4.804052 3.8858078 4.858865 5.2616124
5.4338384 4.7100563 3.0266054 6.4948215 6.1911674 5.043415 5.942228 3.2791514
3.869978 4.7592754 3.4977202 4.1040063 5.0731015 8.186195 4.2950234 2.677153
2.6707788 4.2777586 2.9198937 5.6548424 4.952881 6.3434443 4.5747786 7.3358293
6.8019557 8.000832 4.0508738 7.1028934 3.9157875 4.38164 4.0183663 5.452715
5.3504457 6.3112373 6.1700497 4.6733975 4.794401 7.9683995 4.9404635 3.338932
2.8808293 3.351304 5.2622347 5.4307685 7.184468 6.0861874 4.595726 3.8716803
6.206232 9.55681 4.059247 4.315311 4.8642163 5.4278917 4.343669 3.6225648
3.250989 4.3652787 4.14881 3.4751093 2.7428687 4.7016826 6.057095 2.9884872
5.075405 2.8675954 14.584372 279798.47
00000000: 7833 803f 395b cd40 227b c540 4e2c 7140
00000010: 5543 3f40 7000 3940 ae58 2840 baca 2440
00000020: fff9 4f40 3c4b a940 41a6 2c40 4aba 2540
00000030: 9bd6 b140 088b 9c40 0c44 8240 6a4d 4d40
00000040: 32b1 9440 7997 1940 f754 7d40 67b2 3040
00000050: 6527 6940 3549 b140 7c4c 4940 25e3 8740
00000060: 5bd7 d540 e92c 8240 6e7f a440 1433 0140
00000070: 7209 5c40 1d21 3840 cdd8 8c40 0a05 3140
00000080: 84d8 c640 a4d8 6b40 4aa1 8e40 3211 b540
00000090: de9e a640 a781 8540 0e5c 8c40 1554 2840
000000a0: 2310 a640 be65 6d40 88f6 b840 7da5 ac40
000000b0: b0e9 0a41 e1c3 0b40 c8a5 0f40 e49d 8a40
000000c0: ff71 6440 dce1 1940 02e7 2f40 bb19 6340
000000d0: cb92 4c40 8c15 8e40 1cb7 3e40 c037 0841
000000e0: c131 d941 8d2e 4241 6a88 8641 c517 c841
000000f0: cbba 9940 13b1 7840 d27b 9b40 215f a840
00000100: 01e2 ad40 c8b8 9640 e7b3 4140 94d5 cf40
00000110: 0b1e c640 a863 a140 bb26 be40 9edd 5140
00000120: b8ad 7740 fc4b 9840 a6da 5f40 0554 8340
00000130: d956 a240 a8fa 0241 d570 8940 7a56 2b40
00000140: 0aee 2a40 66e3 8840 8adf 3a40 78f4 b440
00000150: 007e 9e40 7ffd ca40 9664 9240 1dbf ea40
00000160: 9fa9 d940 6803 0041 c2a0 8140 e74a e340
00000170: 439c 7a40 6536 8c40 7596 8040 a47c ae40
00000180: da36 ab40 a8f5 c940 0c71 c540 798c 9540
00000190: bc6b 9940 21fd fe40 4718 9e40 10b1 5540
000001a0: 825f 3840 c47b 5640 3a64 a840 dbc8 ad40
000001b0: 29e7 e540 0cc2 c240 3010 9340 9cc9 7740
000001c0: 7499 c640 b2e8 1841 5ae5 8140 0717 8a40
000001d0: a9a7 9b40 4ab1 ad40 56ff 8a40 1ad8 6740
000001e0: 3410 5040 5db0 8b40 0dc3 8440 3168 5e40
000001f0: 298b 2f40 2f74 9640 b9d3 c140 6043 3f40
00000200: b869 a240 af86 3740 9659 6941 cf9e 8848

dense1.weight f4 [224, 132]
0.028724432 -0.0479654 0.034794595 -0.07567706 0.026094988 0.06262541 -0.055612538 0.003277608
-0.04160726 -0.02426112 0.08704716 -0.072161615 0.07504143 -0.030575123 0.04732728 0.058200885
0.006744521 0.040206704 -0.0047628544 0.026351817 -0.07248193 0.016456328 0.02439423 -0.07054538
-0.0718583 -0.030812604 0.061023686 0.04543736 0.09206483 0.085075095 0.051608387 0.06805713
0.017307477 0.009837507 -0.02792991 0.04849238 -0.06821838 -0.064372174 0.015868973 0.024856795
-0.035095252 -0.050393008 0.05037982 -0.05267474 -0.06281171 0.053288277 -0.039721567 -0.091048926
-0.076742 -0.08921074 -0.00406975 0.06770857 -0.04231472 -0.059341438 0.0065330607 0.030838713
0.023584815 0.02875195 -0.02734774 0.04390487 0.05928624 0.014909235 -0.03289704 0.047624666
0.007877013 0.016821694 0.07291351 0.06526691 0.073761515 0.10354369 0.08189473 0.056599353
-0.08065551 0.053258337 -0.07028864 -0.08791337 -0.040876646 -0.062396195 0.011091785 0.049321663
0.03482734 0.046382856 -0.04671311 -0.0037227552 0.046130598 -0.054195944 -0.027783118 0.032297123
0.004149674 0.10619891 -0.005974005 -0.08059317 -0.02101066 -0.043198526 0.062365446 0.0358573
-0.039304372 0.046266366 -0.03397577 -0.07441471 0.011208355 0.05315361 -0.014798663 -0.04255498
0.007100454 0.069988735 -0.0033930591 0.03867393 0.057762902 0.0698045 -0.07776062 -0.041938465
0.062222585 -0.047247823 0.0060689994 0.05932986 0.066741034 -0.039496154 0.043849576 0.027587738
0.028013883 -0.0027226435 0.058273163 0.048882704 -0.006525676 -0.020849634 0.025324812 0.010514008
0.04025079 0.009710725 -0.005409313 0.08594694 -0.027355338 -0.06359209 -0.051940165 0.04971574
-0.038812637 -0.039223872 -0.08568193 0.03946119 0.05808683 -0.030909386 0.004622796 -0.053586327
0.019363463 0.019467605 -0.06945175 0.0031697182 -0.035601653 -0.01351508 0.03946957 -0.054419767
0.027514838 -0.022136373 0.014613571 0.061596416 0.07913392 0.03958252 -0.023987217 -0.045962702
-0.08043857 -0.016178615 -0.028970188 -0.014133056 0.0018635743 0.00075339695 -0.033873655 0.04845281
0.036813304 -0.035313956 0.032649264 -0.04086584 -0.08863192 -0.059443798 -0.065786265 -0.05720139
0.022265162 -0.007081581 0.002419334 -0.023027739 -0.030925367 -0.08318237 -0.01163298 -0.019457083
0.013136721 -0.04539444 -0.04932349 -0.015846202 -0.009702108 -0.050460756 0.027427528 -0.009339898
-0.008898744 -0.0124291545 -0.05542047 0.054098975 0.029278448 0.014593954 0.0042632427 -0.048069242
-0.04077618 -0.019835496 0.05672721 -0.09353619 -0.025692647 -0.03455213 0.07655059 0.0706018
-0.033447318 0.037420686 0.08046476 -0.07358188 0.037803493 -0.025092611 -0.03945806 0.02544401
0.11154406 0.07114859 -0.009576654 -0.05827494 -0.065203145 -0.044552267 0.04671802 -0.081895836
-0.015259752 0.06790222 0.050007194 -0.069470875 -0.00046529202 -0.0065883333 -0.03564774 0.036182147
-0.02813817 -0.032066137 -0.05465319 -0.047740024 -0.03732421 0.013776067 -0.0017756143 -8.730696e-05
-0.019896358 0.07466541 0.03956992 0.029484114 -0.051579643 -0.10548262 -0.003329991 -0.01986444
0.057259332 -0.052458394 0.06637446 -0.052201204 0.009169898 0.014722345 0.05087853 0.041329484
00000000: 804f eb3c 5e77 44bd c784 0e3d 93fc 9abd
00000010: 28c5 d53c c041 803d f9c9 63bd 23cd 563b
00000020: 606c 2abd 42bf c6bc c845 b23d 78c9 93bd
00000030: 52af 993d ae78 fabc 40da 413d 0d64 6e3d
00000040: 2501 dd3b c9af 243d b811 9cbb c4df d73c
00000050: 6871 94bd 6ccf 863c 69d6 c73c 197a 90bd
00000060: 722a 93bd b76a fcbc f9f3 793d 861c 3a3d
00000070: 7c8c bc3d da3b ae3d 5163 533d 8961 8b3d
00000080: 69c8 8d3c 7f2d 213c 44cd e4bc f29f 463d
00000090: 14b6 8bbd 8fd5 83bd a6ff 813c 7aa0 cb3c
000000a0: 0ac0 0fbd e668 4ebd 125b 4e3d 78c1 57bd
000000b0: 6da3 80bd cf44 5a3d 15b3 22bd dc77 babd
000000c0: e92a 9dbd 1fb4 b6bd 8a5b 85bb caaa 8a3d
000000d0: 3352 2dbd 0210 73bd 4913 d63b 78a1 fc3c
000000e0: f134 c13c 3689 eb3c 5e08 e0bc 98d5 333d
000000f0: 21d6 723d dd45 743c 0cbf 06bd 1512 433d
00000100: 960e 013c a6cd 893c ae53 953d a8aa 853d
00000110: 4710 973d b70e d43d 6db8 a73d b9d4 673d
00000120: b72e a5bd 6a25 5a3d 7ef3 8fbd ed0b b4bd
00000130: 456e 27bd 2793 7fbd 51ba 353c 8305 4a3d
00000140: 1da7 0e3d f3fb 3d3d 3f56 3fbd 78f9 73bb
00000150: 70f3 3c3d 91fc 5dbd 6c99 e3bc fd49 043d
00000160: fdf9 873b d07e d93d 96c1 c3bb 080e a5bd
00000170: 8c1e acbc f0f0 30bd e972 7f3d 1bdf 123d
00000180: 9ffd 20bd cd81 3d3d 2d2a 0bbd bd66 98bd
00000190: 40a3 373c 9ab7 593d 1776 72bc 214e 2ebd
000001a0: edaa e83b 4156 8f3d 165e 5ebb 8e68 1e3d
000001b0: cb98 6c3d a9f5 8e3d f640 9fbd abc7 2bbd
000001c0: 1cdd 7e3d ef86 41bd 75de c63b de03 733d
000001d0: 86af 883d b8c6 21bd 9d9b 333d aeff e13c
000001e0: 5f7d e53c 616e 32bb d7af 6e3d 3b39 483d
000001f0: 57d5 d5bb dacc aabc fb75 cf3c f242 2c3c
00000200: 03de 243d bc19 1f3c 9b40 b1bb f304 b03d
00000210: 4d18 e0bc 923c 82bd 36bf 54bd bba2 4b3d
00000220: 00fa 1ebd 36a9 20bd 027a afbd 0fa2 213d
00000230: 75ec 6d3d ae35 fdbc d37a 973b 567d 5bbd
00000240: 20a0 9e3c 877a 9f3c b83c 8ebd 0cbb 4f3b
00000250: 0ad3 11bd 5b6e 5dbc d8aa 213d 43e7 5ebd
00000260: cc66 e13c 5757 b5bc c26d 6f3c 864c 7c3d
00000270: f710 a23d 4821 223d d780 c4bc 6343 3cbd
00000280: fabc a4bd 0489 84bc e352 edbc 558e 67bc
00000290: 2d43 f43a 9d7f 453a 1abf 0abd 7476 463d
000002a0: 8cc9 163d 5ea5 10bd 3cbb 053d f062 27bd
000002b0: a784 b5bd 577b 73bd f3ba 86bd 014c 6abd
000002c0: 6e65 b63c 9b0c e8bb b08d 1e3b aba4 bcbc
000002d0: 3257 fdbc 855b aabd 4198 3ebc 7664 9fbc
000002e0: 673b 573c 85ef 39bd 6e07 4abd e5cf 81bc
000002f0: 97f5 1ebc f0af 4ebd b2af e03c 5f06 19bc
00000300: 0acc 11bc a7a3 4bbc 9300 63bd e396 5d3d
00000310: 5bd9 ef3c 7b1b 6f3c acb2 8b3b 41e4 44bd
00000320: ec04 27bd 0d7e a2bc ca5a 683d e78f bfbd
00000330: 6379 d2bc 8986 0dbd 8ec6 9c3d ad97 903d
00000340: 0e00 09bd 6f46 193d b5ca a43d 19b2 96bd
00000350: d6d7 1a3d 058f cdbc c69e 21bd f56f d03c
00000360: 3671 e43d 5ab6 913d 66e7 1cbc b4b1 6ebd
00000370: 3a89 85bd 707c 36bd 655b 3f3d 01b9 a7bd
00000380: 0a04 7abc 5210 8b3d 58d4 4c3d bf46 8ebd
00000390: 70f2 f3b9 f2e2 d7bb 5d03 12bd bb33 143d
000003a0: 0582 e6bc c857 03bd 06dc 5fbd 0b8b 43bd
000003b0: 45e1 18bd 03b5 613c bbbb e8ba 9118 b7b8
000003c0: b0fd a2bc 2eea 983d 1214 223d ab88 f13c
000003d0: 2d45 53bd 4607 d8bd fa3b 5abb c0ba a2bc
000003e0: c388 6a3d 9dde 56bd 55ef 873d eed0 55bd
000003f0: 573d 163c fe35 713c 0166 503d 1b49 293d

dense1.bias f4 [224]
-4.7427042e-07 6.007535e-07 2.3077297e-07 -7.494623e-09 2.8797245e-08 1.2786754e-07 5.046923e-08 2.4210183e-07
3.1572746e-08 -2.7885275e-07 -2.3023422e-07 -4.9040665e-07 -2.0229648e-07 1.7798737e-07 6.12786e-08 -1.1222026e-07
6.355154e-08 -2.821174e-07 7.102519e-07 2.8082528e-07 6.0127394e-07 -4.2064826e-07 4.2572957e-08 5.610268e-08
3.4169435e-07 -5.5186797e-07 2.443369e-07 2.6083708e-07 -1.5475594e-07 -2.8396419e-06 -1.7968015e-10 -3.5613294e-07
6.5945e-07 8.93707e-09 -1.4744808e-07 -8.512712e-08 1.6185446e-08 5.0030412e-08 9.225814e-08 2.161649e-07
-6.888597e-07 -1.9556717e-07 2.908666e-07 -2.2311927e-07 -2.5962578e-07 -3.3608845e-07 -3.599661e-07 -1.0276812e-06
-8.7395034e-07 3.152388e-07 -1.7089974e-07 4.7205972e-08 -1.1171127e-07 1.6875423e-07 -9.888795e-08 -3.8059387e-08
-1.02006645e-07 1.3462557e-07 2.951369e-07 1.5707555e-07 -6.99997e-07 5.3002836e-08 3.5639636e-07 -1.0970781e-07
1.1318371e-07 2.0154593e-07 -1.751775e-07 -1.4966257e-07 2.1125594e-07 4.5637873e-07 -7.1328394e-08 -2.6860096e-07
-2.5355365e-07 -3.7413585e-07 1.9684073e-07 1.2959457e-07 -7.8138225e-07 -8.661769e-08 1.4479682e-06 -2.9250543e-07
3.2104253e-07 6.686426e-08 3.8506494e-07 1.3865626e-07 -5.9219633e-07 -2.5663167e-07 -6.395489e-07 4.5391584e-08
1.717377e-07 1.7363053e-07 1.3018929e-08 9.1304355e-07 -4.5746899e-07 4.4212322e-07 7.0900517e-09 -1.11595305e-07
-5.549556e-07 -3.783174e-07 1.0838686e-07 -9.1191754e-07 -4.321625e-07 -5.5259386e-07 7.520333e-07 -1.4905302e-06
1.3296443e-07 5.8759633e-07 6.196056e-08 -2.3272413e-08 -2.330528e-08 2.114713e-07 3.2311115e-07 2.3733267e-07
1.4693854e-06 -1.8184448e-08 1.05726336e-07 -9.843013e-09 1.7537687e-07 -1.3924141e-07 -1.4951548e-08 -2.4695964e-07
-3.9922057e-07 -3.8601016e-08 -1.0325618e-06 2.9450844e-08 2.540352e-08 -1.9020501e-07 -1.5076467e-06 2.202692e-08
2.4613317e-07 -6.349012e-10 -2.3014962e-07 -1.8723794e-07 1.2332456e-06 2.7712736e-07 8.711988e-08 1.1825679e-07
2.5390696e-07 -7.592747e-08 -3.502986e-08 1.4795644e-07 -6.1014583e-07 -1.15027866e-07 -1.6815761e-07 -9.5449394e-08
1.5324472e-06 7.066489e-08 -8.912959e-08 1.6536306e-07 5.215805e-07 -3.6836403e-07 9.753283e-10 -2.2816438e-07
6.999359e-07 5.079937e-09 -8.3429065e-08 -1.881688e-07 -7.746828e-08 -2.5462523e-07 7.216762e-07 1.0055002e-07
-6.047778e-07 4.8139253e-08 -7.828615e-08 3.8026084e-07 1.6435689e-06 -1.8751487e-07 -6.192224e-08 -5.8467367e-07
5.529864e-07 3.2104168e-08 -2.0329136e-07 -4.248091e-07 -3.3177395e-07 -8.55694e-08 -8.2491844e-08 3.847229e-07
-2.8258177e-07 -3.1878685e-08 -1.8677237e-07 -2.6413275e-07 -2.8505693e-07 -1.2104725e-07 8.071831e-07 -1.6694138e-08
-1.2358558e-07 1.16598976e-07 3.3729467e-07 1.4541622e-07 -1.7646256e-07 -1.9597161e-07 5.8138426e-07 -4.274344e-07
-6.4896335e-07 1.4900318e-07 2.5061704e-08 -2.9669695e-07 -4.8580836e-07 -8.5482895e-07 3.144337e-07 -1.6036886e-07
3.2807364e-07 -1.7412809e-07 -1.4907039e-07 5.564975e-07 6.893152e-09 8.481983e-08 1.8674254e-07 1.1641654e-08
6.684046e-07 -3.000211e-07 1.382727e-07 -3.1749218e-07 2.49626e-07 -2.8804587e-07 -4.1482318e-07 3.2171712e-07
-3.7097206e-07 3.4316693e-07 -3.6269366e-08 -3.9144695e-07 7.3206405e-07 -1.2900697e-08 2.8796805e-07 7.144256e-07
00000000: 3b9f feb4 7743 2135 64ca 7734 b3c1 00b2
00000010: d05d f732 f64b 0934 81c3 5833 39fa 8134
00000020: 9a9a 0733 3bb5 95b4 4d36 77b4 7da4 03b5
00000030: d536 59b4 cc1c 3f34 4498 8333 befd f0b3
00000040: d479 8833 ec75 97b4 24a8 3e35 55c4 9634
00000050: 3b67 2135 75d5 e1b4 76d9 3633 8df5 7033
00000060: 1d72 b734 1424 14b5 682d 8334 2d09 8c34
00000070: fd2a 26b4 ad90 3eb6 778f 45af 8a32 bfb4
00000080: 0f05 3135 a689 1932 3852 1eb4 21cf b6b3
00000090: 2c08 8b32 05e1 5633 731f c633 f51a 6834
000000a0: 14ea 38b5 18fd 51b4 6728 9c34 8f92 6fb4
000000b0: b262 8bb4 a56f b4b4 5d41 c1b4 dbee 89b5
000000c0: 6999 6ab5 173e a934 9080 37b4 84bf 4a33
000000d0: ece5 efb3 cf32 3534 3a5c d4b3 bd76 23b3
000000e0: bf0e dbb3 988d 1034 4f73 9e34 99a8 2834
000000f0: 6de7 3bb5 3ca5 6333 be56 bf34 8298 ebb3
00000100: 670f f333 8668 5834 6d18 3cb4 efb2 20b4
00000110: 97d5 6234 3704 f534 332d 99b3 3c34 90b4
00000120: 2620 88b4 d7dc c8b4 2b5b 5334 af26 0b34
00000130: 2ec0 51b5 9402 bab3 cf57 c235 a409 9db4
00000140: c05b ac34 0497 8f33 ecba ce34 8be1 1434
00000150: 6cf7 1eb5 30c7 89b4 77ad 2bb5 93f4 4233
00000160: e666 3834 326f 3a34 dba9 5f32 e017 7535
00000170: 0f9a f5b4 f45c ed34 c19c f331 2ba6 efb3
00000180: 42f8 14b5 8c1b cbb4 4ec2 e833 7fca 74b5
00000190: f603 e8b4 f655 14b5 56df 4935 3a0e c8b5
000001a0: fcc4 0e34 50bb 1d35 2e0f 8533 94e8 c7b2
000001b0: da30 c8b2 ca10 6334 0f78 ad34 82d5 7e34
000001c0: b337 c535 0634 9cb2 ab0b e333 071a 29b2
000001d0: 3a4f 3c34 6382 15b4 cd6e 80b2 e095 84b4
000001e0: 7554 d6b4 44ca 25b3 8e96 8ab5 17fb fc32
000001f0: ee36 da32 283b 4cb4 595a cab5 b635 bd32
00000200: 4924 8434 3385 2eb0 0c1f 77b4 930b 49b4
00000210: ff85 a535 18c8 9434 a916 bb33 5cf4 fd33
00000220: b550 8834 910d a3b3 bd73 16b3 f5dd 1e34
00000230: e7c8 23b5 3d05 f7b3 d08e 34b4 dcf9 ccb3
00000240: 7cae cd35 6fc0 9733 8367 bfb3 a78e 3134
00000250: bd02 0c35 91c3 c5b4 500c 8630 59fd 74b4
00000260: 3be3 3b35 998b ae31 9d29 b3b3 720b 4ab4
00000270: a35c a6b3 6db3 88b4 36b9 4135 f5ed d733
00000280: 0458 22b5 abc1 4e33 441e a8b3 a726 cc34
00000290: 9998 dc35 b257 49b4 1dfa 84b3 78f2 1cb5
000002a0: f070 1435 e8e2 0933 4e48 5ab4 5111 e4b4
000002b0: aa1e b2b4 46c2 b7b3 5f26 b1b3 ea8b ce34
000002c0: beb5 97b4 fcea 08b3 998b 48b4 21ce 8db4
000002d0: ed09 99b4 37f9 01b4 33ad 5835 cc66 8fb2
000002e0: f2b2 04b4 f764 fa33 6d15 b534 b523 1c34
000002f0: a979 3db4 446c 52b4 6c10 1c35 237a e5b4
00000300: 6c34 2eb5 affd 1f34 4547 d732 b849 9fb4
00000310: 7f68 02b5 6677 65b5 70cf a834 db31 2cb4
00000320: 1922 b034 f7f7 3ab4 2810 20b4 3862 1535
00000330: ced8 ec31 3226 b633 6683 4834 8900 4832
00000340: 6a6c 3335 9612 a1b4 1c78 1434 cb73 aab4
00000350: 5604 8634 b9a4 9ab4 ddb4 deb4 77b8 ac34
00000360: 032a c7b4 813c b834 97c6 1bb3 0f28 d2b4
00000370: 0f83 4435 dea1 5db2 079a 9a34 f4c6 3f35

batch_norm1.weight f4 [224]
0.81987166 0.8060376 0.8787142 0.9024963 0.82421815 0.8080824 0.84270436 0.81099176
0.83116794 0.8157802 0.81342745 0.8498244 0.8190256 0.80916995 0.83954203 0.8342449
0.89831984 0.83519405 0.8198901 0.83689976 0.78606164 0.8150487 0.8445935 0.830487
0.84355384 0.818323 0.8162667 0.8279139 0.8255907 0.8832018 0.83544654 0.7792075
0.8047606 0.80526894 0.8220583 0.8242909 0.817292 0.83667237 0.84736836 0.8133641
0.8371262 0.90459114 0.79888016 0.84605527 0.7971743 0.8771632 0.8678886 0.8580568
0.8340834 0.8530765 0.8223802 0.8500127 0.8066286 0.8401728 0.8130926 0.7985644
0.7949786 0.8147503 0.81267834 0.78052795 0.84404874 0.80310786 0.78668547 0.7627747
0.84373444 0.7924128 0.8095603 0.7928158 0.8592485 0.85276014 0.8632654 0.87986684
0.8038939 0.8298892 0.84324944 0.8402822 0.8316726 0.8475023 0.8449496 0.8214664
0.85246634 0.85214585 0.84450525 0.8635529 0.8396121 0.78076905 0.8049634 0.86849976
0.7924893 0.82961875 0.79024875 0.8508663 0.76503795 0.85376704 0.811518 0.8553406
0.8486121 0.84349173 0.86297137 0.8039133 0.8521718 0.80619186 0.86519194 0.89188695
0.81015366 0.8238828 0.8825169 0.8014329 0.80053675 0.7801513 0.79695684 0.8009238
0.88790435 0.8268297 0.8932433 0.855666 0.86915314 0.8446162 0.8191246 0.87259156
0.8114195 0.8108858 0.85495645 0.8516997 0.8178323 0.79191357 0.82092613 0.84748256
0.81357765 0.81042194 0.8201144 0.8142898 0.8875774 0.82791036 0.86035055 0.8108679
0.7794442 0.7980089 0.8155792 0.8242433 0.8229689 0.82230777 0.8518827 0.8624827
0.84136313 0.8246754 0.8845595 0.868382 0.8243537 0.8297249 0.83423114 0.8001265
0.80825627 0.8164844 0.83275735 0.75834745 0.8273874 0.8244622 0.83491933 0.813866
0.76246464 0.82453924 0.8008471 0.81983423 0.832989 0.8258552 0.87063634 0.8341053
0.8058083 0.7955995 0.8400851 0.80046815 0.8579417 0.83752775 0.8234514 0.8938744
0.8274857 0.8564873 0.7714366 0.83489484 0.82703435 0.86220336 0.812648 0.84851146
0.8060415 0.83466023 0.8551777 0.8461326 0.8879313 0.87970513 0.8248428 0.8607898
0.8295396 0.80272704 0.81030405 0.8185291 0.8430469 0.82637435 0.8372879 0.84356105
0.83788955 0.8307342 0.8537877 0.81115437 0.81061035 0.8127473 0.8224188 0.8234435
0.8074553 0.905784 0.812394 0.80453783 0.8343452 0.8380147 0.8274499 0.8731413
0.82281005 0.8788059 0.835436 0.79273355 0.81480503 0.8343943 0.80859715 0.8113259
00000000: 1ce3 513f 7b58 4e3f 6af3 603f ff09 673f
00000010: f6ff 523f 7dde 4e3f 79bb 573f 289d 4f3f
00000020: 6cc7 543f f9d6 503f c83c 503f 188e 593f
00000030: a9ab 513f c325 4f3f 3aec 563f 1391 553f
00000040: 4af8 653f 47cf 553f 51e4 513f 103f 563f
00000050: 563b 493f 08a7 503f 4837 583f cc9a 543f
00000060: 25f3 573f 9e7d 513f dbf6 503f 2af2 533f
00000070: ea59 533f 8319 623f d3df 553f 257a 473f
00000080: ca04 4e3f 1b26 4e3f 6a72 523f ba04 533f
00000090: 0c3a 513f 2930 563f 22ed 583f a138 503f
000000a0: e74d 563f 4993 673f 6983 4c3f 1497 583f
000000b0: 9d13 4c3f c48d 603f f32d 5e3f 9ca9 5b3f
000000c0: 7d86 553f 3963 5a3f 8287 523f 6f9a 593f
000000d0: 367f 4e3f 9115 573f d626 503f b76e 4c3f
000000e0: b883 4b3f 7a93 503f b00b 503f aed0 473f
000000f0: 9413 583f 7a98 4d3f 3864 493f 3445 433f
00000100: fbfe 573f 91db 4a3f 583f 4f3f faf5 4a3f
00000110: b6f7 5b3f 7d4e 5a3f f6fe 5c3f f43e 613f
00000120: fecb 4d3f 9e73 543f 32df 573f bc1c 573f
00000130: 7fe8 543f e9f5 583f 9e4e 583f 9f4b 523f
00000140: 3c3b 5a3f 3b26 5a3f 7f31 583f ce11 5d3f
00000150: d2f0 563f 7be0 473f 1512 4e3f 0056 5e3f
00000160: 94e0 4a3f e561 543f be4d 4a3f 60d2 593f
00000170: 87d9 433f 7a90 5a3f a5bf 4f3f 9af7 5a3f
00000180: a53e 593f 13ef 573f b1eb 5c3f 43cd 4d3f
00000190: ee27 5a3f 9762 4e3f 387d 5d3f b452 643f
000001a0: 3b66 4f3f fce9 523f a1ec 613f b52a 4d3f
000001b0: faef 4c3f ffb7 473f 5d05 4c3f 5809 4d3f
000001c0: b34d 633f 1cab 533f 98ab 643f ed0c 5b3f
000001d0: d280 5e3f c438 583f 26b2 513f 2962 5f3f
000001e0: 30b9 4f3f 3696 4f3f 6dde 5a3f fe08 5a3f
000001f0: 755d 513f d9ba 4a3f 3728 523f 9ef4 583f
00000200: a046 503f d077 4f3f 04f3 513f 4c75 503f
00000210: 4638 633f eff1 533f ef3f 5c3f 0a95 4f3f
00000220: a889 473f 504a 4c3f ccc9 503f 9c01 533f
00000230: 17ae 523f c382 523f fc14 5a3f abcb 5c3f
00000240: 9363 573f ed1d 533f 7e72 623f 484e 5e3f
00000250: d808 533f da68 543f 2c90 553f 17d5 4c3f
00000260: e2e9 4e3f 1f05 513f 962f 553f 0f23 423f
00000270: a9cf 533f f40f 533f 46bd 553f 8659 503f
00000280: e230 433f 0115 533f 5104 4d3f a8e0 513f
00000290: c43e 553f 3f6b 533f 06e2 5e3f ed87 553f
000002a0: 7449 4e3f 69ac 4b3f d10f 573f 7beb 4c3f
000002b0: 11a2 5b3f 3868 563f b6cd 523f f4d4 643f
000002c0: 1ad6 533f c042 5b3f de7c 453f abbb 553f
000002d0: 86b8 533f 5cb9 5c3f b309 503f 0c38 593f
000002e0: bc58 4e3f 4bac 553f edec 5a3f 259c 583f
000002f0: 774f 633f 5b34 613f e628 533f b85c 5c3f
00000300: b55c 543f 857f 4d3f 1670 4f3f 208b 513f
00000310: ecd1 573f 458d 533f 8058 563f 9ef3 573f
00000320: ee7f 563f ffaa 543f d591 5a3f d0a7 4f3f
00000330: 2984 4f3f 3510 503f 0a8a 523f 31cd 523f
00000340: 64b5 4e3f 76e1 673f 0ef9 4f3f 31f6 4d3f
00000350: a697 553f 2288 563f c2d3 533f 3086 5f3f
00000360: aea3 523f 6cf9 603f 22df 553f 96f0 4a3f
00000370: 1097 503f dd9a 553f 3900 4f3f 0eb3 4f3f

batch_norm1.bias f4 [224]
-0.039202727 -0.021486463 0.017774632 -0.05184139 -0.024055429 -0.052103195 -0.03947159 -0.029197326
-0.02667618 -0.048308056 -0.014627564 -0.054345872 -0.013683401 -0.03026829 -0.032421302 -0.025301345
-0.018341415 0.0122998115 -0.010043765 -0.052033477 0.015831375 -0.05345795 -0.039935205 -0.033997793
-0.024522632 -0.031058203 -0.017901845 -0.03153366 -0.031013468 -0.018871622 -0.014365757 -0.025214866
-0.014947227 0.00045742647 -0.032199826 -0.002173113 -0.044685714 -0.017592015 -0.030283438 -0.042387895
-0.019292535 -0.034290127 -0.022083301 -0.026544139 -0.048081644 -0.02778881 -0.018625453 -0.05917798
-0.006996808 -0.03906797 -0.0044247797 -0.0124398125 -0.013857886 -0.016389795 -0.018641405 -0.019522285
-0.018132236 -0.054055437 -0.013059604 -0.0210825 -0.015149477 -0.00977014 -0.034078967 -0.03907017
-0.026763342 -0.035792474 -0.035699226 -0.04521224 -0.04735364 -0.044094063 -0.015321125 -0.030267585
-0.02056124 -0.028225563 -0.020505758 -0.017447501 0.01784683 -0.020429986 -0.014346476 -0.029849716
-0.022878911 -0.01971397 -0.037972607 -0.037397727 0.024032038 -0.01604425 -0.014789792 -0.030902687
-0.0087181395 -0.023498314 -0.07124199 -0.024678087 -0.033196084 -0.043759644 -0.05268448 0.0051016733
-0.027601542 -0.058568675 0.002840599 -0.02426233 -0.0256093 -0.037372466 -0.001443454 0.012815795
-0.02705288 -0.015906712 -0.055981044 -0.0359251 -0.005239698 -0.060655583 -0.042836517 -0.05885402
-0.016168311 0.01286453 0.0035524366 -0.0122812465 -0.026261678 -0.018790536 -0.0013714988 -0.032773923
0.00038793718 -0.055301238 -0.03311805 -0.015670527 -0.014148949 -0.038887247 -0.040288337 -0.021910423
-0.017739892 -5.5144694e-05 -0.011844312 -0.029971668 -0.058138013 -0.032706887 -0.050292946 -0.059102654
-0.03295081 -0.028637234 -0.0510034 -0.04188429 -0.020815145 -0.03637365 -0.013809619 -0.016031658
-0.052476894 -0.019382467 -0.037956808 -0.016783405 -0.020765275 -0.0430455 -0.034835633 -0.01714935
-0.016861482 -0.009652716 -0.033431 -0.048503835 -0.03494539 -0.046163145 0.0043965033 -0.0575204
-0.032918468 -0.03906185 -0.022075698 -0.04514965 -0.03696318 0.0027409676 -0.03218003 -0.002241111
-0.03018054 -0.053982068 -0.015624033 -0.052118044 -0.013884785 -0.036928345 -0.04505971 -0.009766981
-0.04388583 -0.02035939 -0.036371533 -0.023610745 -0.014884289 -0.015579179 -0.04729369 0.009618391
-0.016835948 -0.00980525 -0.051406957 -0.026638135 -0.058665384 -0.056145858 -0.017674366 0.017668879
-0.033888664 -0.026808985 -0.011522058 -0.036797676 -0.01621232 0.003922643 -0.015413029 -0.0074443254
-0.027198534 -0.014156973 -0.036354687 -0.03681685 -0.0026443389 -0.018039457 -0.023925427 -0.026988912
0.023008708 -0.061786108 -0.020894276 -0.0037865536 -0.03694062 -0.06634739 -0.00089295686 -0.054215606
-0.030927012 -0.034001935 0.018183108 -0.017015634 -0.035476282 -0.04701899 -0.022349656 -0.037534535
00000000: 0a93 20bd 6104 b0bc 1b9c 913c a357 54bd
00000010: e40f c5bc 296a 55bd f6ac 21bd 3b2f efbc
00000020: 0188 dabc abde 45bd 73a8 6fbc c799 5ebd
00000030: 5830 60bc 34f5 f7bc 33cc 04bd c444 cfbc
00000040: bc40 96bc 2685 493c 9b8e 24bc 0e21 55bd
00000050: cdb0 813c b9f6 5abd 1993 23bd 4541 0bbd
00000060: b0e3 c8bc c66d febc e4a6 92bc 7029 01bd
00000070: f50f febc a998 9abc 5a5e 6bbc 688f cebc
00000080: 37e5 74bc bed2 ef39 f7e3 03bd c96a 0ebb
00000090: 5e08 37bd 211d 90bc f914 f8bc ee9e 2dbd
000000a0: 610b 9ebc ce73 0cbd 0ae8 b4bc 1873 d9bc
000000b0: 42f1 44bd 5ca5 e3bc 6894 98bc 9c64 72bd
000000c0: 7b45 e5bb bc05 20bd befd 90bb 5bd0 4bbc
000000d0: 300c 63bc e443 86bc dcb5 98bc 33ed 9fbc
000000e0: 0e8a 94bc 3c69 5dbd f3f7 55bc 35b5 acbc
000000f0: 8335 78bc f012 20bc 6396 0bbd 0b08 20bd
00000100: cc3e dbbc 219b 12bd 5a39 12bd 7830 39bd
00000110: e4f5 41bd fa9b 34bd 7505 7bbc baf3 f7bc
00000120: 0c70 a8bc 4c39 e7bc b1fb a7bc 10ee 8ebc
00000130: 8433 923c c95c a7bc 7b0d 6bbc 6487 f4bc
00000140: 8e6c bbbc 317f a1bc 2a89 1bbd 5c2e 19bd
00000150: d6de c43c 3b6f 83bc e250 72bc a227 fdbc
00000160: 87d6 0ebc 897f c0bc 52e7 91bd b329 cabc
00000170: 9ef8 07bd 503d 33bd aecb 57bd f02b a73b
00000180: a11c e2bc b5e5 6fbd 5829 3a3b cbc1 c6bc
00000190: 98ca d1bc df13 19bd 4732 bdba 57f9 513c
000001a0: 009e ddbc cb4e 82bc 614c 65bd 3326 13bd
000001b0: c6b1 abbb fd71 78bd 5875 2fbd ea10 71bd
000001c0: 6873 84bc c0c5 523c ffcf 683b 4837 49bc
000001d0: bb22 d7bc 9cee 99bc ddc3 b3ba f33d 06bd
000001e0: 0c64 cb39 8d83 62bd cba6 07bd 7a5f 80bc
000001f0: fed0 67bc 3c48 1fbd 6205 25bd 7d7d b3bc
00000200: 4053 91bc 2a4b 67b8 a50e 42bc 2587 f5bc
00000210: 2022 6ebd a8f7 05bd faff 4dbd a015 72bd
00000220: 6ef7 06bd a298 eabc f1e8 50bd dc8e 2bbd
00000230: 8684 aabc 89fc 14bd bd41 62bc d354 83bc
00000240: 03f2 56bd fbc7 9ebc 9978 1bbd 5a7d 89bc
00000250: f01b aabc 7a50 30bd cfaf 0ebd cb7c 8cbc
00000260: 1721 8abc 6d26 1ebc f2ee 08bd f5ab 46bd
00000270: e622 0fbd 9115 3dbd 8b10 903b 839a 6bbd
00000280: 84d5 06bd 52ff 1fbd 18d8 b4bc d7ee 38bd
00000290: b466 17bd cea1 333b 35cf 03bd 9adf 12bb
000002a0: 2e3d f7bc 4d1c 5dbd f2fb 7fbc bb79 55bd
000002b0: 027d 63bc 2d42 17bd 8890 38bd b005 20bc
000002c0: a1c1 33bd bcc8 a6bc 51fa 14bd 526b c1bc
000002d0: 3cdd 73bc d03f 7fbc 07b7 41bd 7596 1d3c
000002e0: 8beb 89bc 33a6 20bc 1a90 52bd 3838 dabc
000002f0: 1d4b 70bd 33f9 65bd d5c9 90bc 53be 903c
00000300: d7ce 0abd 849e dbbc 04c7 3cbc 29b9 16bd
00000310: b3cf 84bc 8489 803b ee86 7cbc 87ef f3bb
00000320: 76cf debc a6f2 67bc a7e8 14bd 44cd 16bd
00000330: a54c 2dbb 7cc7 93bc 42ff c3bc da17 ddbc
00000340: c27c bc3c 6e13 7dbd 792a abbc d427 78bb
00000350: 0c4f 17bd 24e1 87bd 5215 6aba 2f11 5ebd
00000360: a55a fdbc 9d45 0bbd bef4 943c 5f64 8bbc
00000370: 944f 11bd fc96 40bd a016 b7bc d0bd 19bd

batch_norm1.running_mean f4 [224]
0.012785012 0.018223817 -0.017374372 0.029222596 0.03158852 -0.0024725157 -0.002446518 -0.00029181948
0.0102227535 0.0010535847 0.009340096 0.011703634 0.026062418 0.0068600723 -0.022383092 0.040365282
-0.033725407 0.007426094 0.043311894 0.015654547 -0.008762892 -0.021292374 0.01921488 -0.0017686028
-0.000338648 -0.02434747 -0.027092123 0.003432639 0.011388231 -0.001476288 -0.032098036 0.012370711
0.0032507738 0.0056676 -0.0056727408 0.006534803 0.022017397 0.021507375 0.037929237 0.015833572
0.021831525 -0.044279885 0.011910958 0.024063222 -0.005226609 -0.03595447 0.02868634 0.0009489981
0.009735466 -0.0006676206 0.0075483904 -0.005546731 0.032997347 0.010681005 0.01989891 0.024706775
0.020195564 -0.02382907 -0.00028954516 0.017658874 0.013069635 0.01429842 -0.0207502 0.00340319
-0.0050020404 0.023167927 0.033055816 0.009515769 0.014612312 -0.033536248 -0.031196047 -0.013131062
0.004290954 0.012411116 0.0090932995 0.0011658407 0.011522498 -0.023220086 -0.0026271278 0.0031316066
0.010835455 0.016485292 -0.014603406 0.013815717 0.0021005827 0.0081533715 -0.040509816 -0.028874312
-0.017008837 -0.012598793 0.018493937 -0.0111028105 0.0072369836 0.014814009 0.015996296 -0.008333512
-0.011613543 -0.0310252 0.007196953 0.011729881 0.009755224 -0.019926017 0.008728177 0.0243764
0.008269289 0.012609364 0.020580713 -0.009591103 -0.014566067 0.0051310174 -0.020589873 0.014240988
-0.02153504 0.0141760325 0.010763304 -0.034594476 -0.009414587 0.016658416 -0.012568707 0.014797768
0.00037411257 0.0061436268 0.00022847582 0.025679152 -0.03238212 0.004265537 -0.020207288 -0.015107737
-0.013492575 0.02338454 -0.004385469 -0.018626783 -0.012476829 0.02225166 -0.0071872785 -0.007809775
-0.016558828 0.013433748 -0.010655518 0.008731905 0.014668949 0.00729077 0.0044549652 -0.0019961768
-0.0111259 -0.002762788 -0.019471375 -0.017097792 -0.0073931827 -0.033498656 -0.010761982 0.006817566
-0.037097104 0.031858947 0.0057135215 -0.005343842 0.014819389 -0.022453897 0.018085597 -0.01449755
-0.0041483804 -0.02463938 0.005510723 0.03634814 -0.0051189833 -0.03330274 0.022321977 0.010914787
0.008043988 -0.014447064 0.017324742 0.0035812354 0.007606235 -0.0014644807 -0.023191823 -0.0042516566
0.02522402 -0.014914572 -0.039603744 0.02929085 -0.03024818 -0.015947385 0.0016732275 0.0313804
0.014067215 0.0021537999 -0.018510625 0.025990404 -0.0072636623 -0.037011944 0.004969176 0.004825578
-0.042800516 -0.0026301194 0.02954083 0.035420116 -0.01033841 0.0017183854 -0.008044379 -0.030444833
-0.03932839 0.03528897 -0.019937765 0.014557015 0.0010121113 0.022616722 0.013711329 -0.029922444
-0.0027345624 -0.036081664 0.0022397728 -0.015270544 -0.01017146 -0.017073438 0.009640786 -0.064387396
0.0056467396 -0.01892265 -0.006323469 -0.012107887 -0.012776211 -0.03001492 0.02654741 -0.0038125266
00000000: 3a78 513c 1d4a 953c b354 8ebc 3a64 ef3c
00000010: f762 013d ee09 22bb c355 20bb 59ff 98b9
00000020: 567d 273c 7018 8a3a 3407 193c 99c0 3f3c
00000030: da80 d53c 75ca e03b bf5c b7bc 1156 253d
00000040: a723 0abd 9756 f33b d067 313d f73d 803c
00000050: 3c92 0fbc 586d aebc 8668 9d3c 76d0 e7ba
00000060: 918c b1b9 5874 c7bc 4df0 ddbc 20f6 603b
00000070: b495 3a3c 0180 c1ba 3b79 03bd 86ae 4a3c
00000080: ef0a 553b 46b7 b93b 66e2 b9bb e721 d63b
00000090: d45d b43c 3c30 b03c b05b 1b3d 68b5 813c
000000a0: 07d8 b23c d35e 35bd 2e26 433c 3c20 c53c
000000b0: f943 abbb ff44 13bd 9eff ea3c 2fc6 783a
000000c0: 8181 1f3c 4303 2fba 7d58 f73b 5ac1 b5bb
000000d0: 3a28 073d 62ff 2e3c 0a03 a33c dd65 ca3c
000000e0: 2b71 a53c 2f35 c3bc 18ce 97b9 58a9 903c
000000f0: 0622 563c ec43 6a3c 53fc a9bc 0e08 5f3b
00000100: 28e8 a3bb aaca bd3c 8965 073d 07e8 1b3c
00000110: 7b68 6f3c 4e5d 09bd da8e ffbc aa23 57bc
00000120: 229b 8c3b fe57 4b3c 10fc 143c 1fcf 983a
00000130: dcc8 3c3c 0d38 bebc e42b 2cbb a43b 4d3b
00000140: 3187 313c 2a0c 873c 2043 6fbc 515b 623c
00000150: eea9 093b b895 053c 9fed 25bd d289 ecbc
00000160: 1e56 8bbc 2b6b 4ebc 9980 973c 90e8 35bc
00000170: 3824 ed3b 75b6 723c aa0a 833c 4889 08bc
00000180: bb46 3ebc 8f28 febc 6bd4 eb3b b02e 403c
00000190: 60d4 1f3c e33b a3bc a100 0f3c 04b1 c73c
000001a0: e97b 073c 8297 4e3c e298 a83c 0024 1dbc
000001b0: 83a6 6ebc 1822 a83b 18ac a8bc 0853 693c
000001c0: 416a b0bc 9742 683c 9258 303c f0b2 0dbd
000001d0: a43f 1abc 3b77 883c faec 4dbc 5672 723c
000001e0: 8a24 c439 7a50 c93b 0393 6f39 165d d23c
000001f0: 1da3 04bd ebc5 8b3b c189 a5bc 7186 77bc
00000200: f60f 5dbc ef90 bf3c fbb3 8fbb 3297 98bc
00000210: 9d6b 4cbc 1d49 b63c 4383 ebbb 24e9 ffbb
00000220: 61a6 87bc 3919 5c3c 7b94 2ebc 4410 0f3c
00000230: 0856 703c 69e7 ee3b f5fa 913b 4ad2 02bb
00000240: 6849 36bc e40f 35bb 6f82 9fbc ab10 8cbc
00000250: 8342 f2bb e335 09bd 0653 30bc e465 df3b
00000260: 22f3 17bd 877e 023d 7e38 bb3b 651b afbb
00000270: 06cd 723c 3cf1 b7bc 3f28 943c 2287 6dbc
00000280: 23ef 87bb 86d8 c9bc 4c93 b43b cae1 143d
00000290: 25bd a7bb 7468 08bd 94dc b63c efd3 323c
000002a0: eeca 033c 61b3 6cbc 9eec 8d3c 29b3 6a3b
000002b0: b93d f93b d1f3 bfba c7fc bdbc 7b51 8bbb
000002c0: 9ba2 ce3c 405c 74bc 8937 22bd 5df3 ef3c
000002d0: 08cb f7bc 17a4 82bc 3350 db3a bc88 003d
000002e0: 2d7a 663c c426 0d3b 98a3 97bc d4e9 d43c
000002f0: 0404 eebb d699 17bd 78d4 a23b e21f 9e3b
00000300: 984f 2fbd 155e 2cbb 9cff f13c af14 113d
00000310: 6f62 29bc 723b e13a 92cc 03bc 7167 f9bc
00000320: ce16 21bd 2b8b 103d 8654 a3bc 8c80 6e3c
00000330: d2a8 843a b446 b93c 7ba5 603c ea1f f5bc
00000340: 5836 33bb 5eca 13bd 27c9 123b 4e31 7abc
00000350: 32a6 26bc 98dd 8bbc 63f4 1d3c 8add 83bd
00000360: 4908 b93b ac03 9bbc 1a35 cfbb 2960 46bc
00000370: 5053 51bc d9e1 f5bc f479 d93c 95db 79bb

batch_norm1.running_var f4 [224]
0.41648847 0.33489424 0.37042508 0.3908418 0.3491282 0.4368996 0.53328735 0.5551393
0.3590026 0.41363594 0.44113728 0.3293233 0.49749354 0.61047876 0.3872873 0.45668688
0.44168264 0.47486517 0.40424326 0.61390585 0.4342166 0.46070662 0.4018528 0.3938365
0.36093557 0.4155568 0.3881549 0.46726057 0.32215595 0.48612076 0.40911922 0.3364256
0.31384054 0.6818701 0.59715194 0.5229929 0.384103 0.35405388 0.48136914 0.64342004
0.69300044 0.450881 0.66063756 0.52342236 0.33690098 0.4547897 0.5665064 0.47967762
0.51378685 0.5035492 0.35495466 0.38432634 0.41446146 0.46634945 0.35651392 0.31266305
0.47336587 0.5006175 0.7675829 0.4349266 0.30937266 0.4341537 0.36499035 0.44356155
0.48198226 0.47629258 0.428836 0.51407266 0.4187222 0.55308497 0.42630088 0.51401573
0.49219543 0.47171915 0.505609 0.5480454 0.40927994 0.45103645 0.3811298 0.35214555
0.47876546 0.49485755 0.41790473 0.30014962 0.42249817 0.7019721 0.4034325 0.45521754
0.40034464 0.6306919 0.5456366 0.44797343 0.32919818 0.5781361 0.40418676 0.3216346
0.49012947 0.46240464 0.46176633 0.37589255 0.43985263 0.45401222 0.3922458 0.45235378
0.25997162 0.44093487 0.51477534 0.49235958 0.31873268 0.34626597 0.44431114 0.5525901
0.45665923 0.29023612 0.4141754 0.3788547 0.3816364 0.79112256 0.33456182 0.4880598
0.34904203 0.48209658 0.40579882 0.5653211 0.33318853 0.34304145 0.37773094 0.61486757
0.30972314 0.6198523 0.44822899 0.32461497 0.5654523 0.39465243 0.4907957 0.4602952
0.26855776 0.39279875 0.41384226 0.47005412 0.3246477 0.5258782 0.27362254 0.48449177
0.5307846 0.34276885 0.32653105 0.27875364 0.37838572 0.5079584 0.41409507 0.45686883
0.39286348 0.63807744 0.41232163 0.3160945 0.485351 0.3048561 0.33394217 0.2980686
0.51234686 0.41019264 0.49961436 0.5584353 0.4556809 0.32617795 0.49016806 0.40503678
0.6735266 0.3913094 0.33082837 0.31487244 0.38821664 0.62841636 0.335553 0.49059337
0.42555234 0.3848692 0.46517763 0.60860574 0.5515751 0.3630696 0.31853372 0.506368
0.3494608 0.23971501 0.4185008 0.81803435 0.5750168 0.43261397 0.4145865 0.34826133
0.4490167 0.29790628 0.42084998 0.37208626 0.42350426 0.24273548 0.6922404 0.5046103
0.46451038 0.41950715 0.52097154 0.4204481 0.36751232 0.6778949 0.31331274 0.47392723
0.597151 0.68799216 0.23332156 0.34511894 0.4270878 0.5007788 0.39080244 0.77169675
0.42416596 0.39571935 0.4141083 0.34615126 0.32487234 0.67985404 0.23248664 0.46743762
00000000: fa3d d53e 4277 ab3e 5ba8 bd3e 6b1c c83e
00000010: eec0 b23e 4eb1 df3e 8585 083f 9c1d 0e3f
00000020: 30cf b73e 17c8 d33e bfdc e13e 109d a83e
00000030: 79b7 fe3e 5648 1c3f 854a c63e ddd2 e93e
00000040: 3a24 e23e 8721 f33e f9f8 ce3e ef28 1d3f
00000050: a351 de3e bde1 eb3e a6bf cd3e f0a4 c93e
00000060: 8ccc b83e dcc3 d43e 3dbc c63e c73c ef3e
00000070: a0f1 a43e d2e4 f83e 1378 d13e fa3f ac3e
00000080: b5af a03e 0a8f 2e3f f3de 183f dde2 053f
00000090: 26a9 c43e 8d46 b53e 0476 f63e 2db7 243f
000000a0: 7a68 313f e0d9 e63e 8b1f 293f 02ff 053f
000000b0: 497e ac3e 32da e83e 9006 113f 4e98 f53e
000000c0: 8987 033f 9ae8 003f 9ebc b53e 6cc6 c43e
000000d0: 4b34 d43e 5bc5 ee3e fe88 b63e 5f15 a03e
000000e0: 035d f23e 7828 003f 5080 443f b3ae de3e
000000f0: 1866 9e3e 6549 de3e 04e0 ba3e 801a e33e
00000100: 61c6 f63e 9fdc f33e 6490 db3e 449a 033f
00000110: c262 d63e fa96 0d3f 1c44 da3e 8996 033f
00000120: 0a01 fc3e 2c85 f13e 976f 013f b44c 0c3f
00000130: 248d d13e 40ee e63e 7223 c33e 6c4c b43e
00000140: bf20 f53e f85d fd3e 9cf7 d53e 36ad 993e
00000150: ae51 d83e 72b4 333f b48e ce3e 4612 e93e
00000160: f9f9 cc3e 0675 213f d7ae 0b3f c65c e53e
00000170: aa8c a83e ba00 143f 91f1 ce3e 4aad a43e
00000180: 40f2 fa3e 4dc0 ec3e a36c ec3e fd74 c03e
00000190: 5d34 e13e 4a74 e83e 71d4 c83e ea9a e73e
000001a0: 001b 853e 37c2 e13e 51c8 033f 8e16 fc3e
000001b0: ee30 a33e c649 b13e c07c e33e 8b76 0d3f
000001c0: 3dcf e93e d499 943e cc0e d43e 3ef9 c13e
000001d0: d965 c33e 0287 4a3f b04b ab3e f9e2 f93e
000001e0: a3b5 b23e 5dd5 f63e ddc4 cf3e e2b8 103f
000001f0: b097 aa3e 21a3 af3e f365 c13e f667 1d3f
00000200: 0894 9e3e a4ae 1e3f 457e e53e ef33 a63e
00000210: 7bc1 103f e20f ca3e 9349 fb3e d0ab eb3e
00000220: 6780 893e eb1c c93e 22e3 d33e efaa f03e
00000230: 3938 a63e f49f 063f 4118 8c3e 4e0f f83e
00000240: 80e1 073f 667f af3e 142f a73e ccb8 8e3e
00000250: c6bb c13e 9009 023f 4504 d43e b6ea e93e
00000260: 6725 c93e 0b59 233f d21b d33e 23d7 a13e
00000270: ed7f f83e 1916 9c3e 78fa aa3e 739c 983e
00000280: 2a29 033f c504 d23e 74cd ff3e 9ef5 0e3f
00000290: 024f e93e cc00 a73e 4ff7 fa3e fb60 cf3e
000002a0: 3d6c 2c3f b559 c83e 5662 a93e f636 a13e
000002b0: 55c4 c63e e5df 203f 9acd ab3e 0e2f fb3e
000002c0: ffe1 d93e 930d c53e c32b ee3e 96cd 1b3f
000002d0: 0734 0d3f 42e4 b93e da16 a33e 55a1 013f
000002e0: 87ec b23e da77 753e bd45 d63e b36a 513f
000002f0: 4d34 133f 947f dd3e af44 d43e 4f4f b23e
00000300: 84e5 e53e 2c87 983e a679 d73e 1782 be3e
00000310: 8dd5 d83e a68f 783e ab36 313f 242e 013f
00000320: 4ed4 ed3e a4c9 d63e 645e 053f f944 d73e
00000330: 932a bc3e 858a 2d3f 876a a03e 97a6 f23e
00000340: e3de 183f 4120 303f d9eb 6e3e 6eb3 b03e
00000350: 41ab da3e 0a33 003f 4217 c83e eb8d 453f
00000360: 482c d93e ba9b ca3e 0106 d43e bd3a b13e
00000370: ab55 a63e ea0a 2e3f fa10 6e3e fc53 ef3e
