input/pytorchresnetstartertrainingoptuned/online_model1.pth (torch, 926515 bytes, 30 tensors)

batch_norm0.weight f4 [132]
0	0x3f67ea4a	0.9059187
1	0x3f773fab	0.96581525
2	0x3f7410c5	0.9533809
3	0x3f7665d5	0.96249133
4	0x3f793cb6	0.9735826
5	0x3f8096bd	1.0046002
6	0x3f829c92	1.0204031
7	0x3f821c9e	1.0164983
8	0x3f8398fe	1.0281065
9	0x3f6d4877	0.926887
10	0x3f750c6e	0.9572209
11	0x3f76d99c	0.96425796
12	0x3f79c65b	0.9756829
13	0x3f74ac82	0.95575726
14	0x3f70a41a	0.940004
15	0x3f6cd622	0.9251424
16	0x3f6fad94	0.93624234
17	0x3f6d66cb	0.92734975
18	0x3f7542c8	0.95805025
19	0x3f6892c7	0.90848964
20	0x3f793278	0.97342634
21	0x3f747f77	0.95506996
22	0x3f72ee3c	0.94894767
23	0x3f6bc503	0.9209749
24	0x3f72d4a7	0.9485573
25	0x3f65d47a	0.8977734
26	0x3f6f1b01	0.9340058
27	0x3f7ca19e	0.9868411
28	0x3f7b9776	0.98277986
29	0x3f6c686d	0.9234684
30	0x3f6f5d88	0.9350209
31	0x3f70c994	0.94057584
32	0x3f6a03fe	0.9141234
33	0x3f6fe170	0.93703365
34	0x3f6a9cc4	0.91645455
35	0x3f6ed450	0.93292713
36	0x3f6fae78	0.93625593
37	0x3f73922a	0.95144904
38	0x3f69e430	0.9136381
39	0x3f82d3ce	1.0220888
40	0x3f7582cc	0.95902705
41	0x3f6cfb72	0.92571175
42	0x3f69c3ad	0.913142
43	0x3f738b55	0.9513448
44	0x3f80719c	1.0034671
45	0x3f79a99e	0.9752444
46	0x3f67e13b	0.9057805
47	0x3f724bd4	0.94646955
48	0x3f729924	0.94764924
49	0x3f789a49	0.9711042
50	0x3f7188e4	0.94349504
51	0x3f77b6a1	0.96763045
52	0x3f6bd66c	0.92124057
53	0x3f6ed2c9	0.9329038
54	0x3f6edd3f	0.93306345
55	0x3f7cfb3c	0.98820853
56	0x3f77fa43	0.96866244
57	0x3f82b613	1.0211815
58	0x3f81e850	1.0149021
59	0x3f79852b	0.97468823
60	0x3f69d6f3	0.9134361
61	0x3f6f6283	0.9350969
62	0x3f6e1d26	0.93013227
63	0x3f717fc8	0.94335604
64	0x3f83bd42	1.0292132
65	0x3f7977b8	0.974483
66	0x3f79da28	0.97598505
67	0x3f78ef82	0.9724046
68	0x3f75bb78	0.9598918
69	0x3f79e82f	0.9761991
70	0x3f7c90da	0.98658526
71	0x3f800d85	1.0004126
72	0x3f71c965	0.9444793
73	0x3f6228f1	0.8834372
74	0x3f6a8ab8	0.9161792
75	0x3f644965	0.8917449
76	0x3f65c5c5	0.897549
77	0x3f754fd2	0.9582492
78	0x3f775738	0.9661746
79	0x3f6508a9	0.8946634
80	0x3f71e1dc	0.9448526
81	0x3f695ec8	0.9116025
82	0x3f6c16bd	0.92222196
83	0x3f7ac449	0.9795576
84	0x3f7dd372	0.99150765
85	0x3f690661	0.9102536
86	0x3f7fff2a	0.99998724
87	0x3f707984	0.9393542
88	0x3f6d6da9	0.92745453
89	0x3f75308e	0.95777214
90	0x3f783a8d	0.9696434
91	0x3f6ff0ca	0.9372679
92	0x3f6e7002	0.9313966
93	0x3f6e2dff	0.93038934
94	0x3f6fda5d	0.9369257
95	0x3f6c5b24	0.9232657
96	0x3f7527b7	0.95763725
97	0x3f6c8ce0	0.9240246
98	0x3f701458	0.9378104
99	0x3f6e6c14	0.93133664
100	0x3f63fb89	0.8905569
101	0x3f71821d	0.9433916
102	0x3f6f04c0	0.9336662
103	0x3f657a38	0.89639616
104	0x3f65ad64	0.897177
105	0x3f6ea1b4	0.9321549
106	0x3f6e36f9	0.9305263
107	0x3f6ee477	0.9331736
108	0x3f71073f	0.9415168
109	0x3f73d1d7	0.95242065
110	0x3f754349	0.95805794
111	0x3f71a34b	0.9438979
112	0x3f6b65b0	0.9195204
113	0x3f6337cc	0.88757014
114	0x3f75e136	0.9604677
115	0x3f71d15d	0.9446009
116	0x3f6da38b	0.9282767
117	0x3f6bd60a	0.9212347
118	0x3f642e3a	0.89133036
119	0x3f6bfbc6	0.9218105
120	0x3f67c80d	0.9053963
121	0x3f70cf53	0.9406635
122	0x3f6aa95e	0.91664684
123	0x3f6bdde4	0.92135453
124	0x3f674039	0.9033237
125	0x3f72933a	0.947559
126	0x3f645740	0.8919563
127	0x3f758b77	0.9591593
128	0x3f68e42b	0.90973157
129	0x3f6bbf2d	0.92088586
130	0x3f63d961	0.8900357
131	0x3f6cd6c6	0.9251522

batch_norm0.bias f4 [132]
0	0x3c801e6b	0.015639504
1	0xbc8dd639	-0.017314063
2	0xbc7cb345	-0.015423601
3	0xbc28208e	-0.010261668
4	0x3d4fab23	0.050700318
5	0x3c7e9d0b	0.015540372
6	0xbc732820	-0.0148411095
7	0x3b2617c6	0.002534376
8	0x3c57f162	0.013180109
9	0xbbfa8ed5	-0.0076464214
10	0xbb650a7d	-0.0034948878
11	0x3ae950de	0.001780059
12	0xbbd4e961	-0.0064975475
13	0x3af89e94	0.0018968158
14	0xbb8e5704	-0.004343869
15	0xbc3add82	-0.011405351
16	0xbce81b98	-0.02833347
17	0x3b8f82f5	0.004379625
18	0x3c16d915	0.00920703
19	0xbca06777	-0.019580586
20	0x3d0c218e	0.034211688
21	0xbc81f076	-0.015861731
22	0x3ccaed68	0.024771407
23	0x3bbe9e7d	0.005817233
24	0x3abf46af	0.0014593209
25	0x3952810f	0.00020075239
26	0x3a012cf0	0.00049276557
27	0x3c6f560c	0.0146079175
28	0x3d2fabae	0.042888336
29	0x3bbd5dd2	0.0057790065
30	0x3c89d6a1	0.016825976
31	0xb9bf80f2	-0.0003652643
32	0xba168511	-0.00057418743
33	0x3d2ff756	0.042960487
34	0x3ac167bd	0.0014755648
35	0xbc58018d	-0.0131839635
36	0xb8954fbf	-7.1197275e-05
37	0xbb41c084	-0.002956421
38	0xbc987e41	-0.01861489
39	0x3d14785c	0.036247596
40	0x3cea8b20	0.028630793
41	0xbc1a2afb	-0.009409661
42	0x3c0318d3	0.008001524
43	0xbbc1d10d	-0.0059148134
44	0x3c756a4b	0.0149789555
45	0x3cd5098b	0.026005527
46	0xbc5934ad	-0.013257188
47	0xbd575822	-0.052574284
48	0xbc633101	-0.013866664
49	0xbd1829cf	-0.037149247
50	0xbd099723	-0.0335914
51	0xbc0e70fe	-0.008693932
52	0xbc6477fd	-0.013944623
53	0xbd0ed7f3	-0.034873914
54	0xbb94b1c9	-0.004537795
55	0x3d006050	0.03134185
56	0xbb271f84	-0.0025500963
57	0xbc0ce43c	-0.008599337
58	0x3c73f72c	0.014890473
59	0x3c246773	0.01003443
60	0xbbc0f75a	-0.0058888616
61	0xbc1be40b	-0.009514819
62	0xbcd50ed0	-0.02600804
63	0xbc87c33b	-0.016572585
64	0xbdb750f6	-0.08950989
65	0xbd27beb6	-0.04095336
66	0xbc8e5d3c	-0.017378442
67	0xbd010459	-0.031498287
68	0xbbda5387	-0.0066627893
69	0xbd11d1a5	-0.035600323
70	0xbb4f5a38	-0.0031639468
71	0xbd9d2b3e	-0.076742634
72	0x3c04284e	0.00806625
73	0x3c1ccc06	0.009570127
74	0xbb708005	-0.00366974
75	0x3b9fe1f1	0.0048792292
76	0x3bebfd03	0.007201792
77	0xbc551cb8	-0.013007335
78	0x3cdffdf4	0.027342774
79	0x3c811a74	0.015759684
80	0xb98b1af1	-0.0002653222
81	0x3c09ec1d	0.00841811
82	0x3c312cc0	0.010813892
83	0x3c1ffaee	0.009764416
84	0x3bbd724c	0.0057814475
85	0xbd28cb68	-0.04120961
86	0xbbbfd7ed	-0.005854598
87	0xbc6429fe	-0.013926027
88	0xbbb047a4	-0.005379634
89	0xbc489f60	-0.012245029
90	0x3b699752	0.0035643172
91	0x3c9858fc	0.018597119
92	0x3c9c2d2a	0.019064505
93	0x3b0380cd	0.0020065785
94	0x3c7b9ac0	0.0153567195
95	0x3cf468fe	0.02983522
96	0x3cd05f05	0.025435934
97	0xbb3e3025	-0.0029020396
98	0xbc5fabfc	-0.013651844
99	0x3b33db29	0.0027443862
100	0x3c9b5cd8	0.01896517
101	0x3ca70eaf	0.020392744
102	0x3c5e9b62	0.013586851
103	0xbcbde930	-0.023182482
104	0xbc168ab8	-0.009188347
105	0xb9d1ff18	-0.00040053646
106	0x3c95041b	0.018190434
107	0xbba69c88	-0.005084578
108	0xbc0884a0	-0.0083324015
109	0x3aba15a1	0.001419712
110	0xbc027e1a	-0.007964635
111	0x3c4d92eb	0.012547235
112	0xbc172775	-0.009225716
113	0x3b29670c	0.0025848774
114	0x3b4a2886	0.0030846908
115	0xbbff3abf	-0.0077889855
116	0xbc8e28c3	-0.017353421
117	0xbbc7fe68	-0.0061033256
118	0xbc09cf0f	-0.008411183
119	0xba0fa6ea	-0.0005479889
120	0x3c443a78	0.011976831
121	0x3cab97b3	0.02094636
122	0x3d0e35d4	0.034719303
123	0x3ca9b57f	0.020716427
124	0x3cb4273c	0.021991365
125	0x3b966e6f	0.0045908014
126	0xbc222273	-0.009895909
127	0x3ca425d1	0.020037564
128	0xbb1766dc	-0.002310208
129	0xbc263139	-0.0101435715
130	0x3c26e986	0.010187512
131	0x3b23cde8	0.0024994556

batch_norm0.running_mean f4 [132]
0	0x3b71c60e	0.0036891731
1	0x3f00c517	0.50300735
2	0x3eff2ff4	0.49841273
3	0xbcc73fdd	-0.024322445
4	0xbce8eb0e	-0.028432395
5	0xbc01cf72	-0.007922994
6	0xbc96f1ac	-0.018425785
7	0x3d432485	0.04764225
8	0x3cd96f2d	0.02654227
9	0x3ea88fe5	0.32922283
10	0x3e7d3944	0.24728876
11	0x3da25799	0.07926864
12	0x3d88b829	0.06675751
13	0x3e24cec4	0.160945
14	0x3deabfd1	0.11462367
15	0x3e89018d	0.26758996
16	0x3e75761b	0.23970835
17	0x3de43e4c	0.11144695
18	0x3ddd53d4	0.108070046
19	0x3e8afa00	0.2714386
20	0x3e812bf3	0.25228843
21	0x3e249c53	0.16075258
22	0x3e2b4809	0.16726698
23	0x3e648be8	0.22318995
24	0x3e6933a8	0.22773612
25	0x3e8ab43a	0.27090627
26	0x3e8527c0	0.2600689
27	0x3e198e21	0.14995624
28	0x3e3a41d2	0.18189171
29	0x3e9e3b23	0.30904493
30	0x3e9e1e50	0.30882502
31	0x3e6cf355	0.23139699
32	0x3e887250	0.26649714
33	0x3e9eeb21	0.31038764
34	0x3eaa55de	0.33268636
35	0x3ea64c9d	0.32480326
36	0x3eaca998	0.3372314
37	0x3b44e694	0.0030044662
38	0xbbc50cf3	-0.0060135066
39	0x3d3add9d	0.045621503
40	0x3d68240b	0.056675
41	0x3e905176	0.2818715
42	0x3f0449e9	0.5167528
43	0x3e9b5045	0.30334678
44	0x3e9d0edb	0.30675396
45	0x3e26b2a1	0.16279079
46	0x3ec6cbc5	0.3882734
47	0x3ee59ea8	0.44847608
48	0x3f062957	0.5240683
49	0x3f09468e	0.5362328
50	0x3eaa1569	0.3321946
51	0x3ebf1819	0.37323073
52	0xbd4210a5	-0.047379155
53	0x3ed87960	0.42280102
54	0x3e8a10d4	0.26965964
55	0x3e911961	0.28339675
56	0x3ecb8c6b	0.39755568
57	0x3e9a35f0	0.30119276
58	0x3e9989d9	0.29987982
59	0x3eaa7836	0.3329484
60	0x3f06559a	0.5247437
61	0x3f07f48e	0.53107536
62	0x3ef75528	0.48307157
63	0x3ef70d89	0.48252514
64	0x3ec39f72	0.38207585
65	0x3f183dda	0.5946938
66	0x3f1826f5	0.59434444
67	0x3f18a97b	0.59633607
68	0x3f1942a6	0.5986732
69	0x3efecb7c	0.4976462
70	0x3e8a9052	0.27063233
71	0x3eea6c59	0.45785788
72	0xbcbce7bf	-0.023059724
73	0xbd3496f5	-0.044089276
74	0xbd095018	-0.03352365
75	0xbd87bb74	-0.06627551
76	0xbd2d551b	-0.04231749
77	0xbdd5be53	-0.10436692
78	0xb81a9b13	-3.6860885e-05
79	0xbd05ddee	-0.03268235
80	0xbb365603	-0.0027822263
81	0xbcac9b8d	-0.021070266
82	0xbcb0cfb6	-0.02158342
83	0xbd24943e	-0.040180437
84	0x3eddd1be	0.43324083
85	0x3f0e00a4	0.5546973
86	0x3ed8abc9	0.42318562
87	0x3ee699c9	0.45039204
88	0x3f03c07e	0.51465595
89	0x3f05820c	0.5215156
90	0x3e20da48	0.15708268
91	0x3eb9f9c7	0.36323377
92	0x3e54ad6b	0.20769279
93	0x3e5ec7de	0.21755931
94	0x3e94231e	0.28933042
95	0x3e298ab3	0.16556816
96	0x3eeae3de	0.45876974
97	0x3f13689f	0.57581514
98	0x3eec6984	0.46174252
99	0x3efc4980	0.49274826
100	0x3f028ca5	0.50995857
101	0x3f082ff6	0.5319818
102	0x3dedbd82	0.11608411
103	0x3eb8def5	0.36107603
104	0x3e717f51	0.23583724
105	0x3e70d6e6	0.23519477
106	0x3e81dc5f	0.25363442
107	0x3e25a7a3	0.1617723
108	0x3ee178ce	0.4403748
109	0x3f06ab3b	0.52605027
110	0x3ee3d5c2	0.44499022
111	0x3eeba52f	0.46024463
112	0x3f023b3a	0.5087162
113	0x3f073f43	0.52830905
114	0x3e12d78c	0.14340037
115	0x3e52732a	0.20551744
116	0x3e237e06	0.15966043
117	0x3e0f65de	0.14003703
118	0x3e368d98	0.17827451
119	0x3e57140a	0.21003738
120	0x3ec92346	0.39284724
121	0x3e29c824	0.16580254
122	0x3ebebb1c	0.37252128
123	0x3df62566	0.12018852
124	0x3ec3361c	0.3812722
125	0x3df40e62	0.11916806
126	0x3ecf206a	0.40454417
127	0x3de9f8ee	0.11424433
128	0x3ec59a95	0.385945
129	0x3de52808	0.11189276
130	0x3f2710a4	0.65259767
131	0x3fc55720	1.5417213

batch_norm0.running_var f4 [132]
0	0x3f8029bc	1.0012736
1	0x40ca40b0	6.3203964
2	0x40bf7b51	5.9838033
3	0x4061690a	3.522036
4	0x40389880	2.8843079
5	0x40348849	2.8208182
6	0x402de7bf	2.7172697
7	0x401d48b6	2.457563
8	0x404eab13	3.2291915
9	0x40a3fe33	5.12478
10	0x4027b2c4	2.620286
11	0x402b3e2d	2.67567
12	0x40b7004b	5.718786
13	0x409d70fb	4.9200416
14	0x4085acff	4.1773677
15	0x40468bcd	3.1022828
16	0x408f90db	4.4864326
17	0x400e5d72	2.2244534
18	0x40750556	3.8284507
19	0x402e0525	2.719064
20	0x406ef6bb	3.7338092
21	0x40b746d1	5.7273946
22	0x40543d0e	3.3162265
23	0x408dce18	4.431408
24	0x40e03546	7.006503
25	0x4080d70b	4.0262504
26	0x40a6b556	5.2096357
27	0x3fea8e96	1.8324764
28	0x405cacf3	3.448056
29	0x4036a478	2.8537884
30	0x408a20ef	4.31652
31	0x40292d0c	2.6433744
32	0x40c70666	6.219531
33	0x406087f3	3.5082977
34	0x408b0d89	4.3454022
35	0x40b26893	5.5752654
36	0x40a44768	5.1337166
37	0x407d636c	3.9591932
38	0x408d6569	4.418629
39	0x40127359	2.2882903
40	0x409d5fce	4.917945
41	0x406ec227	3.7306
42	0x40b870aa	5.763753
43	0x40ac5d69	5.3864026
44	0x410823d1	8.508744
45	0x400d2784	2.2055368
46	0x400b7f3a	2.1796403
47	0x40869ce0	4.20665
48	0x40628290	3.539219
49	0x401c3c35	2.4411747
50	0x403500f9	2.8281844
51	0x406492ec	3.5714674
52	0x404df25e	3.217918
53	0x4089628c	4.2932796
54	0x404b8c1e	3.180427
55	0x4104aa7e	8.291624
56	0x42258d6a	41.3881
57	0x4154c69e	13.298491
58	0x418e3227	17.774488
59	0x42293ec7	42.311306
60	0x40977ac8	4.733738
61	0x4075e305	3.8419812
62	0x409262d1	4.5745625
63	0x409de829	4.93459
64	0x40ab1f0c	5.34754
65	0x40931093	4.595773
66	0x403d566f	2.9584005
67	0x40d0a392	6.519967
68	0x40c6a9e4	6.2082386
69	0x40a0bb03	5.0228286
70	0x40b9add1	5.802468
71	0x40511fac	3.267558
72	0x407fab57	3.9948328
73	0x4097abd7	4.7397265
74	0x405fa23d	3.4942772
75	0x40888e7c	4.267393
76	0x409ed50b	4.963506
77	0x41004fc2	8.019472
78	0x407f0d34	3.9851809
79	0x40133288	2.2999592
80	0x401c97fb	2.4467762
81	0x4082dba5	4.089312
82	0x402a2c02	2.658936
83	0x40a2b510	5.0846024
84	0x40914bd9	4.5405087
85	0x40c36091	6.105538
86	0x40866e2a	4.2009478
87	0x40e8d9f8	7.2766075
88	0x40d2dc87	6.58942
89	0x415862d3	13.524127
90	0x40721a9a	3.7828736
91	0x40b8b297	5.7718005
92	0x406553ba	3.5832353
93	0x408083a3	4.016069
94	0x4055ac27	3.3386323
95	0x40a964f6	5.2935743
96	0x40b5f7e6	5.686511
97	0x40d1e7e8	6.559559
98	0x40c500a2	6.1563272
99	0x40a9d24a	5.30692
100	0x409f0662	4.969529
101	0x415f0178	13.937859
102	0x4097da24	4.7453785
103	0x404edd09	3.232241
104	0x40304cda	2.7546906
105	0x405865be	3.3812099
106	0x40a83e35	5.2575936
107	0x40a8f7e6	5.280261
108	0x40e3349c	7.100172
109	0x40c3b485	6.115786
110	0x408c6fb8	4.3886375
111	0x40861cd1	4.1910176
112	0x40c85ee6	6.2615843
113	0x417958e3	15.584201
114	0x40768df3	3.852414
115	0x4070a5de	3.7601237
116	0x40936ccb	4.6070304
117	0x40a84bed	5.2592683
118	0x4080ebbb	4.0287757
119	0x40611dc8	3.5174427
120	0x40511a5d	3.267234
121	0x408cc376	4.39886
122	0x40821806	4.0654325
123	0x4060cf8c	3.5126677
124	0x402e9c89	2.7283041
125	0x40956710	4.668831
126	0x40bdf281	5.9358525
127	0x403e07ad	2.9692185
128	0x409ec04b	4.9609733
129	0x4036a253	2.8536575
130	0x41582f3b	13.511531
131	0x471d9f81	40351.504

dense1.weight f4 [224, 132]
0	0xbc2ff162	-0.0107387025
1	0xbccdfb41	-0.025144221
2	0x3daa8c65	0.083275594
3	0xbd333739	-0.043753836
4	0xbd934297	-0.071904354
5	0xbdb572e2	-0.08859803
6	0x3bc3a51d	0.005970611
7	0xbd6ef89b	-0.058342557
8	0x3d5f79ed	0.054559637
9	0x3ccc7ea8	0.024962738
10	0x3d962e1f	0.07333016
11	0xbd2322c9	-0.039828096
12	0x3cc40649	0.023928778
13	0xbb1b3162	-0.0023680557
14	0xbc0d227c	-0.008614179
15	0x3d04af76	0.032393895
16	0xbcc7372a	-0.024318296
17	0xbc425acf	-0.011862471
18	0x3d984137	0.07434314
19	0xbd714a3b	-0.058908682
20	0xbd8d397d	-0.06895731
21	0x3d2d7d4e	0.042355828
22	0xbcd9d841	-0.026592376
23	0x3d402780	0.04691267
24	0xbd6d1534	-0.05788155
25	0x3d4b31cb	0.049608033
26	0x3b6731d6	0.0035277507
27	0xbbb0583e	-0.005381613
28	0x3d4dd2b5	0.050249774
29	0xbcc8a3d0	-0.024492174
30	0x3d16e3b7	0.03683826
31	0xbc725e77	-0.01479303
32	0x3cbedc3e	0.023298379
33	0x3d54695b	0.051858287
34	0x3d53d5d8	0.05171761
35	0xbc826112	-0.015915427
36	0x3d163f24	0.03668131
37	0x38c1dae8	9.2437316e-05
38	0x3d7b0ddc	0.061292514
39	0xbd50771a	-0.050894834
40	0xbcc6e2bc	-0.024278037
41	0x3da693ab	0.08133634
42	0x3ca760c0	0.020431876
43	0xbd09c060	-0.03363073
44	0x3d299c42	0.041408785
45	0x3d772918	0.060341924
46	0xbcdda2dc	-0.027055196
47	0xbd7015f4	-0.058614686
48	0xbd7d95dd	-0.0619105
49	0x3d23c076	0.039978467
50	0x3c1471a8	0.009060301
51	0x3d6e1ed1	0.058134858
52	0xbd2a0674	-0.04151006
53	0x3d631af2	0.05544562
54	0xb84054cc	-4.585534e-05
55	0xbda6fb50	-0.08153403
56	0xbda2d5c4	-0.07950929
57	0xbda3558c	-0.07975301
58	0xbdeee88a	-0.11665447
59	0xbdd6851b	-0.104746066
60	0xbc86caa0	-0.016454041
61	0x3da63a8d	0.081166364
62	0xbd7b2291	-0.061312262
63	0x3d9e2642	0.07722141
64	0x3d97cc98	0.0741207
65	0xbd8870b9	-0.06662125
66	0x3d4c3718	0.04985723
67	0x3d47e345	0.048800725
68	0xbc2ca1da	-0.010536635
69	0x3d166dd3	0.03672583
70	0x3d8bad8f	0.06820213
71	0x3da300a3	0.07959106
72	0x3dc724a4	0.097237855
73	0x3cada1c4	0.0211953
74	0xb9e5e8d7	-0.00043851763
75	0x3c311077	0.010807148
76	0x3c9e1012	0.019294772
77	0xbca29b88	-0.019849554
78	0xbc9e6ab3	-0.019337988
79	0xbdb5bf03	-0.08874323
80	0x3db903e3	0.090339445
81	0xbcc46c75	-0.023977498
82	0xbc709c21	-0.0146856615
83	0xbd6dfafb	-0.05810068
84	0xbc46a29a	-0.012123728
85	0x3d6e3858	0.058159202
86	0xbd99bbbb	-0.0750651
87	0x3c35ca27	0.01109556
88	0x3d6c04eb	0.057621878
89	0xbdaaaf26	-0.08334188
90	0x3ceb103b	0.028694263
91	0x3c907931	0.017635914
92	0x3cd0d3ab	0.025491556
93	0x3c2ba10d	0.010475409
94	0x3d97cda1	0.074122675
95	0x3db7ab7b	0.08968254
96	0xbba8776d	-0.00514119
97	0x3d15e4ac	0.03659503
98	0xbd11018c	-0.035401866
99	0xbd1b6845	-0.037941236
100	0xbc99f08b	-0.018791458
101	0x3d20508e	0.039139323
102	0x3d8fc9e1	0.07020927
103	0x3d94767d	0.07249162
104	0x3c148f6b	0.009067397
105	0x3cd43aff	0.025907038
106	0xbbb1a8e7	-0.005421746
107	0xb9f5e6ff	-0.00046902147
108	0xbd92c62b	-0.07166704
109	0xbc4a9bc3	-0.012366238
110	0xbd838ce8	-0.0642336
111	0x3d8a45c9	0.06751592
112	0xbc51900c	-0.012790691
113	0x3d110668	0.0354065
114	0xbb850ce9	-0.004060377
115	0x3cf75e20	0.03019625
116	0xbd579e4d	-0.0526412
117	0xbd52d242	-0.05147005
118	0xbcfd7de3	-0.030943817
119	0x3dae1d5d	0.08501694
120	0x3cbcab27	0.02303083
121	0x3ca49469	0.020090299
122	0x3d8a2724	0.06745747
123	0x3ce60054	0.028076328
124	0x3cc0fbe5	0.023557613
125	0xbd335b75	-0.043788392
126	0xbd471567	-0.048604395
127	0x3d453980	0.04815054
128	0x3d87d6a8	0.06632739
129	0xbd70ef31	-0.05882186
130	0x3d06996b	0.032861155
131	0xbc896dcc	-0.016775988
132	0x3da2f458	0.07956761
133	0xbc53c8a4	-0.012926254
134	0x3aebd197	0.001799154
135	0xbcd81229	-0.026375847
136	0xbd157350	-0.036486924
137	0x3d196a1e	0.037454717
138	0xbd903119	-0.07040615
139	0x3d343396	0.04399451
140	0x3b1ea27c	0.0024205735
141	0x3d895902	0.0670643
142	0x3d503189	0.05082849
143	0xbd397e0a	-0.045286216
144	0xbc4997b9	-0.01230424
145	0x3c095a2a	0.008383313
146	0xbcb028b4	-0.021503784
147	0x3d8b7938	0.0681023
148	0x3d93b405	0.072120704
149	0xbdb2c211	-0.087284215
150	0xbd2325cf	-0.03983098
151	0x3dc23b20	0.094839334
152	0x3cb72959	0.022358583
153	0xbd0b5f21	-0.03402627
154	0x3d4c71b3	0.04991312
155	0xbc725153	-0.014789897
156	0xbcd1abb3	-0.025594568
157	0xbd86ad4b	-0.06576022
158	0x3d6a9c20	0.0572778
159	0xbb7226b2	-0.0036949334
160	0xbd38cfc5	-0.04512002
161	0xbd62db5b	-0.055384975
162	0xbd5554ef	-0.052082952
163	0x3d41e690	0.047339022
164	0x3d058daa	0.032605805
165	0x3cf90fc1	0.03040302
166	0xbd3ee2b1	-0.04660291
167	0xbd7dea44	-0.06199099
168	0xbd5463a5	-0.05185284
169	0xbd81e049	-0.06341607
170	0x3c02fac9	0.007994362
171	0x3ce60a1a	0.028080989
172	0xbd32ff80	-0.043700695
173	0xbda5e579	-0.08100409
174	0x3d5ef4c6	0.054432653
175	0x3cee76a7	0.029109312
176	0xbca2596e	-0.019818034
177	0xbcaa2bb6	-0.020772796
178	0xbc18807c	-0.009307977
179	0xbd1abeb6	-0.037779532
180	0x3cf8e847	0.030384196
181	0x3c29a1ee	0.010353548
182	0xbd677966	-0.05651226
183	0xbd7b0fd4	-0.06129439
184	0xbd42fa9e	-0.04760229
185	0xbd7cd293	-0.061724257
186	0xbbda9566	-0.0066706417
187	0xbc80695f	-0.015675245
188	0xbcb760f8	-0.022385105
189	0x3c00da7c	0.007864591
190	0xbcaa8bb4	-0.020818569
191	0x3d89d35c	0.06729767
192	0x3d91b156	0.07113902
193	0x3b1c773d	0.0023874782
194	0xbcc9db7f	-0.024640797
195	0xbd6d48b0	-0.05793065
196	0x3cabe6da	0.020984102
197	0xbd3abbd2	-0.045589276
198	0x3dc4920f	0.09598171
199	0x3d8178f7	0.063219
200	0x3cb4b87b	0.022060623
201	0xbc1d4c25	-0.009600674
202	0x3c75ba8d	0.01499809
203	0x3db12803	0.0865021
204	0xbc3cd6df	-0.011525839
205	0x3c1762df	0.009239881
206	0x3d1d283b	0.038368445
207	0x3d2a25ba	0.041539885
208	0x3b316f9a	0.0027074576
209	0x3da17338	0.07883304
210	0xbd4c60e0	-0.049897075
211	0x3cc2f700	0.02379942
212	0xbda9f4fa	-0.08298679
213	0x3d313a55	0.04326852
214	0x3d850088	0.06494242
215	0x3be426dd	0.0069626407
216	0xbd51d844	-0.051231638
217	0xbd104185	-0.035218734
218	0x3d25e357	0.04050001
219	0xbd493301	-0.049120907
220	0xbcc83f97	-0.024444385
221	0xbc8acb4d	-0.016942644
222	0xbcc69f2f	-0.024245827
223	0x3d3dd021	0.046341065
224	0xbd4f05c2	-0.0505426
225	0x3d1254f5	0.035725553
226	0xbd163d1b	-0.03667937
227	0x3c19bf3c	0.009383973
228	0x3dbc2d57	0.091883354
229	0xbd807eaf	-0.06274163
230	0xbd228dcc	-0.03968601
231	0x3d5578aa	0.052117027
232	0x3d5323cd	0.051547814
233	0xbd398407	-0.045291927
234	0x3d3a9dff	0.045560833
235	0xbd1f4d48	-0.03889206
236	0xbd802962	-0.06257893
237	0xbcd9d4e1	-0.026590766
238	0x3d621b48	0.0552018
239	0x3c586342	0.013207259
240	0x3da6e5c9	0.08149297
241	0x3d242cb0	0.04008168
242	0xbbae0b1d	-0.0053113834
243	0x3d9c266c	0.07624516
244	0x3d2b16ab	0.041769665
245	0x3d25b089	0.04045156
246	0xbd87039a	-0.06592484
247	0xbd3deabf	-0.04636645
248	0x3d876682	0.06611349
249	0x3d9fbd3f	0.07799768
250	0x3cf2cfe0	0.029640138
251	0x3d421108	0.047379524
252	0xbd8254a1	-0.06363798
253	0xbd127512	-0.03575618
254	0xbc00e0d5	-0.007866104
255	0xbd2f2b2d	-0.042765785

dense1.bias f4 [224]
0	0xb4e66f1e	-4.2921687e-07
1	0x33b84c63	8.582062e-08
2	0x348e2ab5	2.6480635e-07
3	0xb3c3bcb3	-9.114719e-08
4	0xb41c249d	-1.4541952e-07
5	0xb50d906c	-5.2736755e-07
6	0xb58c6415	-1.045994e-06
7	0x341afce7	1.4434373e-07
8	0x33f36d71	1.13354766e-07
9	0x3397dd8d	7.071785e-08
10	0xb5028229	-4.861818e-07
11	0x35078291	5.048142e-07
12	0xb4094d39	-1.2787213e-07
13	0x34e44ae0	4.2522788e-07
14	0xb498b632	-2.844477e-07
15	0xb574f5a5	-9.1254543e-07
16	0x33d307e9	9.826892e-08
17	0xb49f17df	-2.9633426e-07
18	0x33fa17cb	1.164586e-07
19	0xb397fa69	-7.077035e-08
20	0x346c5575	2.2010302e-07
21	0x332b16e8	3.9834873e-08
22	0xb1e5bfd2	-6.6865846e-09
23	0xb52e64ab	-6.496654e-07
24	0xb3d72065	-1.001761e-07
25	0x350f6e0d	5.3431796e-07
26	0x34a01aac	2.982173e-07
27	0x34815d4c	2.4096005e-07
28	0xb37d86f2	-5.9028885e-08
29	0xb4bf6078	-3.5646713e-07
30	0xb588b315	-1.0184909e-06
31	0xb4afd10c	-3.2748392e-07
32	0xb401b241	-1.207891e-07
33	0x34c81166	3.7265562e-07
34	0xb535e821	-6.7765546e-07
35	0x3462152c	2.1055592e-07
36	0xb460eee3	-2.0948532e-07
37	0x34d2f3b6	3.929287e-07
38	0xb4c460f2	-3.6578382e-07
39	0xb410bab2	-1.3478964e-07
40	0xb40df3fd	-1.3220411e-07
41	0xb4b5be29	-3.3852237e-07
42	0xb39b811d	-7.2412355e-08
43	0xb4819037	-2.4133053e-07
44	0xb3f8ef10	-1.1591885e-07
45	0x3442f6d2	1.815745e-07
46	0x33b0956c	8.222818e-08
47	0x33533019	4.917101e-08
48	0xb4cb08c9	-3.7818089e-07
49	0x3233fea1	1.0477067e-08
50	0xb509c349	-5.1320654e-07
51	0x347d1f43	2.3573834e-07
52	0x3272f109	1.4141059e-08
53	0x34b2e3e2	3.332089e-07
54	0xb48c4dd0	-2.6133648e-07
55	0xb4073b21	-1.2594366e-07
56	0x360373e7	1.9587985e-06
57	0xb428a394	-1.5705729e-07
58	0xb4a9f235	-3.1654932e-07
59	0x341b2962	1.4450555e-07
60	0xb3290419	-3.9352106e-08
61	0x33c8efac	9.356822e-08
62	0x34800bb2	2.3850367e-07
63	0xb547d411	-7.4441874e-07
64	0xb40541d1	-1.2410534e-07
65	0xb25cae61	-1.2845335e-08
66	0x34d44b23	3.9542746e-07
67	0xb38f15c6	-6.662917e-08
68	0x33643452	5.3132972e-08
69	0xb4b7c6c8	-3.423104e-07
70	0x353b97d4	6.988387e-07
71	0xb413bf14	-1.3759956e-07
72	0x34e2ec84	4.2267868e-07
73	0x34a1056b	2.999253e-07
74	0xb3fba21a	-1.17175844e-07
75	0xb4fec0ef	-4.7451564e-07
76	0x330d8e85	3.295874e-08
77	0x335176ee	4.876977e-08
78	0x34c38f5c	3.6425888e-07
79	0x341569ef	1.3915245e-07
80	0x3403d9a8	1.2279509e-07
81	0xb52d42ed	-6.454491e-07
82	0xb2bac79a	-2.1744018e-08
83	0xb4dcf3f0	-4.115568e-07
84	0xb46948bc	-2.1726277e-07
85	0x3487c470	2.5288637e-07
86	0x306633c0	8.3747054e-10
87	0xb38af81a	-6.471255e-08
88	0x336f8d6b	5.5775143e-08
89	0x34086e27	1.270606e-07
90	0x34623659	2.1067662e-07
91	0x340bee72	1.303213e-07
92	0x3160221c	3.261568e-09
93	0xb48216b0	-2.4230894e-07
94	0xb38fef0c	-6.702439e-08
95	0xb2d87608	-2.5199384e-08
96	0x3516211e	5.5927546e-07
97	0x34548e38	1.9795777e-07
98	0x34731e82	2.2642237e-07
99	0x3311f31e	3.3981557e-08
100	0xb3d1dcb9	-9.77247e-08
101	0x31a88129	4.9041273e-09
102	0x34fc5151	4.6997823e-07
103	0x345f5399	2.0798906e-07
104	0x34bcd1b3	3.5170305e-07
105	0xb48b4e25	-2.5947625e-07
106	0x342f6604	1.6335258e-07
107	0x34391fae	1.7240993e-07
108	0x348a95e2	2.5813557e-07
109	0x347023b1	2.2364726e-07
110	0x347f49b1	2.3775534e-07
111	0xb33f5bb5	-4.455406e-08
112	0x34f48f68	4.5552883e-07
113	0xb440fc0f	-1.7973092e-07
114	0x3399e50a	7.16628e-08
115	0xb5082fa9	-5.07333e-07
116	0x33c4b7e0	9.160408e-08
117	0x34c60dff	3.6890557e-07
118	0x3513c1cf	5.5043796e-07
119	0xb4a00b0a	-2.9810354e-07
120	0xb4a034fd	-2.9840876e-07
121	0xb3d82ed7	-1.0066804e-07
122	0x32ee19cd	2.771858e-08
123	0x33c188e8	9.012166e-08
124	0x3438f115	1.722404e-07
125	0xb44d80c5	-1.9138959e-07
126	0x330dd10a	3.301924e-08
127	0x34db4676	4.0843196e-07
128	0xb399ead9	-7.167336e-08
129	0xb5010cda	-4.8074946e-07
130	0xb42c7a1f	-1.6063176e-07
131	0x33442626	4.5669502e-08
132	0xb40dbbb7	-1.3199939e-07
133	0xb56d557a	-8.8413765e-07
134	0x352d7e03	6.4630893e-07
135	0x342c1dfd	1.6029658e-07
136	0x31d64e6d	6.2371357e-09
137	0x33c97150	9.380403e-08
138	0x33c6c5ca	9.256071e-08
139	0x3418690a	1.4194316e-07
140	0x3516ffaa	5.6251395e-07
141	0xb4014758	-1.2040016e-07
142	0x3480fc32	2.4025354e-07
143	0x34886dc6	2.5411845e-07
144	0x3409b96f	1.282658e-07
145	0x32df310f	2.5982926e-08
146	0xb393bfa9	-6.880084e-08
147	0xb420210c	-1.4913184e-07
148	0x34a814d0	3.1307582e-07
149	0xb40bb1ac	-1.301002e-07
150	0xb5aa8670	-1.2705113e-06
151	0xb4b84d4a	-3.4328906e-07
152	0xb4236ac7	-1.5219403e-07
153	0xb53f0358	-7.115791e-07
154	0x3189b5ea	4.007906e-09
155	0xb4c1f16a	-3.6124703e-07
156	0xb3b44b7d	-8.3956344e-08
157	0x33eb0da0	1.09455186e-07
158	0x336ba7b9	5.4867744e-08
159	0xb296cf02	-1.7556435e-08
160	0x3443a662	1.822132e-07
161	0xb451f911	-1.9555252e-07
162	0xb061dcc8	-8.216827e-10
163	0xb513d1ae	-5.506689e-07
164	0x341a8d6e	1.439382e-07
165	0xb2730cc0	-1.4147361e-08
166	0x35cca2fd	1.524662e-06
167	0xb4a2782c	-3.0262288e-07
168	0xb4a44e7a	-3.060448e-07
169	0x34efc00f	4.465696e-07
170	0xb337fd33	-4.283829e-08
171	0x34cde786	3.835268e-07
172	0xb4d3ed56	-3.9474497e-07
173	0xb47b7f23	-2.3422449e-07
174	0x338a23d0	6.43264e-08
175	0x34b153a7	3.3029684e-07
176	0x3451823a	1.9512018e-07
177	0x33c95f02	9.377074e-08
178	0x33fff1fe	1.1918381e-07
179	0xb5a8e7e4	-1.2584464e-06
180	0x346ebe7b	2.2234774e-07
181	0xb42b4f15	-1.5954386e-07
182	0xb4915002	-2.7066568e-07
183	0xb40f4259	-1.334205e-07
184	0x33ede734	1.1078228e-07
185	0xb64512b1	-2.9366167e-06
186	0xb4f62297	-4.5846238e-07
187	0xb135dc1d	-2.6464086e-09
188	0x366a57c7	3.491981e-06
189	0x337b9e3a	5.8584398e-08
190	0xb38dc646	-6.60189e-08
191	0x3569ad3e	8.7051365e-07
192	0x34abaa01	3.1974926e-07
193	0x33462130	4.613065e-08
194	0x3223d3c3	9.535998e-09
195	0x344b1234	1.891247e-07
196	0x33b208ba	8.290358e-08
197	0xb32cff59	-4.0279108e-08
198	0x33d73487	1.0021272e-07
199	0xb3fb1688	-1.1692197e-07
200	0xb383650c	-6.118543e-08
201	0xb57ae25f	-9.346167e-07
202	0xb4783f48	-2.3119821e-07
203	0x347f0d4d	2.3753564e-07
204	0x35839fa1	9.806719e-07
205	0x33467c8a	4.6213735e-08
206	0x36856256	3.9751567e-06
207	0xb4e3061e	-4.2286496e-07
208	0xb2f9bd5a	-2.9073522e-08
209	0xb5306506	-6.571212e-07
210	0xb533b779	-6.6949684e-07
211	0x3352c6dd	4.90753e-08
212	0xb49ee93c	-2.9599494e-07
213	0xb49d1f7b	-2.9266434e-07
214	0xb40a67aa	-1.2889964e-07
215	0xb4fa6109	-4.663673e-07
216	0x349ca18d	2.9174808e-07
217	0x34719b82	2.2501447e-07
218	0x349915a1	2.8514208e-07
219	0xb551400d	-7.7951773e-07
220	0x33daa3ac	1.0181188e-07
221	0x343cb3fb	1.7574341e-07
222	0x34eec92c	4.4477326e-07
223	0xb47018ff	-2.2360835e-07

batch_norm1.weight f4 [224]
0	0x3f6fc3eb	0.9365832
1	0x3f61a77b	0.8814618
2	0x3f6d8048	0.92773867
3	0x3f63c9eb	0.8897998
4	0x3f6097f3	0.87731856
5	0x3f5d284f	0.8638963
6	0x3f5ed4fa	0.87043726
7	0x3f658e2d	0.8967007
8	0x3f68b455	0.90900165
9	0x3f62e751	0.8863421
10	0x3f5b3b83	0.8563768
11	0x3f61f579	0.88265187
12	0x3f6542a0	0.89554787
13	0x3f7085cf	0.93954176
14	0x3f662109	0.8989416
15	0x3f6b67fe	0.91955554
16	0x3f559ba5	0.8344062
17	0x3f5debfd	0.86688215
18	0x3f60a92b	0.8775813
19	0x3f6e9c3e	0.93207157
20	0x3f59ccab	0.85077924
21	0x3f647425	0.8923972
22	0x3f634a92	0.8878566
23	0x3f65e6e3	0.8980543
24	0x3f5ce33d	0.8628424
25	0x3f63e1cd	0.8901642
26	0x3f60e836	0.87854326
27	0x3f5b5138	0.85670805
28	0x3f6b1326	0.91826093
29	0x3f62c390	0.88579655
30	0x3f6376af	0.8885297
31	0x3f5e9b2e	0.86955535
32	0x3f55028a	0.83207
33	0x3f5b693e	0.8570746
34	0x3f6049b6	0.87612474
35	0x3f6a2eff	0.9147796
36	0x3f5732a6	0.8406166
37	0x3f6245af	0.8838758
38	0x3f62a3d2	0.8853122
39	0x3f5b636f	0.856986
40	0x3f5fe867	0.8746399
41	0x3f58171d	0.8441027
42	0x3f5cb031	0.86206347
43	0x3f5a626b	0.85306424
44	0x3f6c947e	0.9241408
45	0x3f602984	0.8756335
46	0x3f6503ab	0.8945872
47	0x3f6a6a6d	0.9156864
48	0x3f5be5b8	0.858974
49	0x3f6736a0	0.90317726
50	0x3f619e31	0.88132006
51	0x3f5ace2c	0.85470843
52	0x3f5fbf87	0.8740162
53	0x3f5abe22	0.8544637
54	0x3f637f94	0.88866544
55	0x3f64a862	0.8931943
56	0x3f6458db	0.8919808
57	0x3f62169d	0.88315755
58	0x3f699c2c	0.91253924
59	0x3f6a1284	0.914345
60	0x3f61a990	0.88149357
61	0x3f5fd421	0.8743306
62	0x3f6e3f70	0.9306555
63	0x3f61feee	0.88279617
64	0x3f60202b	0.87549084
65	0x3f682105	0.90675384
66	0x3f58caee	0.84684646
67	0x3f5dc63d	0.8663061
68	0x3f5a983a	0.8538853
69	0x3f69696f	0.91176504
70	0x3f598b71	0.84978396
71	0x3f6c1539	0.92219883
72	0x3f64f484	0.894356
73	0x3f691be4	0.9105818
74	0x3f61abc9	0.8815275
75	0x3f6d6fa7	0.9274849
76	0x3f5ebe89	0.87009484
77	0x3f654146	0.89552724
78	0x3f64c68b	0.8936545
79	0x3f65a614	0.8970654
80	0x3f5cedb7	0.86300224
81	0x3f6a24fc	0.91462684
82	0x3f5f099e	0.8712405
83	0x3f591b81	0.8480759
84	0x3f6aa60f	0.91659635
85	0x3f5e23aa	0.8677317
86	0x3f64e75c	0.89415526
87	0x3f65d044	0.89770913
88	0x3f6a2cea	0.91474783
89	0x3f5efdd8	0.87106085
90	0x3f658d94	0.89669156
91	0x3f5f77f0	0.87292385
92	0x3f607500	0.8767853
93	0x3f621f15	0.8832868
94	0x3f6c44f2	0.922927
95	0x3f660a04	0.8985903
96	0x3f64ed9e	0.89425075
97	0x3f544f29	0.8293329
98	0x3f5fc1d9	0.87405163
99	0x3f5889b1	0.845851
100	0x3f62e9fb	0.88638276
101	0x3f636fbb	0.8884236
102	0x3f6a99ce	0.9164094
103	0x3f66ca5f	0.90152544
104	0x3f626f88	0.88451433
105	0x3f6842ef	0.9072713
106	0x3f657cd3	0.8964359
107	0x3f688b40	0.9083748
108	0x3f62c10c	0.88575816
109	0x3f5dd06d	0.8664616
110	0x3f66f6cb	0.90220326
111	0x3f602265	0.8755248
112	0x3f5ff489	0.87482506
113	0x3f5afbfd	0.85540754
114	0x3f618b33	0.88103026
115	0x3f6ff8e7	0.9373917
116	0x3f65e19c	0.8979738
117	0x3f5d7e74	0.8652108
118	0x3f5c25c2	0.85995114
119	0x3f6b373c	0.91881156
120	0x3f644718	0.8917098
121	0x3f60f7b6	0.87877977
122	0x3f5fad97	0.8737425
123	0x3f67b80b	0.905152
124	0x3f5f6a11	0.8727122
125	0x3f5cb6fc	0.8621671
126	0x3f68007c	0.9062574
127	0x3f6268db	0.88441247
128	0x3f62e1b4	0.88625646
129	0x3f6a248c	0.91462016
130	0x3f59c679	0.8506847
131	0x3f5dba5d	0.8661249
132	0x3f6691bd	0.9006613
133	0x3f623f28	0.8837762
134	0x3f656434	0.8960602
135	0x3f622020	0.8833027
136	0x3f590d49	0.84785897
137	0x3f60b49a	0.87775576
138	0x3f65ecaf	0.89814276
139	0x3f62fd16	0.8866743
140	0x3f677cda	0.90424883
141	0x3f6961cd	0.9116486
142	0x3f64daa8	0.8939614
143	0x3f5cee1a	0.86300814
144	0x3f616d53	0.8805744
145	0x3f649530	0.8929014
146	0x3f64ee13	0.8942577
147	0x3f5bd3b9	0.8586994
148	0x3f5de27e	0.86673725
149	0x3f5f7b7e	0.8729781
150	0x3f6278e5	0.8846572
151	0x3f6836b9	0.907085
152	0x3f5ff8f5	0.87489253
153	0x3f5c72a8	0.8611245
154	0x3f62e2cc	0.88627315
155	0x3f67cac6	0.9054378
156	0x3f5e0a3f	0.86734384
157	0x3f5d30cb	0.8640258
158	0x3f631bfd	0.8871458
159	0x3f6b7b50	0.91985035
160	0x3f61f7b4	0.8826859
161	0x3f5e10ae	0.867442
162	0x3f615d79	0.8803325
163	0x3f67ac30	0.9049711
164	0x3f62a6be	0.8853568
165	0x3f68edd9	0.90987927
166	0x3f6cc869	0.924933
167	0x3f578676	0.84189546
168	0x3f73218d	0.9497307
169	0x3f622b75	0.8834756
170	0x3f647b8f	0.89251035
171	0x3f6bad12	0.9206096
172	0x3f60ee10	0.87863255
173	0x3f709819	0.9398208
174	0x3f52d1b4	0.8235123
175	0x3f5c45e6	0.86044157
176	0x3f5cfcc2	0.8632318
177	0x3f68628b	0.90775365
178	0x3f5bda93	0.8588039
179	0x3f620312	0.88285935
180	0x3f68d6af	0.9095258
181	0x3f65289b	0.89515084
182	0x3f6495c7	0.8929104
183	0x3f649541	0.89290243
184	0x3f67892d	0.9044369
185	0x3f691479	0.91046864
186	0x3f61308d	0.8796471
187	0x3f54335d	0.82890874
188	0x3f6f3fbc	0.93456626
189	0x3f578cf7	0.8419947
190	0x3f5ff6b4	0.87485814
191	0x3f6b16e8	0.9183183
192	0x3f602934	0.8756287
193	0x3f602196	0.8755125
194	0x3f5ec41f	0.8701801
195	0x3f60297d	0.87563306
196	0x3f55e3a9	0.83550507
197	0x3f5ad1cc	0.85476375
198	0x3f626612	0.88436997
199	0x3f5c9212	0.86160386
200	0x3f60c996	0.87807596
201	0x3f6e31ed	0.9304493
202	0x3f65e284	0.8979876
203	0x3f6dd5c2	0.92904294
204	0x3f6b63f1	0.91949373
205	0x3f5b848e	0.8574914
206	0x3f680fea	0.9064928
207	0x3f694ae1	0.9112988
208	0x3f5c579b	0.86071175
209	0x3f63c68b	0.8897483
210	0x3f6069c0	0.8766136
211	0x3f63005a	0.8867241
212	0x3f62fe90	0.8866968
213	0x3f6d1968	0.9261689
214	0x3f6ae482	0.91754925
215	0x3f67a59a	0.9048706
216	0x3f5efc7b	0.87104005
217	0x3f5e422c	0.8681972
218	0x3f587322	0.8455068
219	0x3f57e49e	0.8433322
220	0x3f57943a	0.8421055
221	0x3f652aae	0.8951825
222	0x3f5ff1f4	0.87478566
223	0x3f69178e	0.91051567

batch_norm1.bias f4 [224]
0	0x3b2b8c8b	0.00261763
1	0xbd35395e	-0.044244163
2	0xbc8cef1b	-0.017203858
3	0xbcfac857	-0.030613108
4	0xbccd1c04	-0.025037773
5	0xbcc01999	-0.023449706
6	0xbcb1d59f	-0.021708308
7	0xbca85ad9	-0.020551132
8	0xbc90572d	-0.017619694
9	0xbb71c9a2	-0.0036893864
10	0xbcae5b4c	-0.021283768
11	0xbd1875b5	-0.03722163
12	0xbc1c0c20	-0.009524375
13	0xbca90273	-0.02063105
14	0xbcb849ef	-0.022496192
15	0x3c5bda18	0.013418697
16	0xbccc3d58	-0.024931595
17	0xbd038558	-0.03210959
18	0xbc45e99c	-0.012079623
19	0xbd2b9b51	-0.04189617
20	0xbc9897ed	-0.018627131
21	0xbc0d694c	-0.008631062
22	0x3cb62915	0.022236386
23	0xbc3ef643	-0.011655393
24	0xbc298fb2	-0.010349201
25	0x3c07d8e3	0.008291456
26	0xbcbf4441	-0.023347976
27	0x3c782971	0.015146599
28	0xbbad26e4	-0.005284177
29	0xbc240d03	-0.010012868
30	0xbc9f2dca	-0.019431014
31	0x3c94ad7d	0.018149132
32	0xbc3c86bb	-0.011506732
33	0x3b663a24	0.003512987
34	0xbc54a0d8	-0.012977801
35	0x3c758eb7	0.014987639
36	0xbcbfcd3c	-0.023413293
37	0xbcb22a38	-0.021748647
38	0xbce43d1a	-0.027861167
39	0xbcdaba0f	-0.026700048
40	0xbcbb6a4b	-0.022877833
41	0xbcb309a3	-0.021855181
42	0xbc4058cd	-0.011739922
43	0xbc5ea3d4	-0.013588864
44	0xbd1ef2c2	-0.03880573
45	0xbccef905	-0.025265226
46	0xbb911eb7	-0.0044287103
47	0xbc91dbb1	-0.017804952
48	0xbc70688f	-0.014673366
49	0xbc7e69fd	-0.015528199
50	0x3ade8144	0.001697578
51	0x3c4a6a8b	0.012354503
52	0x3b77b025	0.00377942
53	0xbc747703	-0.014920953
54	0xbca1e73b	-0.01976358
55	0xbc93547f	-0.017984627
56	0xbbc3ea00	-0.0059788227
57	0xbc02b029	-0.00797657
58	0xbccb9370	-0.024850577
59	0x3a6fceeb	0.00091479596
60	0xbc5fc8be	-0.0136587005
61	0xbd3e57a2	-0.046470292
62	0xbce92af1	-0.028462859
63	0xbcb18b93	-0.021673
64	0xbc9c958b	-0.019114276
65	0xbbc6519d	-0.0060522095
66	0xbced1140	-0.02893889
67	0xbc48aa68	-0.012247659
68	0xbcb64f2c	-0.022254549
69	0xbc7a7cfd	-0.015288589
70	0xbca5f440	-0.020258069
71	0xbc3bff49	-0.011474439
72	0xbc4c8e01	-0.012485028
73	0xbc4d6765	-0.012536858
74	0xbc1e67f7	-0.009668342
75	0x3c9cdf27	0.019149376
76	0xbc90f68c	-0.017695688
77	0xbba5db62	-0.005061553
78	0xbb9342bc	-0.0044940393
79	0xbd0bca6b	-0.034128588
80	0xbc8d8db7	-0.017279489
81	0xbd80af9c	-0.06283495
82	0xbcd05ebc	-0.025435798
83	0xbcfc482f	-0.030796139
84	0x3c00803d	0.007843074
85	0xbcad36c1	-0.021144273
86	0xbc0031b8	-0.007824354
87	0x3c9a70a0	0.018852532
88	0xbbc1dff0	-0.005916588
89	0xbc3166fa	-0.010827774
90	0xbc10db5a	-0.00884136
91	0xbcf08aa0	-0.029362977
92	0xbc9e34b1	-0.019312235
93	0xbca7b413	-0.020471608
94	0x3a33cc24	0.00068587274
95	0xbcc701f2	-0.02429292
96	0xbcf4cacc	-0.029881857
97	0xbd2490e3	-0.040177237
98	0xbc5590d9	-0.013035023
99	0x3c371e3e	0.011176644
100	0xbcf22e5c	-0.029563121
101	0xbd17df40	-0.037078142
102	0xbc98298b	-0.018574497
103	0xbd1897d1	-0.03725416
104	0xbc299024	-0.010349307
105	0x3bdd34f0	0.0067506954
106	0xbd11dfd4	-0.03561385
107	0xbc3e32cc	-0.011608791
108	0x3c5bd512	0.013417499
109	0xba3f9794	-0.00073086587
110	0xbc45006d	-0.012024027
111	0xbcf4d5fb	-0.02988719
112	0xbc69f959	-0.0142806405
113	0xbd847354	-0.064673096
114	0xbba6311b	-0.005071772
115	0xbb965dfb	-0.00458884
116	0x3ae2de43	0.0017308671
117	0xbc6e7048	-0.014553137
118	0xbc80526b	-0.0156643
119	0xbc8ae6bd	-0.016955728
120	0xbcae06b3	-0.021243429
121	0xbcdeedd7	-0.02721302
122	0xbc528d42	-0.012851061
123	0x3b812c8a	0.003942077
124	0xbd3310a0	-0.043717027
125	0xbcc95ca0	-0.0245803
126	0xbd0a56bb	-0.03377412
127	0xbb52c1e4	-0.0032159025
128	0xbcd5e6ee	-0.026111092
129	0xbcbf6ae6	-0.023366403
130	0x38b51937	8.635449e-05
131	0xbd233368	-0.039843947
132	0xbc97f3b9	-0.018548833
133	0xbc9cb61a	-0.019129802
134	0xbc3ff562	-0.011716219
135	0xbc2d5e9f	-0.010581641
136	0x3aeb4eb4	0.0017952533
137	0xbcc597e9	-0.024120288
138	0xbbc97297	-0.0061476934
139	0xbd365a94	-0.044519976
140	0xbc3b0f63	-0.011417243
141	0xba913e27	-0.0011081145
142	0xbbce84b1	-0.006302439
143	0xbc90bde8	-0.01766868
144	0xbc94978f	-0.018138675
145	0xbd320e3c	-0.043470606
146	0xbc5e73ec	-0.013577443
147	0x3a6e7325	0.00090961374
148	0xbc9946f8	-0.018710598
149	0x3babda6f	0.005244545
150	0xbc8415c0	-0.016123652
151	0x39ef4403	0.00045636305
152	0x3c5ec60c	0.013597023
153	0xbc83af43	-0.016074782
154	0x3b7964a4	0.0038054371
155	0xbd0da000	-0.034576416
156	0xbc92c538	-0.017916307
157	0xbc6d693a	-0.01449042
158	0xbc69efe2	-0.014278384
159	0xbcd2709a	-0.025688458
160	0xbc1a481a	-0.009416604
161	0xbd2701c6	-0.040773176
162	0xbceaaf01	-0.028647901
163	0xbd0b8a99	-0.034067724
164	0xbc257b85	-0.01010025
165	0xbc913820	-0.017726958
166	0x3c636889	0.013879904
167	0xbc87c36d	-0.016572678
168	0xbbf68f84	-0.0075244326
169	0xbcbdaa87	-0.023152603
170	0xbc40dbb2	-0.011771129
171	0xbcd0a4d7	-0.025469227
172	0xbc6479a0	-0.013945013
173	0x3c057220	0.008144885
174	0xbc07323d	-0.008251724
175	0xbc918b79	-0.017766701
176	0xba807d75	-0.0009803014
177	0xbc17643a	-0.0092402045
178	0xbd79565a	-0.060873367
179	0xbca39e02	-0.019972805
180	0x3ce3ba7e	0.027798887
181	0xbc810d58	-0.015753433
182	0xbc9beef3	-0.019034838
183	0xbc6e73c3	-0.014553967
184	0xbc1df454	-0.009640772
185	0xbc981984	-0.018566854
186	0x3c5edf2d	0.013603014
187	0xbc833d41	-0.01602042
188	0xbc76779d	-0.0150431665
189	0xbcaa13f1	-0.020761462
190	0xbc2a03e6	-0.010376906
191	0x3a39bd01	0.0007085354
192	0xbb5e8bf6	-0.0033957935
193	0xbce889a1	-0.02838594
194	0xbcda4c00	-0.026647568
195	0xbcdee231	-0.027207466
196	0xbc1078f8	-0.008817904
197	0x39bae6e4	0.00035648711
198	0xbbad9f92	-0.0052985633
199	0xbc907aed	-0.01763674
200	0xbc9feb74	-0.019521452
201	0xbd200e31	-0.039076034
202	0xbc69b5c1	-0.014264525
203	0x3b50eb33	0.003187847
204	0xbc7e6533	-0.015527057
205	0xbc928ebf	-0.017890332
206	0xbc335dfd	-0.0109477015
207	0x3c150cd0	0.009097293
208	0x3c170194	0.009216685
209	0x3c28f98e	0.010313405
210	0xbc2be765	-0.0104921805
211	0xbc7aa313	-0.015297669
212	0xbcce1b6a	-0.025159556
213	0xbae9d248	-0.0017839158
214	0xbcc05e07	-0.023482336
215	0xbb760a14	-0.0037542628
216	0xbd1e4380	-0.03863859
217	0xbd05f963	-0.032708537
218	0xbca4d7ea	-0.020122487
219	0xb99fe63a	-0.00030498375
220	0xbb7f4f3a	-0.0038957135
221	0x37e55a76	2.7341051e-05
222	0xbcbe7f3a	-0.023254026
223	0xbc733232	-0.01484351

batch_norm1.running_mean f4 [224]
0	0xbc3654fc	-0.01112866
1	0x3a1b34d3	0.0005920652
2	0xbc3d7680	-0.011563897
3	0x3b1f6c56	0.0024326048
4	0xbc7977b9	-0.015226298
5	0xbb757da7	-0.0037458928
6	0xbc621cbd	-0.013800797
7	0xbaecc6d7	-0.001806463
8	0xbba8aa22	-0.0051472345
9	0x3c8f6e61	0.017508687
10	0x3c8b8056	0.017028969
11	0xbc794c4d	-0.015215945
12	0x3a44c544	0.00075062015
13	0xbcaf13b4	-0.0213717
14	0xbb90126d	-0.004396728
15	0xbb293a86	-0.0025822236
16	0xbb79712c	-0.003806184
17	0x3cc6007a	0.02417015
18	0x3b2eba49	0.0026661328
19	0xbc44f148	-0.012020417
20	0x3b171f10	0.0023059286
21	0x3c7653ff	0.015034675
22	0xba5b7f87	-0.000837319
23	0x3bd35287	0.006449047
24	0x3bc0c6a9	0.005883057
25	0xbb3daf20	-0.0028943494
26	0xbbfcb181	-0.00771159
27	0xbb94b3bd	-0.004538028
28	0x3b63441c	0.0034678048
29	0xbcacb992	-0.02108458
30	0x3c513586	0.012769109
31	0x3cb7c2a6	0.022431683
32	0xbba24061	-0.004951522
33	0x3c2f2aa0	0.010691315
34	0xbc512356	-0.012764772
35	0xbd077974	-0.03307481
36	0x3c3212d2	0.010868745
37	0x3c8b148d	0.016977573
38	0xba961a99	-0.0011452019
39	0xbc10a243	-0.008827749
40	0x3caa5c6e	0.020796027
41	0x3c7a396d	0.01527248
42	0x3b19d105	0.0023470533
43	0x3c6056c0	0.013692558
44	0xbb184edf	-0.002324037
45	0x3c2df42a	0.010617295
46	0x3c179dad	0.009253901
47	0xbc843ab6	-0.016141277
48	0x3c9fa78a	0.019489069
49	0xbbe19fe4	-0.0068855155
50	0x3cbde147	0.02317871
51	0xbc09c4b8	-0.008408718
52	0x39e8c306	0.00044395792
53	0xbb283cda	-0.0025671036
54	0xbbd17f66	-0.006393361
55	0x3b006bc0	0.0019595474
56	0xbbfd0b49	-0.0077222926
57	0x3c07dd36	0.008292487
58	0x3b9c90ed	0.0047780187
59	0x3b1bc8bc	0.002377077
60	0xbbd22dda	-0.0064141573
61	0x3ad038ad	0.0015886031
62	0x3aad737f	0.0013233273
63	0xbc02c89d	-0.0079824
64	0xbccdb1f0	-0.025109261
65	0xbb61aa08	-0.0034433622
66	0x3c14efa1	0.009090335
67	0xba35f769	-0.0006941469
68	0xbc642802	-0.013925554
69	0xbbcf6da9	-0.006330211
70	0x3b95ce2c	0.0045716967
71	0x3bd43fbf	0.0064773257
72	0xba9dd329	-0.001204108
73	0xbc8c90bd	-0.01715886
74	0xbb8a799a	-0.004225922
75	0x3c88754e	0.016657498
76	0x3c7519cb	0.014959763
77	0xbb633656	-0.0034669838
78	0xbb91cdc6	-0.004449579
79	0x3c0c7e68	0.0085750595
80	0x3cd2f0ca	0.025749583
81	0xbc45b433	-0.012066889
82	0xbac0d80f	-0.0014712828
83	0x3c009995	0.007849117
84	0xbc210baa	-0.009829441
85	0x3c1d5ab6	0.009604147
86	0xbc474485	-0.012162332
87	0xbc944b7b	-0.018102398
88	0x3bd8f2ff	0.0066207643
89	0x3c849128	0.016182497
90	0xbc578ee7	-0.013156629
91	0x39f549d8	0.0004678506
92	0xbb9bc7a9	-0.004754026
93	0x3cd1cc19	0.025610017
94	0xbc955f68	-0.01823397
95	0x3c1df229	0.009640255
96	0xbc1176c6	-0.008878415
97	0x3c1b6b36	0.00948601
98	0x3b661d0e	0.0035112533
99	0xbbc2985a	-0.005938572
100	0x3c8b34da	0.016992975
101	0x3a561709	0.00081668847
102	0x3cbdc5d6	0.023165625
103	0xba953f22	-0.0011386613
104	0x3c0f6556	0.008752188
105	0xbc9c9c5e	-0.01911753
106	0xbb918145	-0.004440459
107	0x3c36e706	0.011163479
108	0x3c30ca9d	0.010790494
109	0xbbccfe39	-0.0062558916
110	0xbc001964	-0.007818554
111	0x3c25916e	0.010105474
112	0x3c2dc850	0.01060684
113	0xbbefa7cd	-0.0073137046
114	0xbc163350	-0.009167507
115	0xbb04f7c0	-0.0020289272
116	0xbb862a53	-0.004094401
117	0x3c08bb96	0.008345505
118	0xbc02183a	-0.007940346
119	0x3b072f2d	0.0020627484
120	0x3980a7ee	0.0002453918
121	0xbbbb2d09	-0.0057121557
122	0x3c37c1a0	0.011215597
123	0x3c2260c4	0.009910766
124	0xbc42ad23	-0.011882099
125	0xba29b83d	-0.0006474292
126	0xbb6c82ec	-0.0036088778
127	0x3ba6e719	0.005093467
128	0x3b833263	0.0040038093
129	0x3b643256	0.0034820042
130	0xb957300c	-0.00020521897
131	0x3c47075e	0.012147753
132	0x3c8677ba	0.016414512
133	0xbcabc9a5	-0.020970175
134	0xbc0d81da	-0.008636916
135	0x3bd6c928	0.0065547414
136	0x3a94b9d7	0.0011346888
137	0x3a10d90f	0.00055255083
138	0x3c81c69e	0.015841778
139	0xbc78d3a3	-0.015187177
140	0x3ba568be	0.0050478866
141	0x3c43ecc4	0.011958305
142	0xbc33769f	-0.010953574
143	0xba9bf0a4	-0.0011897278
144	0xbcad8fb7	-0.021186693
145	0x3cc404f5	0.023928145
146	0x3c9919db	0.018689087
147	0x3b8a9b19	0.004229915
148	0xbc890bd9	-0.016729282
149	0xbcdd47f1	-0.027011843
150	0x3c91df0f	0.017806558
151	0x3c5781db	0.013153519
152	0x3c5c0d97	0.013430974
153	0x3c2e3bbd	0.01063436
154	0x3c93cb3e	0.01804125
155	0x3ae63048	0.0017561996
156	0x3c4fff83	0.012695196
157	0x3cd7de91	0.026351245
158	0x3c828d0b	0.015936395
159	0x3c140297	0.009033821
160	0xbb381652	-0.0028089476
161	0x39806164	0.00024486624
162	0x3b463d78	0.003024904
163	0xbc433a9b	-0.011915828
164	0x3c1849a4	0.009294901
165	0xbc48139e	-0.012211708
166	0xbcc714e3	-0.024301952
167	0xbc414a76	-0.011797538
168	0xb81a3cbf	-3.6773035e-05
169	0xbd011801	-0.031517033
170	0xbcb5bb60	-0.022184074
171	0xbcde73a9	-0.02715476
172	0x3b1dea12	0.0024095816
173	0x3a85776b	0.0010182684
174	0x3bcddc00	0.0062823296
175	0x3c871a74	0.016492106
176	0xbbabdddd	-0.005244954
177	0xbc8a3b7b	-0.016874066
178	0xbc2fea4a	-0.010737011
179	0x3c51ada4	0.012797747
180	0x3d03d717	0.032187548
181	0xbc968d0a	-0.0183778
182	0xba4d77dd	-0.00078379904
183	0xbb51b55a	-0.0031998963
184	0x3c7ee343	0.015557113
185	0xbbd334bf	-0.006445497
186	0x3bead30b	0.0071662716
187	0x3beaa6d9	0.007161003
188	0xbb84efa7	-0.004056889
189	0xbc59595d	-0.013265935
190	0x3b629137	0.0034571418
191	0x3c4e5352	0.012593107
192	0xbc2e4875	-0.010637392
193	0xbc634424	-0.013871226
194	0x3c89178d	0.016734863
195	0x3c455371	0.01204382
196	0xbb929de2	-0.0044743875
197	0x3c2522c6	0.010079091
198	0x3b855fc2	0.004070253
199	0x3cae2ffe	0.021263119
200	0xbce170a7	-0.027519537
201	0x3a5ca1ca	0.00084164424
202	0x3c0f538e	0.008747948
203	0x3bd90ce5	0.0066238516
204	0xbbf0812a	-0.0073396163
205	0x3c2e980d	0.010656369
206	0x3c8f439d	0.017488295
207	0xbc51d5d1	-0.012807325
208	0xbbe34a50	-0.006936349
209	0x3b243866	0.002505803
210	0x3c4db9cd	0.012556505
211	0xbc11fa79	-0.008909815
212	0xba45a8bc	-0.0007540097
213	0xbbc89b94	-0.006122062
214	0xbc431aa4	-0.011908207
215	0xbcb6a0f0	-0.022293538
216	0x3c27ccf0	0.010241732
217	0x3c1bb24a	0.009502957
218	0xbc5599db	-0.01303717
219	0xbb184836	-0.00232364
220	0x3b228c2d	0.002480279
221	0x3cdcca2e	0.026951876
222	0x3c1af1d2	0.0094570685
223	0x3c464bcd	0.012103033

batch_norm1.running_var f4 [224]
0	0x3f004285	0.501015
1	0x3edb9f4c	0.4289497
2	0x3eab692b	0.33478674
3	0x3ede7019	0.434449
4	0x3ed30435	0.41214147
5	0x3f297380	0.66191864
6	0x3ec72e28	0.38902402
7	0x3eebc9c0	0.4605236
8	0x3edcb94b	0.43110117
9	0x3eb98bc8	0.36239457
10	0x3ea82ba8	0.32845807
11	0x3ed40db8	0.41416717
12	0x3ed1af56	0.40954083
13	0x3e9f443e	0.31106752
14	0x3ece6b7c	0.4031638
15	0x3f062f6d	0.52416116
16	0x3f1e5211	0.61843973
17	0x3eb129d8	0.34602237
18	0x3ea394b9	0.31949404
19	0x3ee31925	0.4435512
20	0x3f067f76	0.5253824
21	0x3ec8798e	0.3915524
22	0x3e908484	0.282261
23	0x3eaedd01	0.34152988
24	0x3f07925c	0.529577
25	0x3eb1e6ab	0.34746298
26	0x3f0ecff1	0.55786043
27	0x3ed42685	0.41435638
28	0x3f033f48	0.51268435
29	0x3f0537ce	0.52038276
30	0x3e9d7596	0.30753773
31	0x3ed5240b	0.4162906
32	0x3ec380c9	0.38184193
33	0x3ecfacaa	0.4056142
34	0x3f247e17	0.642549
35	0x3f0f7d34	0.5605042
36	0x3f01e918	0.507463
37	0x3ea03faa	0.31298572
38	0x3ed7d238	0.42152572
39	0x3ec4d06f	0.38440272
40	0x3ec807d3	0.3906847
41	0x3f11f05d	0.5700739
42	0x3edba242	0.4289723
43	0x3eaa28e2	0.33234316
44	0x3f0208a8	0.5079446
45	0x3ef25791	0.47332433
46	0x3ee9c20e	0.45655864
47	0x3ece4d7e	0.40293497
48	0x3eaa3c3f	0.3324909
49	0x3ed1c5bb	0.4097117
50	0x3ebf397d	0.37348548
51	0x3eb5402a	0.35400516
52	0x3efdfafb	0.49605545
53	0x3f146bdb	0.57977074
54	0x3eb6bfd4	0.35693228
55	0x3f0deb3d	0.5543707
56	0x3f035b8f	0.5131158
57	0x3eca85ae	0.39555115
58	0x3edd5b52	0.43233734
59	0x3ed67f4c	0.41893995
60	0x3edfa206	0.43678302
61	0x3ed2ffe5	0.41210857
62	0x3ec2cf1d	0.3804864
63	0x3f09da06	0.538483
64	0x3f07965f	0.52963823
65	0x3f2176b1	0.63071734
66	0x3eda99d7	0.42695495
67	0x3f1b3ba9	0.6063791
68	0x3ecffa63	0.40620717
69	0x3f1a51f1	0.6028128
70	0x3eeef8f7	0.4667432
71	0x3f107993	0.5643551
72	0x3e84bb0f	0.25923964
73	0x3f4b0848	0.7930951
74	0x3ea763d9	0.32693365
75	0x3e9ad56c	0.30240953
76	0x3ef8eab1	0.48616555
77	0x3f246325	0.6421378
78	0x3ec691f8	0.3878324
79	0x3e873742	0.26409346
80	0x3ee4abb4	0.4466225
81	0x3eb52e6a	0.35386974
82	0x3ef9711e	0.48719114
83	0x3e56f0a5	0.20990236
84	0x3ece9ffa	0.40356427
85	0x3eb63c13	0.35592708
86	0x3f338fcf	0.7014131
87	0x3ecd1352	0.40053803
88	0x3ee6efd6	0.45104855
89	0x3ea3a345	0.31960502
90	0x3f17a09b	0.5922944
91	0x3ebedb91	0.3727689
92	0x3f4b2429	0.7935205
93	0x3eb6e6f5	0.3572308
94	0x3edee517	0.43534157
95	0x3f3fc31d	0.74907094
96	0x3e8f2e30	0.27964926
97	0x3e8c3ead	0.27391568
98	0x3eabb4dd	0.33536425
99	0x3ed96b1e	0.42464536
100	0x3f0d108c	0.55103374
101	0x3f1b1f49	0.6059461
102	0x3f500609	0.8125921
103	0x3ea3fff8	0.32031226
104	0x3eb8893b	0.360422
105	0x3efc8b8f	0.49325225
106	0x3ed78594	0.420941
107	0x3eec1613	0.4611059
108	0x3ebfbf62	0.374507
109	0x3ea3fea4	0.32030213
110	0x3ef6c52f	0.48197314
111	0x3ee97015	0.45593324
112	0x3ef7f744	0.48430836
113	0x3f3ad1db	0.72976464
114	0x3ef7823d	0.4834155
115	0x3ef267a6	0.47344702
116	0x3ee49c04	0.4465028
117	0x3ed089e9	0.40730217
118	0x3f0c9542	0.5491525
119	0x3f04d9b4	0.5189469
120	0x3ecaa2cc	0.3957733
121	0x3e8e13e3	0.27749547
122	0x3e5ef685	0.21773727
123	0x3ec649b4	0.38728106
124	0x3ed7d28e	0.42152828
125	0x3eb2b900	0.3490677
126	0x3f02ff42	0.5117074
127	0x3eafad06	0.34311694
128	0x3f094aca	0.53629744
129	0x3f3f1bd5	0.74651843
130	0x3e98a3b2	0.2981239
131	0x3eb773b6	0.35830468
132	0x3f2c3065	0.67261344
133	0x3edef1fd	0.43543997
134	0x3f044175	0.5166238
135	0x3eaf6c27	0.342622
136	0x3f008efd	0.5021818
137	0x3e885eee	0.26634926
138	0x3f346dbf	0.7047996
139	0x3f006245	0.5014995
140	0x3ebffe0f	0.3749852
141	0x3ea1f16d	0.31629506
142	0x3efb72a2	0.49110895
143	0x3ea00f68	0.31261754
144	0x3ecedc66	0.40402526
145	0x3eab31b0	0.33436346
146	0x3f118a9a	0.56852114
147	0x3ecd14dc	0.40054977
148	0x3ea3163c	0.318529
149	0x3ea68ebe	0.3253078
150	0x3ee26ff0	0.44226027
151	0x3eba8789	0.3643153
152	0x3e92368c	0.2855724
153	0x3ec1e2d5	0.37868372
154	0x3ec36b68	0.38167882
155	0x3e940308	0.28908563
156	0x3ebe0eb8	0.37120605
157	0x3ed8ce71	0.42345002
158	0x3f4400e0	0.76563835
159	0x3ec642c3	0.3872281
160	0x3ec2215e	0.37916082
161	0x3f276596	0.6538938
162	0x3eaae150	0.33375025
163	0x3ed973a9	0.42471054
164	0x3ef4c353	0.4780527
165	0x3ef0184e	0.46893543
166	0x3ec6e112	0.3884359
167	0x3f07faf4	0.531173
168	0x3f021b9d	0.50823385
169	0x3eb549c1	0.35407832
170	0x3ef76ed3	0.4832674
171	0x3ece3e9a	0.40282136
172	0x3ece0b99	0.40243223
173	0x3eceeefb	0.40416703
174	0x3ee0f280	0.43935013
175	0x3ea68460	0.3252287
176	0x3edc4728	0.43023038
177	0x3ed14c3a	0.4087847
178	0x3f260d17	0.64863724
179	0x3e744d1a	0.23857537
180	0x3ed66920	0.4187708
181	0x3ec4e109	0.38452938
182	0x3ea8f440	0.32998848
183	0x3ec29653	0.38005313
184	0x3ee3aac7	0.4446623
185	0x3ec87c4d	0.39157334
186	0x3f04a893	0.51819724
187	0x3f0438e6	0.5164932
188	0x3efabc6d	0.48971882
189	0x3ea698c9	0.3253844
190	0x3ebf7b7e	0.37398905
191	0x3e9bdb6f	0.30440852
192	0x3eca144b	0.39468607
193	0x3e82fee3	0.25585088
194	0x3ec5f22b	0.38661322
195	0x3effefba	0.49987584
196	0x3e934786	0.28765506
197	0x3ece21c7	0.40260145
198	0x3eb5a549	0.35477665
199	0x3ed57d50	0.41697168
200	0x3edfa8be	0.43683428
201	0x3ed7254b	0.4202064
202	0x3f1eed9c	0.62081313
203	0x3f24e9a7	0.64419025
204	0x3e9e91f2	0.30970722
205	0x3ee8aaf0	0.45442915
206	0x3eac591c	0.33661735
207	0x3f0e761a	0.5564896
208	0x3f1359e9	0.57559067
209	0x3eb40d3f	0.35166356
210	0x3f020d0d	0.50801164
211	0x3eb90712	0.36138207
212	0x3ee09e76	0.43870896
213	0x3ed74b37	0.42049572
214	0x3ed64ff6	0.4185788
215	0x3f127a9b	0.5721833
216	0x3ecb10a6	0.3966114
217	0x3ebf83a5	0.37405124
218	0x3ef04718	0.4692924
219	0x3ee939b7	0.45551845
220	0x3eca1b00	0.39473724
221	0x3f09c040	0.53808975
222	0x3f00930e	0.5022439
223	0x3ec27cc9	0.3798583
