input/pytorchresnetstartertrainingoptuned/online_model0.pth (torch, 926515 bytes, 30 tensors)

batch_norm0.weight f4 [132]
0.7929732 0.8869529 0.90938723 0.98577857 0.9454356 1.0529666 1.0160028 0.96840525
1.0178709 0.7742621 0.89961183 0.90464455 0.9755055 0.8371438 0.81804436 0.8435072
0.85700417 0.8278057 0.83919716 0.8192091 0.9128116 0.82447976 0.84571743 0.775189
0.7804797 0.77843773 0.8383751 0.94324064 0.93823856 0.78117263 0.8102543 0.8242699
0.79363436 0.8385673 0.8103075 0.79127014 0.79169106 0.8701798 0.8259803 1.011622
0.9072378 0.9231704 0.81073606 0.9298414 1.0585765 0.95498306 0.8422048 0.87926185
0.8639986 0.8973676 0.8099098 0.9386885 0.8560781 0.819082 0.87013704 0.98290235
0.87021536 0.9640676 0.9250199 0.918889 0.8326184 0.8755349 0.8138507 0.8265998
1.0371906 0.96686536 0.90062624 0.91026884 0.93326104 0.9086303 0.9486551 0.9580724
0.80268145 0.72221833 0.778582 0.7535579 0.77718115 0.9199297 0.9314632 0.77453107
0.80502653 0.7368604 0.74181443 0.9542851 0.9559684 0.80679303 0.85899353 0.82671463
0.726355 0.8639791 0.8728774 0.82322246 0.8473535 0.77757245 0.75132954 0.86298424
0.9335483 0.76465887 0.88068247 0.77286977 0.782766 0.87129647 0.81276464 0.7663525
0.7993047 0.73549676 0.74043834 0.84532005 0.90370494 0.80909675 0.9008063 0.8389137
0.7950539 0.8815579 0.87678903 0.8116385 0.76500916 0.77838814 0.7546282 0.7993814
0.7617191 0.83124495 0.80695003 0.84692305 0.74737084 0.86515814 0.8039399 0.832731
0.77606636 0.79102576 0.7301538 0.8216296
00000000: 4b00 4b3f 580f 633f 9acd 683f fc5b 7c3f
00000010: 1108 723f 9cc7 863f 610c 823f 68e9 773f
00000020: 9849 823f 0a36 463f f64c 663f c996 673f
00000030: baba 793f 0e4f 563f 5b6b 513f 16f0 573f
00000040: a064 5b3f 13eb 533f a0d5 563f b0b7 513f
00000050: 05ae 693f 1b11 533f f080 583f c972 463f
00000060: 85cd 473f b247 473f c09f 563f 3878 713f
00000070: 6730 703f eefa 473f d36c 4f3f 5a03 533f
00000080: 9f2b 4b3f 59ac 563f 5070 4f3f ae90 4a3f
00000090: 44ac 4a3f 1ac4 5e3f 7273 533f d47c 813f
000000a0: bd40 683f e554 6c3f 668c 4f3f 160a 6e3f
000000b0: 6f7f 873f c579 743f bc9a 573f 4e17 613f
000000c0: 032f 5d3f e2b9 653f 4056 4f3f e44d 703f
000000d0: ef27 5b3f 5caf 513f 4dc1 5e3f 7d9f 7b3f
000000e0: 6fc6 5e3f 22cd 763f 1bce 6c3f 4f3c 6b3f
000000f0: 7b26 553f 0e23 603f 8558 503f 0b9c 533f
00000100: a9c2 843f 7d84 773f 718f 663f 6107 693f
00000110: 32ea 6e3f ff9b 683f 10db 723f 3c44 753f
00000120: 887c 4d3f 4de3 383f 2651 473f 2ce9 403f
00000130: 58f5 463f 8380 6b3f 5f74 6e3f ab47 463f
00000140: 3816 4e3f e2a2 3c3f 8de7 3d3f 074c 743f
00000150: 58ba 743f fd89 4e3f 00e7 5b3f 92a3 533f
00000160: 67f2 393f bc2d 5d3f e574 5f3f b5be 523f
00000170: 29ec 583f fd0e 473f 2257 403f 89ec 5c3f
00000180: 05fd 6e3f afc0 433f 6874 613f cbda 453f
00000190: 5a63 483f 490d 5f3f 5811 503f ad2f 443f
000001a0: 3c9f 4c3f 8449 3c3f 5e8d 3d3f e566 583f
000001b0: 3559 673f f720 4f3f 3e9b 663f 0cc3 563f
000001c0: a788 4b3f c7ad 613f 3f75 603f 8ac7 4f3f
000001d0: a4d7 433f 7244 473f 502f 413f 42a4 4c3f
000001e0: 0600 433f 78cc 543f 4794 4e3f f3cf 583f
000001f0: b253 3f3f 017b 5d3f 01cf 4d3f dc2d 553f
00000200: 49ac 463f aa80 4a3f 5ceb 3a3f 5156 523f

batch_norm0.bias f4 [132]
-0.013930131 -0.060064476 -0.062011763 0.005375433 -0.041287627 -0.010923181 0.010969677 -0.068000235
-0.035738397 0.00038751698 -0.051981874 -0.050202306 -0.03328923 0.0076084738 -0.03140403 -0.027104976
-0.04634798 0.05100265 -0.02087213 -0.0073571876 -0.022646636 0.0138169695 -0.009181237 0.013072543
0.0040903282 -0.026184391 0.019763673 0.07406542 0.09367911 0.017239425 0.0011251781 -0.024705501
0.042449556 0.047532152 -0.009327432 0.0065334253 0.019970752 -0.0011511212 0.027098093 0.05640801
0.0020340304 0.04443146 -0.046016872 0.024603112 0.0502419 0.036641974 -0.020143008 -0.07868571
-0.056293454 -0.066802904 -0.07584961 -0.017387459 0.0344053 0.0010556446 0.05871566 0.074777916
-0.002164717 0.059732154 0.029851442 0.0037003646 -0.02330393 -0.01413432 -0.053371143 -0.05169657
-0.28421807 -0.07472415 -0.10328067 -0.070496865 -0.043234583 -0.050250974 -0.035592638 -0.055458672
0.023315344 0.021190293 0.04198918 0.0089375945 0.053170968 -0.011697888 0.03039354 0.04548196
0.0112717105 0.027777592 0.0060616024 0.005873783 0.06025897 -0.044727124 0.01708221 0.022666223
0.010193315 0.0050865086 0.017584277 -0.04422862 -0.0236988 -0.012961007 -0.0077723027 0.015164141
-0.016001865 -0.0041467543 -0.0068417136 -0.005351768 0.0455561 -0.0076409914 -0.0026048475 -0.030745098
-0.015060222 -0.0066324016 0.022060862 -0.010485169 0.010110678 -0.00032704975 0.023838706 0.0018853243
0.0059728883 0.00072091847 -0.024846135 -0.04405698 -0.0061747753 0.0057435855 0.010663897 -0.009495021
-0.011314612 0.042190224 -0.0006216614 -0.028955182 -0.0094511425 0.03603707 -0.00060946064 0.020556252
-0.01668677 0.0062822113 -0.009523963 -0.015169171
00000000: 343b 64bc 2b06 76bd 0c00 7ebd 6624 b03b
00000010: 371d 29bd 24f7 32bc 29ba 333c b543 8bbd
00000020: 6d62 12bd a62b cb39 f2ea 54bd efa0 4dbd
00000030: 4a5a 08bd 8150 f93b 83a1 00bd 410b debc
00000040: 61d7 3dbd 28e8 503d 07fc aabc 9014 f1bb
00000050: 7085 b9bc 9260 623c e66c 16bc 382e 563c
00000060: 2908 863b a680 d6bc 6de7 a13c 9caf 973d
00000070: d5da bf3d b239 8d3c b67a 933a 3163 cabc
00000080: 96df 2d3d 13b1 423d 16d2 18bc 5816 d63b
00000090: b499 a33c 38e1 96ba d2fc dd3c 160c 673d
000000a0: 5e4d 053b c3fd 353d 307c 3cbd 778c c93c
000000b0: 73ca 4d3d e515 163d f302 a5bc f925 a1bd
000000c0: f793 66bd f6cf 88bd 0a57 9bbd 2570 8ebc
000000d0: 92ec 0c3d 8e5d 8a3a d57f 703d 2a25 993d
000000e0: eddd 0dbb b4a9 743d 038b f43c d181 723b
000000f0: e2e7 bebc a393 67bc b39b 5abd c8bf 53bd
00000100: 0885 91be fa08 99bd d184 d3bd a960 90bd
00000110: bf16 31bd f7d3 4dbd 96c9 11bd a228 63bd
00000120: d2ff be3c 4497 ad3c d9fc 2b3d fd6e 123c
00000130: cdc9 593d 80a8 3fbc e0fb f83c 4b4b 3a3d
00000140: fbac 383c d58d e33c 68a0 c63b dd78 c03b
00000150: 1cd2 763d ca33 37bd feef 8b3c 84ae b93c
00000160: dd01 273c baac a63b e70c 903c 1229 35bd
00000170: fc23 c2bc 675a 54bc cdae febb 0473 783c
00000180: 5816 83bc 7fe1 87bb 7430 e0bb e25d afbb
00000190: 0899 3a3d 4861 fabb 17b6 2abb 25dd fbbc
000001a0: 26bf 76bc 9e54 d9bb fbb8 b43c fcc9 2bbc
000001b0: 42a7 253c e077 abb9 6449 c33c fc1c f73a
000001c0: 38b8 c33b 05fc 3c3a 1f8a cbbc 1875 34bd
000001d0: c555 cabb b034 bc3b a0b7 2e3c 0191 1bbc
000001e0: ec60 39bc a8cf 2c3d fef6 22ba 6b33 edbc
000001f0: f7d8 1abc 9b9b 133d 36c4 1fba 9665 a83c
00000200: b1b2 88bc 02db cd3b 650a 1cbc 1d88 78bc

batch_norm0.running_mean f4 [132]
-0.003310542 0.4652436 0.5065158 -0.01195809 -0.013615248 -0.0342137 -0.048280004 0.0446636
0.028001318 0.28779206 0.24138364 0.06659098 0.043771394 0.1331998 0.114500284 0.23120025
0.23107317 0.11765634 0.11020283 0.24940942 0.22111572 0.1518841 0.1416175 0.22116788
0.20217586 0.25340214 0.23092255 0.1321161 0.16922142 0.32756814 0.3517508 0.21958399
0.27324316 0.30504495 0.35169825 0.35438812 0.3873147 0.0003231087 -0.012578083 0.040237863
0.060484108 0.29257897 0.43528423 0.2324003 0.25322708 0.15737033 0.35474938 0.39930472
0.49026263 0.5210053 0.31658438 0.37452513 -0.033039276 0.39092258 0.3065304 0.29064855
0.44391292 0.30837113 0.29736924 0.35813552 0.5745197 0.5749352 0.48895147 0.48692966
0.39325032 0.54642266 0.56027895 0.59633607 0.59819156 0.44907776 0.3096946 0.45432994
0.016479313 -0.021481259 0.01601873 -0.006657759 -0.024461184 -0.044904042 0.0077994503 -0.024485406
0.0311779 0.00044770335 -0.01931012 -0.026793636 0.418262 0.5819689 0.43776664 0.49977103
0.54262 0.4120524 0.1718445 0.38722885 0.24307397 0.2673337 0.3053002 0.14815551
0.41341624 0.55431855 0.41833472 0.45691168 0.50779825 0.41688725 0.1181262 0.35488686
0.23202166 0.2532957 0.26022878 0.14171492 0.40460664 0.5220166 0.4362821 0.45907828
0.50811124 0.41053084 0.15119307 0.21067563 0.17863 0.1883111 0.19436544 0.19529381
0.3658609 0.19550355 0.3525462 0.18779832 0.35958287 0.18873169 0.38042516 0.18951736
0.36810482 0.18230735 0.6624613 0.4059822
00000000: aef5 58bb 6934 ee3e 05ab 013f ddeb 43bc
00000010: 7d12 5fbc aa23 0cbd 41c1 45bd 2ef1 363d
00000020: 0563 e53c 7b59 933e 462d 773e da60 883d
00000030: a249 333d 8765 083e 207f ea3d c2bf 6c3e
00000040: 729e 6c3e cff5 f03d 05b2 e13d 2f65 7f3e
00000050: 296c 623e 8187 1b3e 2e04 113e d579 623e
00000060: 3007 4f3e edbd 813e f676 6c3e 7149 073e
00000070: 6148 2d3e 03b7 a73e ae18 b43e a0da 603e
00000080: 87e6 8b3e da2e 9c3e cb11 b43e 5c72 b53e
00000090: 1d4e c63e ea66 a939 4e14 4ebc 75d0 243d
000000a0: 2fbe 773d e9cc 953e 93dd de3e 58fa 6d3e
000000b0: fba6 813e b025 213e b6a1 b53e ab71 cc3e
000000c0: b403 fb3e 9a60 053f 5917 a23e c2c1 bf3e
000000d0: 3154 07bd 0127 c83e 8df1 9c3e e3cf 943e
000000e0: 8e48 e33e d2e2 9d3e c840 983e 8a5d b73e
000000f0: b913 133f f42e 133f d957 fa3e d84e f93e
00000100: 1b58 c93e 5be2 0b3f 716e 0f3f 7ba9 183f
00000110: 1523 193f 85ed e53e 4a90 9e3e ef9d e83e
00000120: a0ff 863c 77f9 afbc b639 833c 5529 dabb
00000130: d262 c8bc 4ded 37bd 8892 ff3b 9e95 c8bc
00000140: cc68 ff3c bab9 ea39 4230 9ebc 547e dbbc
00000150: 7026 d63e eafb 143f f322 e03e fde1 ff3e
00000160: 25e9 0a3f 88f8 d23e 01f8 2f3e dc42 c63e
00000170: 62e8 783e f6df 883e 4f50 9c3e 14b6 173e
00000180: 4bab d33e d2e7 0d3f f82f d63e 54f0 e93e
00000190: 11ff 013f 3f72 d53e 26ec f13d bbb3 b53e
000001a0: 1697 6d3e f9af 813e b53c 853e b71d 113e
000001b0: 9a28 cf3e e1a2 053f 5e60 df3e 4f0c eb3e
000001c0: 9413 023f 1931 d23e 5bd2 1a3e 5abb 573e
000001d0: c8ea 363e a0d4 403e bc07 473e 1afb 473e
000001e0: 1f52 bb3e 1532 483e ef80 b43e 344e 403e
000001f0: 3f1b b83e e142 413e 16c7 c23e d710 423e
00000200: 3c78 bc3e c7ae 3a3e 1097 293f e6dc cf3e

batch_norm0.running_var f4 [132]
1.000272 6.5603414 6.5034523 3.5300255 3.0309849 2.6478422 2.5929031 2.6206899
3.9489634 5.210481 2.7000852 2.7402508 5.831502 4.806917 4.0162086 3.1782339
4.7420774 2.4241762 4.9937277 2.7163875 3.709053 5.6114907 3.6057847 4.318453
6.974672 4.114814 5.2896852 1.847578 3.5209098 2.7906413 4.3485627 2.8545325
6.356024 3.6336656 4.446929 5.5221615 5.356975 3.7760625 4.4296794 2.3161557
5.08832 3.678591 5.9148808 5.4111834 8.201954 2.1539426 2.1074433 4.251832
3.566068 2.4689476 2.6833346 3.6141832 3.1981845 4.4573803 3.0785065 8.711596
20.387938 15.369457 17.042805 22.997889 5.056981 4.1022844 4.6788244 5.0558877
5.4870906 4.617063 2.9610887 6.715653 6.395414 5.218922 6.1273556 3.473265
3.8071668 5.195725 3.4713304 4.186257 5.4224806 7.7499957 4.0138745 2.39035
2.5953805 4.160515 2.855377 5.0237174 4.5939226 6.0744224 4.230322 7.309108
6.4682536 7.549668 3.8369234 5.6096396 3.837168 4.1860027 3.315592 5.218426
5.0553226 7.8481174 5.9354897 4.8530855 5.8949676 7.5838523 4.765486 3.5675468
2.7971847 3.641255 5.793833 5.182902 6.74942 6.7808657 4.2985826 3.9548483
6.693908 9.073681 3.8842995 3.877139 4.7846537 5.561891 4.262466 3.4440482
3.3668723 4.329994 4.2806654 3.75572 2.8719337 5.0601315 6.3407087 3.3790193
5.287062 3.1732492 14.282197 23315.912
00000000: ea08 803f 51ee d140 481c d040 f0eb 6140
00000010: a8fb 4140 3f76 2940 20f2 2540 62b9 2740
00000020: d1bb 7c40 43bc a640 32ce 2c40 4560 2f40
00000030: aa9b ba40 44d2 9940 c884 8040 2f68 4b40
00000040: 19bf 9740 b425 1b40 9ecc 9f40 4bd9 2d40
00000050: 2061 6d40 5591 b340 2dc5 6640 c430 8a40
00000060: 8330 df40 8eac 8340 1a45 a940 707d ec3f
00000070: 9656 6140 de99 3240 6d27 8b40 a9b0 3640
00000080: 8c64 cb40 fa8d 6840 3e4d 8e40 8cb5 b040
00000090: 576c ab40 02ab 7140 efbf 8d40 e53b 1440
000000a0: 84d3 a240 096e 6b40 b446 bd40 6a28 ad40
000000b0: 343b 0341 32da 0940 5ae0 0640 020f 8840
000000c0: 753a 6440 3d03 1e40 c1bb 2b40 c74e 6740
000000d0: 0eaf 4c40 dca2 8e40 4006 4540 b262 0b41
000000e0: 7f1a a341 4ce9 7541 aa57 8841 adfb b741
000000f0: cad2 a140 ea45 8340 eeb8 9540 d5c9 a140
00000100: 3f96 af40 fbbe 9340 7a82 3d40 a1e6 d640
00000110: 3ba7 cc40 6901 a740 4c13 c440 f949 5e40
00000120: 9fa8 7340 6143 a640 472a 5e40 d1f5 8540
00000130: f684 ad40 f7ff f740 a971 8040 7ffb 1840
00000140: b71a 2640 f022 8540 7fbe 3640 4bc2 a040
00000150: 6a01 9340 ab61 c240 cc5e 8740 36e4 e940
00000160: effb ce40 e196 f140 2790 7540 2b82 b340
00000170: 2994 7540 bcf3 8540 a932 5440 59fd a640
00000180: 34c5 a140 c723 fb40 88ef bd40 7a4c 9b40
00000190: 93a3 bc40 ebae f240 dc7e 9840 b052 6440
000001a0: 1305 3340 520a 6940 1467 b940 55da a540
000001b0: 40fb d740 dafc d840 fd8d 8940 3c1c 7d40
000001c0: 7f34 d640 cc2d 1141 5d98 7840 0c23 7840
000001d0: e21b 9940 03fb b140 1f66 8840 496b 5c40
000001e0: d67a 5740 508f 8a40 36fb 8840 b75d 7040
000001f0: c3cd 3740 99ec a140 16e7 ca40 da41 5840
00000200: 9d2f a940 8416 4b40 e183 6441 d327 b646

dense1.weight f4 [224, 132]
0.030366644 0.04639467 -0.027411455 0.08489196 -0.001570172 0.034102526 -0.049229484 0.04581145
0.09755485 -0.042243317 0.06445726 0.0016103372 0.066193126 0.024480693 0.05458319 -0.027917359
0.051562626 0.00019384228 -0.025900746 0.04395768 -0.02489526 -0.011467834 -0.01401259 0.0447285
-0.06340026 -0.0315229 -0.008267648 -0.021705288 0.021662382 -0.09147149 0.059463315 -0.051319145
0.060993977 -0.004413023 -0.034216776 0.022332534 0.0019404286 0.060505033 -0.006043529 0.024941921
0.06251341 -0.07018393 0.014853385 0.03818694 -0.016764881 -0.07199885 0.02950684 0.011084752
0.04214884 -0.030641193 -0.0889119 -0.090939194 -0.053841442 0.025698544 0.023657585 0.039889876
0.038053203 -0.004189596 0.0467557 -0.011206255 0.035925925 -0.029935373 0.032259606 -0.019588444
0.04386968 0.021797178 0.09457524 -0.014645868 -0.0139892055 -0.0641995 0.047368087 0.027861247
0.03349115 -0.061070487 -0.0864632 -0.06061888 -0.05090063 0.041985348 0.008313814 0.04906247
-0.03582983 -0.03614943 0.020240437 0.0061475257 0.026274567 -0.011139298 0.025526015 -0.06787739
-0.03657934 0.024393141 -0.0086450465 -0.038045492 0.0033667646 0.021571254 -0.041125514 -0.02952644
0.041170165 -0.023103837 -0.041161735 -0.062291052 -0.016899724 4.5345907e-05 -0.036836453 -0.05187365
-0.013080399 -0.058222573 -0.068759285 -0.06364847 -0.08376241 -0.033364523 0.054609336 -0.010458031
0.0018650258 -0.0710168 -0.057874326 -0.051817868 -0.012452759 -0.089950845 -0.03186 -0.04292857
-0.014298605 -0.017385097 -0.007709091 -0.060602903 -0.0608655 -0.020469954 -0.038125552 -0.042453945
0.017996522 0.0038956567 0.06466596 -0.0027348783 -0.05607623 0.020060606 -0.034652248 -0.042241156
-0.068610445 -0.05408746 0.025494937 -0.036181755 -0.0025800474 -0.057931263 0.064180724 -0.10172302
-0.06839934 -0.029049186 0.007131846 0.060558137 0.08301977 -0.08290116 -0.006323021 -0.03327194
0.010099302 -0.06827062 0.061851867 -0.04547814 0.059027817 0.012172729 0.035989217 -0.06129809
0.0055125323 0.01727702 0.0071869786 -0.07548419 -0.0057372274 -0.030377494 -0.06258656 0.061157886
0.007150578 -0.06552393 -0.018514017 -0.0141086755 0.02441611 -0.012370481 -0.03743814 -0.051678427
-0.065403655 -0.027338376 0.015893623 -0.064137116 0.016213046 0.06441634 0.020993654 0.0014277217
0.04999397 -0.0030642073 2.9819521e-05 -0.008828857 0.04188617 0.027204854 0.027111722 0.0020796391
0.06355753 0.07835827 0.0042357896 -0.0092587555 0.012287442 -0.011082955 0.015097693 0.014531064
-0.06796338 -0.035143025 0.06264169 0.039641466 -0.06700946 -0.03340626 -0.082457125 -0.0604891
-0.00985857 -0.0063819 0.013506986 0.03770247 -0.080061235 -0.0718734 -0.03103959 0.057779245
0.029036177 0.0010037603 0.029360827 -0.0070917513 -0.04939632 0.019716114 -0.052802406 -0.011734753
-0.045481827 0.021550082 0.039781485 -0.03433272 0.022597222 -0.062393647 -0.0071386104 0.06973015
0.013281979 0.036783647 0.053182553 -0.001693357 0.027581409 -0.043102033 -0.072860405 -0.102195784
0.054156307 -0.031628203 0.010470922 -0.021601325 -0.02594631 -0.06454962 -0.039746564 -0.00087462727
-0.0054121157 0.026191406 -0.05139848 -0.10309852 -0.0049865413 0.0015911722 -0.059442434 -0.09601563
00000000: 78c3 f83c 5608 3e3d fd8d e0bc d6db ad3d
00000010: 3bce cdba 17af 0b3d dba4 49bd c9a4 3b3d
00000020: d6ca c73d 5407 2dbd 2b02 843d f311 d33a
00000030: 4390 873d bc8b c83c 9f92 5f3d f2b2 e4bc
00000040: 5533 533d 2442 4b39 cd2d d4bc f80c 343d
00000050: 25f1 cbbc 95e3 3bbc 1095 65bc 3b35 373d
00000060: ffd7 81bd 281e 01bd 0775 07bc 4acf b1bc
00000070: 4f75 b13c 6855 bbbd ce8f 733d 0634 52bd
00000080: d2d4 793d 1f9b 90bb e426 0cbd b8f2 b63c
00000090: fb55 fe3a 20d4 773d cc08 c6bb 0053 cc3c
000000a0: 0807 803d 98bc 8fbd 9d5b 733c e969 1c3d
000000b0: 8156 89bc 2274 93bd 54b8 f13c d29c 353c
000000c0: 43a4 2c3d 3d03 fbbc 7117 b6bd 543e babd
000000d0: d888 5cbd c185 d23c 8dcd c13c 9163 233d
000000e0: addd 1b3d e148 89bb e882 3f3d 719a 37bc
000000f0: 1027 133d 073b f5bc a622 043d f277 a0bc
00000100: b2b0 333d ff8f b23c aab0 c13d 39f5 6fbc
00000110: fb32 65bc 077b 83bd 0a05 423d 453d e43c
00000120: 042e 093d 0c25 7abd 9e13 b1bd 814b 78bd
00000130: 2e7d 50bd d4f8 2b3d aa36 083c bbf5 483d
00000140: 4dc2 12bd 6d11 14bd 46cf a53c 2f71 c93b
00000150: c33d d73c 9a81 36bc ef1b d13c 4d03 8bbd
00000160: 38d4 15bd 20d4 c73c f4a3 0dbc 97d5 1bbd
00000170: f0a4 5c3b 33b6 b03c 3a73 28bd 6fe1 f1bc
00000180: 0ca2 283d 4244 bdbc 3599 28bd e724 7fbd
00000190: 4a71 8abc cc31 3e38 d2e1 16bd 7779 54bd
000001a0: 2b4f 56bc cb7a 6ebd abd1 8cbd 215a 82bd
000001b0: a08b abbd 3da9 08bd 0aae 5f3d 2958 2bbc
000001c0: e273 f43a 4271 91bd a10d 6dbd f93e 54bd
000001d0: a806 4cbc 2638 b8bd a27f 02bd ded5 2fbd
000001e0: b244 6abc 316b 8ebc 8b9c fcbb c03a 78bd
000001f0: 1a4e 79bd 9bb0 a7bc 8a29 1cbd 30e4 2dbd
00000200: 716d 933c 464e 7f3b 966f 843d a53b 33bb
00000210: 30b0 65bd 2456 a43c 84ef 0dbd 1005 2dbd
00000220: a283 8cbd d08a 5dbd c2da d03c 5233 14bd
00000230: 0316 29bb 5549 6dbd 2f71 833d 2954 d0bd
00000240: f414 8cbd 8ff8 edbc 43b2 e93b cf0b 783d
00000250: 4506 aa3d 15c8 a9bd 5831 cfbb 2848 08bd
00000260: 8b77 253c 78d1 8bbd 6258 7d3d 4947 3abd
00000270: 27c7 713d 2070 473c 6e69 133d b513 7bbd
00000280: 79a2 b43b 8988 8d3c bf80 eb3b 7497 9abd
00000290: 5aff bbbb 39da f8bc 622d 80bd b180 7a3d
000002a0: 654f ea3b 6931 86bd b5aa 97bc 1328 67bc
000002b0: 4b04 c83c 8fad 4abc bc58 19bd c2ac 53bd
000002c0: 5af2 85bd bbf4 dfbc 5833 823c 525a 83bd
000002d0: 39d1 843c b7ec 833d e2fa ab3c 6422 bb3a
000002e0: 7ac6 4c3d ded0 48bb ef24 fa37 e9a6 10bc
000002f0: d590 2b3d b7dc de3c 6719 de3c 8e4a 083b
00000300: 732a 823d 4d7a a03d 61cc 8a3b 09b2 17bc
00000310: 4451 493c 4895 35bc 505c 773c b313 6e3c
00000320: 6230 8bbd 22f2 0fbd 494a 803d 175f 223d
00000330: 413c 89bd 01d5 08bd 48df a8bd 6bc3 77bd
00000340: d785 21bc 421f d1bb 684c 5d3c e86d 1a3d
00000350: 25f7 a3bd 5c32 93bd bd46 febc eea9 6c3d
00000360: 47dd ed3c 9b90 833a 1e86 f03c ec61 e8bb
00000370: cc53 4abd b083 a13c 5647 58bd 1f43 40bc
00000380: 274b 3abd cc89 b03c e9f1 223d 77a0 0cbd
00000390: cf1d b93c 7b90 7fbd 01eb e9bb aece 8e3d
000003a0: a89c 593c 73aa 163d f3d5 593d a2f3 ddba
000003b0: 68f2 e13c c28b 30bd d637 95bd 064c d1bd
000003c0: 01d3 5d3d 938c 01bd 3b8e 2b3c 43f5 b0bc
000003d0: 5b8d d4bc 9732 84bd 4bcd 22bd 3e47 65ba
000003e0: 1e58 b1bb 5c8f d63c 3687 52bd 5125 d3bd
000003f0: 2466 a3bb e18e d03a e979 73bd d8a3 c4bd

dense1.bias f4 [224]
1.7412729e-08 -2.6344495e-07 -5.650526e-07 -6.381685e-07 1.2222205e-07 1.7626694e-07 4.487772e-07 4.5285003e-07
2.0937523e-07 -6.5176465e-07 4.770867e-08 -1.406329e-07 8.895929e-07 2.0837465e-06 5.5020116e-08 -1.3216014e-07
-4.9835944e-07 -9.9480225e-08 -5.559653e-07 1.9410487e-08 2.011024e-07 9.8928e-07 -4.1053246e-07 -3.9636344e-08
4.392943e-07 -2.8868104e-07 3.1538357e-07 -8.6712085e-08 -2.4567734e-07 9.682534e-08 1.5436723e-07 -8.7785133e-07
1.1798358e-07 -7.9051523e-07 -1.6797281e-07 4.930805e-07 -2.6899696e-07 -3.0668176e-07 2.8804372e-08 2.2198402e-07
9.701399e-08 4.88417e-07 8.4156326e-08 -4.7770726e-07 1.9985102e-07 2.9134762e-08 2.9708588e-07 7.877771e-07
9.452118e-08 2.4616307e-07 3.4301294e-07 2.3390378e-08 -3.0141072e-07 9.306953e-08 -1.4057637e-06 7.377052e-09
-5.5177156e-07 -1.2830266e-07 -6.3452467e-07 -6.554822e-08 -3.50517e-08 2.3050926e-07 -1.0531228e-06 1.061017e-06
3.6123285e-07 7.441451e-09 3.0353246e-07 1.5651653e-07 -5.1555764e-07 2.0036356e-07 4.0093145e-08 -5.7338633e-07
5.4104774e-08 1.3623694e-10 -1.4070625e-06 -3.3997708e-07 7.048165e-09 -6.0776165e-07 -1.9648189e-07 -7.7566376e-08
1.4818696e-07 3.2825458e-08 -8.083e-08 -3.8481784e-07 -7.42733e-08 -3.814573e-07 -1.7616746e-07 -1.5687728e-07
4.1788238e-07 1.4383659e-07 -2.4584475e-07 9.734072e-07 -6.847493e-08 1.1110792e-09 -1.18290735e-07 -7.937936e-07
7.8219347e-07 -1.1192923e-07 -2.0186103e-07 4.0855969e-07 1.4129205e-07 -1.2024832e-06 -9.359908e-07 9.8229364e-08
1.133799e-07 -3.4588456e-07 2.2185507e-07 7.061572e-07 2.2572677e-07 3.146597e-07 -1.1164583e-06 -1.3891284e-07
2.0867132e-07 -7.4184675e-07 1.7836443e-07 7.8806956e-08 -4.2540655e-08 -2.3316186e-07 1.8454857e-07 1.4203089e-08
-2.2050378e-07 -1.7916454e-08 -1.7389372e-07 6.51539e-08 3.8453715e-07 4.891737e-07 -1.198083e-07 -8.4085355e-07
1.5014654e-08 -2.3063535e-07 -4.342886e-07 2.945044e-07 -5.0566194e-07 -1.4361075e-08 -1.0449304e-08 -4.3803962e-07
7.676427e-08 -3.7711519e-07 5.907109e-07 -1.5843351e-06 -1.51061e-07 7.2248645e-07 -4.934757e-07 3.5171183e-07
4.783685e-09 -3.2652142e-07 -2.9329877e-07 -2.389959e-07 4.5126434e-08 -4.7550694e-07 -8.2964306e-07 2.0604318e-07
-5.419769e-07 3.048668e-07 -3.5278038e-07 -5.403809e-07 1.1468707e-06 -1.1629769e-06 1.205119e-09 -1.6264943e-07
9.648778e-07 -5.9319336e-07 1.3915056e-07 -5.463537e-07 2.2681729e-07 -3.0631956e-08 -1.361397e-07 -8.992004e-08
8.555567e-08 -2.0200946e-07 2.706042e-06 3.9935213e-07 1.2737311e-07 -2.0676914e-08 -3.3488962e-07 -3.3223284e-07
1.2783767e-07 2.9691984e-07 -5.8875163e-08 -5.757158e-07 6.211359e-07 -8.4950024e-08 3.752333e-07 3.5438916e-07
3.1836177e-07 1.7910556e-07 3.1216948e-07 -9.195506e-08 6.320986e-08 1.1158991e-06 -5.841288e-07 2.740989e-07
4.4131858e-07 6.709275e-08 -6.056054e-07 -7.389355e-08 4.7774506e-07 7.064773e-08 1.3097952e-07 -1.1895193e-07
-1.8512705e-07 5.6540307e-07 -5.1561326e-08 5.4345175e-08 6.7613044e-08 8.46496e-07 -1.8122856e-07 -4.5276622e-07
1.5049058e-07 3.2744185e-07 -2.7353716e-08 -2.1307379e-07 -1.9863771e-07 9.397879e-07 -1.3640893e-07 -1.0510999e-08
-4.5683694e-07 -5.099413e-07 1.1303689e-06 7.131751e-07 1.1793397e-06 1.6314178e-07 -9.32457e-08 -5.6348057e-07
00000000: ff92 9532 996f 8db4 1eae 17b5 9b4e 2bb5
00000010: 243c 0334 e343 3d34 78ef f034 3c1f f334
00000020: a0d0 6034 edf4 2eb5 3de8 4c33 e100 17b4
00000030: 5ccc 6e35 7ed6 0b36 424f 6c33 e7e7 0db4
00000040: 00c7 05b5 d5a1 d5b3 a53d 15b5 1dbc a632
00000050: 9bee 5734 67c7 8435 2767 dcb4 9f3c 2ab3
00000060: 26d8 eb34 05fc 9ab4 fd51 a934 7936 bab3
00000070: a3e5 83b4 4bee cf33 24c0 2534 7ca5 6bb5
00000080: 295e fd33 cb33 54b5 045c 34b4 3c5c 0435
00000090: a96a 90b4 05a6 a4b4 7c6d f732 815a 6e34
000000a0: 0156 d033 c31b 0335 6eb9 b433 cb3b 00b5
000000b0: a196 5634 0544 fa32 2c7f 9f34 a177 5335
000000c0: 91fb ca33 6528 8434 5727 b834 fceb c832
000000d0: 93d1 a1b4 84dd c733 acad bcb5 3c79 fd31
000000e0: 741d 14b5 91c3 09b4 3454 2ab5 84c3 8cb3
000000f0: c08b 16b3 e781 7734 0659 8db5 4468 8e35
00000100: 77ef c134 b2af ff31 2ff5 a234 f00e 2834
00000110: da64 0ab5 8423 5734 e132 2c33 cfea 19b5
00000120: d460 6833 4acb 152f 4dda bcb5 1886 b6b4
00000130: 512c f231 1025 23b5 88f8 52b4 9192 a6b3
00000140: 521d 1f34 f9fb 0c33 c394 adb3 f698 ceb4
00000150: 2e80 9fb3 18cb ccb4 8b28 3db4 1972 28b4
00000160: 5159 e034 8071 1a34 a5fc 83b4 04a6 8235
00000170: 7e0c 93b3 a0b4 9830 0507 feb3 1515 55b5
00000180: edf7 5135 bf5d f0b3 23bf 58b4 0458 db34
00000190: 10b6 1734 0265 a1b5 cc40 7bb5 2af2 d233
000001a0: 427b f333 03b2 b9b4 0f37 6e34 c18e 3d35
000001b0: 4d5f 7234 80ee a834 37d9 95b5 1228 15b4
000001c0: 230f 6034 5223 47b5 7184 3f34 953c a933
000001d0: f2b5 36b3 0b5b 7ab4 5328 4634 d901 7432
000001e0: 9ec3 6cb4 b3e6 99b2 8bb7 3ab4 bcea 8b33
000001f0: 6272 ce34 c34f 0335 a8a4 00b4 04b7 61b5
00000200: 93f9 8032 90a4 77b4 2c28 e9b4 601c 9e34
00000210: d3bc 07b5 adb8 76b2 8684 33b2 b52b ebb4
00000220: 9bd9 a433 5176 cab4 5891 1e35 57a5 d4b5
00000230: 5533 22b4 e4f0 4135 6477 04b5 e8d2 bc34
00000240: bd5d a431 c34c afb4 ad76 9db4 594f 80b4
00000250: 0ad1 4133 2d49 ffb4 a3b4 5eb5 b83c 5d34
00000260: 5e7c 11b5 93ac a334 c465 bdb4 b10e 11b5
00000270: 2dee 9935 9517 9cb5 5ba1 a530 bca4 2eb4
00000280: f380 8135 f03b 1fb5 6a69 1534 24a9 12b5
00000290: 108b 7334 3190 03b3 cc2d 12b4 111a c1b3
000002a0: baba b733 f0e7 58b4 7399 3536 8a66 d634
000002b0: 0ec4 0834 049d b1b2 e1ca b3b4 bc5d b2b4
000002c0: c043 0934 5a68 9f34 eddd 7cb3 e38a 1ab5
000002d0: 22bc 2635 c56d b6b3 ac73 c934 e042 be34
000002e0: 4feb aa34 2950 4034 3f98 a734 d478 c5b3
000002f0: fdbd 8733 00c6 9535 07cd 1cb5 de27 9334
00000300: 5dee ec34 a114 9033 e390 22b5 69af 9eb3
00000310: 643e 0035 00b7 9733 60a3 0c34 8472 ffb3
00000320: 56c7 46b4 34c6 1735 4774 5db3 2769 6933
00000330: aa32 9133 c33a 6335 ba97 42b4 b713 f3b4
00000340: 8996 2134 44cb af34 75f7 eab2 47c9 64b4
00000350: 1e49 55b4 bc45 7c35 cd77 12b4 dd93 34b2
00000360: 3143 f5b4 e6e2 08b5 2eb7 9735 0571 3f35
00000370: ce49 9e35 122c 2f34 5e3e c8b3 1742 17b5

batch_norm1.weight f4 [224]
0.7492819 0.6794371 0.70981175 0.6422608 0.7403768 0.66796947 0.6998644 0.756298
0.70994914 0.6883149 0.7375416 0.7733526 0.7369271 0.7917487 0.7180281 0.787863
0.73751736 0.67825913 0.6512093 0.66239667 0.7113025 0.7044167 0.7685767 0.6743584
0.7312463 0.68888134 0.6389527 0.69783723 0.66441566 0.696637 0.7625008 0.773566
0.7060457 0.69409883 0.7451894 0.74462324 0.7529474 0.67720765 0.6883613 0.73282015
0.7606492 0.73416907 0.6642331 0.76410615 0.85476226 0.67179227 0.7227926 0.6475212
0.68647206 0.701659 0.6799157 0.7101398 0.727251 0.69342566 0.7465288 0.69295496
0.76873195 0.68866545 0.76259416 0.69221616 0.75984156 0.7883638 0.7491971 0.75817555
0.7416513 0.79434615 0.7407265 0.74605924 0.7718519 0.750679 0.7398193 0.72141045
0.72840154 0.75029004 0.76276904 0.7578602 0.6697466 0.6888925 0.6664185 0.78772634
0.7199157 0.7583485 0.6091092 0.77738696 0.77378356 0.73537105 0.68760896 0.7113917
0.6731638 0.70921785 0.698055 0.6591511 0.6524308 0.6747575 0.7657525 0.7105877
0.7024469 0.70086694 0.7152591 0.69599724 0.6499024 0.64316636 0.6665828 0.6580602
0.72878927 0.7219982 0.6881002 0.74569744 0.73743093 0.7255107 0.78918165 0.7533021
0.70823187 0.7407372 0.7245721 0.6672027 0.7530737 0.7649689 0.69748986 0.61439526
0.7189841 0.68837875 0.71504056 0.72407633 0.6999848 0.7896926 0.7187369 0.8095573
0.7740823 0.7148401 0.71084136 0.66442966 0.7522417 0.75710917 0.70012724 0.7205671
0.67820424 0.6793153 0.76389503 0.7790899 0.70042723 0.7541952 0.72830874 0.7745103
0.7326598 0.68910706 0.7333581 0.66612285 0.64978397 0.83882457 0.77760655 0.75805753
0.69486904 0.68126637 0.7283476 0.8102863 0.74632806 0.7444429 0.73287416 0.81623656
0.768768 0.6806852 0.7291131 0.70292807 0.8001311 0.6572833 0.79139113 0.75001127
0.74718016 0.69277775 0.7747501 0.6931051 0.79653805 0.71117073 0.68333846 0.7012876
0.6883412 0.78924745 0.65466803 0.7021638 0.75681335 0.6236863 0.6627044 0.7093449
0.7314087 0.6702598 0.79415864 0.7691213 0.70529705 0.756201 0.66490394 0.69294065
0.7714474 0.7498473 0.7028613 0.6672128 0.723713 0.64818966 0.65787995 0.7392697
0.80438304 0.75932693 0.7400854 0.78044844 0.78573024 0.7720126 0.7744982 0.6739523
0.6965413 0.7747579 0.5998387 0.8584835 0.6813851 0.6610291 0.82021445 0.7877696
0.82105565 0.75713813 0.70988506 0.69988525 0.7343794 0.7192224 0.711836 0.8112467
00000000: f0d0 3f3f 97ef 2d3f 39b6 353f 346b 243f
00000010: 5589 3d3f 0c00 2b3f 502a 333f bf9c 413f
00000020: 3abf 353f 6835 303f 87cf 3c3f 70fa 453f
00000030: 41a7 3c3f 0bb0 4a3f b1d0 373f 64b1 493f
00000040: f0cd 3c3f 64a2 2d3f a7b5 263f d492 293f
00000050: ec17 363f a754 343f 71c1 443f c1a2 2c3f
00000060: f532 3b3f 875a 303f 6792 233f 76a5 323f
00000070: 2517 2a3f cd56 323f 4133 433f 6c08 463f
00000080: 69bf 343f 76b0 313f bcc4 3e3f a19f 3e3f
00000090: 29c1 403f 7b5d 2d3f 7238 303f 1a9a 3b3f
000000a0: e8b9 423f 81f2 3b3f 2e0b 2a3f 769c 433f
000000b0: b3d1 5a3f 94fa 2b3f f008 393f f3c3 253f
000000c0: a2bc 2f3f ed9f 333f f50e 2e3f b9cb 353f
000000d0: 1f2d 3a3f 5884 313f 831c 3f3f 7f65 313f
000000e0: 9ecb 443f 614c 303f 5f39 433f 1435 313f
000000f0: fa84 423f 36d2 493f 62cb 3f3f cb17 423f
00000100: dcdc 3d3f 455a 4b3f 40a0 3d3f bdfd 3e3f
00000110: 1698 453f 802c 403f cc64 3d3f 5bae 383f
00000120: 8678 3a3f 0213 403f d544 433f 2003 423f
00000130: 8374 2b3f 425b 303f 679a 2a3f 6fa8 493f
00000140: 654c 383f 2123 423f 95ee 1b3f d502 473f
00000150: ae16 463f 4741 3c3f 2407 303f c41d 363f
00000160: 7654 2c3f 4d8f 353f bcb3 323f 20be 283f
00000170: b405 273f e8bc 2c3f 5b08 443f 13e9 353f
00000180: 8fd3 333f 046c 333f 381b 373f e02c 323f
00000190: 0160 263f 8da6 243f 2ca5 2a3f a276 283f
000001a0: ef91 3a3f e0d4 383f 5627 303f 07e6 3e3f
000001b0: 46c8 3c3f 12bb 393f cf07 4a3f 68d8 403f
000001c0: af4e 353f f4a0 3d3f 8f7d 393f cccd 2a3f
000001d0: 70c9 403f 00d5 433f b28e 323f 0249 1d3f
000001e0: 580f 383f 9739 303f e60c 373f 115d 393f
000001f0: 3432 333f 4b29 4a3f 24ff 373f 263f 4f3f
00000200: 422a 463f c3ff 363f b3f9 353f 1018 2a3f
00000210: e992 403f e8d1 413f 8a3b 333f 1677 383f
00000220: cb9e 2d3f 9ce7 2d3f a08e 433f 7072 473f
00000230: 334f 333f f012 413f 7172 3a3f 4f46 463f
00000240: 988f 3b3f 5269 303f 5bbd 3b3f 0787 2a3f
00000250: 3e58 263f 35bd 563f 3911 473f 0f10 423f
00000260: f0e2 313f 7967 2e3f fd74 3a3f ec6e 4f3f
00000270: 5b0f 3f3f cf93 3e3f a49d 3b3f e1f4 503f
00000280: fbcd 443f 6341 2e3f 28a7 3a3f 18f3 333f
00000290: 64d5 4c3f b843 283f 9c98 4a3f bd00 403f
000002a0: 3347 3f3f e259 313f 0656 463f 566f 313f
000002b0: ebe9 4b3f 490f 363f 45ef 2e3f 9687 333f
000002c0: 2137 303f 1f0c 4a3f 5398 273f 02c1 333f
000002d0: 85be 413f e8a9 1f3f ffa6 293f a197 353f
000002e0: 9a3d 3b3f 2596 2b3f fb4d 4b3f 22e5 443f
000002f0: 598e 343f 6496 413f 2537 2a3f 8f64 313f
00000300: 947d 453f fef5 3f3f b8ee 333f 75ce 2a3f
00000310: 4145 393f c2ef 253f d26a 283f c740 3d3f
00000320: 0cec 4d3f 4063 423f 3d76 3d3f 78cb 473f
00000330: 9e25 493f 9ea2 453f 8445 463f 2388 2c3f
00000340: 8850 323f 8956 463f 078f 193f 93c5 5b3f
00000350: 416f 2e3f 3439 293f 93f9 513f 45ab 493f
00000360: b430 523f ced3 413f 07bb 353f ae2b 333f
00000370: 4a00 3c3f f61e 383f e23a 363f ddad 4f3f

batch_norm1.bias f4 [224]
-0.0054308805 -0.047970213 -0.027000733 -0.04621295 -0.050285805 -0.057613574 -0.032800965 -0.011724561
-0.06200395 -0.04834921 -0.06346588 -0.05781297 -0.0687746 -0.054639217 -0.039204303 0.0030993184
-0.09634567 -0.012165762 -0.024712868 -0.071807235 -0.040424187 -0.06502266 -0.04323075 -0.04501752
-0.05419829 -0.041690767 -0.016611364 -0.026816435 -0.04626492 -0.056755938 -0.053447917 -0.053870145
-0.030715441 -0.06768525 -0.002322037 -0.037453216 -0.07857152 -0.067180626 -0.08678154 -0.059544187
-0.06952805 -0.046559904 -0.032411706 0.02332357 -0.06628098 -0.053693127 -0.042487558 -0.0051978417
-0.0329246 -0.06975768 -0.069977656 -0.047412943 -0.07552482 -0.042038657 -0.0022033253 -0.03623002
-0.04342343 -0.089012995 -0.06580863 -0.0014603949 -0.017146135 -0.08485895 -0.035947893 -0.09821022
-0.07888122 -0.062644795 -0.03616602 -0.08487542 -0.047681116 -0.06950362 -0.071814805 -0.05792898
-0.065701686 -0.07752937 0.0035934218 -0.064294375 -0.040381476 -0.023997838 -0.0038426544 -0.054657243
-0.056389883 -0.08944876 -0.030028936 -0.066564836 -0.004108848 -0.020691434 -0.05758212 -0.043698955
-0.050058283 -0.036362085 -0.07019526 -0.0049375314 -0.044320054 -0.038593203 -0.13080168 -0.0152396485
-0.05262762 -0.05586565 -0.03726538 -0.053389642 -0.011176089 -0.038362928 -0.011018442 -0.061998613
-0.053230096 -0.06367831 -0.025717117 -0.04594576 -0.04694359 -0.057910625 -0.063851975 -0.072930984
-0.052571557 -0.03562352 -0.038549613 -0.033031825 0.009527738 -0.017516172 -0.01360338 -0.05474521
-0.07489513 -0.055609133 -0.061870214 -0.056887805 -0.02553439 -0.07171785 -0.028778682 -0.035331715
-0.046813376 -0.03679814 -0.06031273 -0.040732995 -0.021765465 -0.05295367 -0.012324188 -0.026659016
-0.05450891 -0.034067594 -0.028718717 -0.024300177 -0.032004822 -0.039564792 -0.058554523 -0.035924237
-0.017353855 -0.05440957 -0.05536208 -0.036080882 -0.020490121 -0.1131226 -0.04285217 -0.0844218
0.023804467 -0.041252073 -0.01429 -0.08576465 -0.038507942 -0.05156561 -0.058649316 -0.08754202
-0.03369561 -0.048324265 -0.11424059 -0.04496475 -0.06500238 -0.056559958 -0.0400421 -0.042037945
-0.07161742 -0.060029816 -0.02518071 -0.024207657 -0.056664135 -0.06486669 -0.03386844 -0.042400952
-0.04273456 -0.036126975 -0.063205406 -0.05345393 -0.06725187 -0.029249169 -0.047005594 -0.059438758
-0.0048381398 -0.043296363 -0.0769988 -0.038930465 -0.07248054 -0.100052595 -0.0104047535 -0.025998786
-0.061398853 -0.05422045 -0.008515729 -0.0456957 -0.025354989 -0.059519205 -0.078373365 -0.013254575
-0.09418748 -0.060001247 0.0075994097 -0.026715875 -0.043407634 -0.044072058 -0.0483798 -0.008784938
-0.07726963 -0.06123631 -0.023488987 -0.085909866 -0.0526784 -0.012832875 -0.06371462 -0.06614059
-0.03455712 -0.015053136 -0.014930666 -0.028719809 -0.037505444 -0.03480197 -0.021942038 -0.03914981
00000000: 87f5 b1bb 6a7c 44bd a430 ddbc ca49 3dbd
00000010: 7df8 4dbd 36fc 6bbd 4e5a 06bd 6018 40bc
00000020: dbf7 7dbd d209 46bd 66fa 81bd 4bcd 6cbd
00000030: b3d9 8cbd 5fcd 5fbd b194 20bd ef1d 4b3b
00000040: e150 c5bd e752 47bc a472 cabc ac0f 93bd
00000050: d593 25bd 9a2a 85bd ba12 31bd 4b64 38bd
00000060: 07ff 5dbd f0c3 2abd 8e14 88bc 24ae dbbc
00000070: 4980 3dbd ea78 68bd 34ec 5abd f1a6 5cbd
00000080: f39e fbbc 909e 8abd 512d 18bb 8b68 19bd
00000090: 1bea a0bd ff95 89bd 85ba b1bd 9be4 73bd
000000a0: b964 8ebd 99b5 3ebd 23c2 04bd 1211 bf3c
000000b0: 53be 87bd 53ed 5bbd 6f07 2ebd a852 aabb
000000c0: f2db 06bd 1ddd 8ebd 7250 8fbd 1334 42bd
000000d0: c2ac 9abd ba30 2cbd aa65 10bb ee65 14bd
000000e0: c4dc 31bd 724c b6bd adc6 86bd b96a bfba
000000f0: 0d76 8cbc 87ca adbd 193e 13bd 7122 c9bd
00000100: 7a8c a1bd ea4b 80bd d222 14bd 2ad3 adbd
00000110: 464d 43bd ea57 8ebd a413 93bd f046 6dbd
00000120: 9b8e 86bd b8c7 9ebd 9d7f 6b3b c5ac 83bd
00000130: 0c67 25bd 1d97 c4bc 0bd5 7bbb 46e0 5fbd
00000140: 14f9 66bd e930 b7bd 3eff f5bc 2553 88bd
00000150: 84a3 86bb 1581 a9bc 3bdb 6bbd adfd 32bd
00000160: ea09 4dbd 69f0 14bd 88c2 8fbd 04cb a1bb
00000170: f288 35bd e813 1ebd e0f0 05be b8af 79bc
00000180: 0f90 57bd 61d3 64bd 95a3 18bd 19af 5abd
00000190: ea1b 37bc 7222 1dbd b286 34bc 42f2 7dbd
000001a0: cd07 5abd c669 82bd b4ac d2bc 9f31 3cbd
000001b0: ec47 40bd b133 6dbd d3c4 82bd d75c 95bd
000001c0: 4655 57bd f8e9 11bd 33e6 1dbd 614c 07bd
000001d0: 3b1a 1c3c 137e 8fbc b6e0 5ebc 833c 60bd
000001e0: 9e62 99bd 67c6 63bd 9f6b 7dbd 3003 69bd
000001f0: 7f2d d1bc cfe0 92bd 45c1 ebbc fdb7 10bd
00000200: 62bf 3fbd a5b9 16bd 7b0a 77bd a4d7 26bd
00000210: 7d4d b2bc f3e5 58bd 64eb 49bc 0264 dabc
00000220: bc44 5fbd 768a 0bbd 8443 ebbc 2a11 c7bc
00000230: 7d17 03bd b10e 22bd ded6 6fbd 4b25 13bd
00000240: ac29 8ebc 92dc 5ebd 59c3 62bd 8cc9 13bd
00000250: e6da a7bc d2ac e7bd c285 2fbd 56e5 acbd
00000260: 9601 c33c eff7 28bd 9b20 6abc 60a5 afbd
00000270: 81ba 1dbd 7636 53bd 443a 70bd 3b49 b3bd
00000280: 6804 0abd aaef 45bd f8f6 e9bd f52c 38bd
00000290: f81f 85bd 6aab 67bd 2f03 24bd fb2f 2cbd
000002a0: 27ac 92bd d3e1 75bd c747 cebc 234f c6bc
000002b0: a718 68bd d4d8 84bd a2b9 0abd 9fac 2dbd
000002c0: 6f0a 2fbd e1f9 13bd d671 81bd 82f2 5abd
000002d0: 59bb 89bd f49b efbc f088 40bd 0e76 73bd
000002e0: 4289 9ebb 8757 31bd 8cb1 9dbd 8d75 1fbd
000002f0: ad70 94bd 60e8 ccbd b378 2abc 68fb d4bc
00000300: 5d7d 7bbd 4316 5ebd 8e85 0bbc 6a2b 3bbd
00000310: 44b5 cfbc 69ca 73bd 3782 a0bd b829 59bc
00000320: 5ee5 c0bd dec3 75bd 7804 f93b 40db dabc
00000330: 34cc 31bd e784 34bd e629 46bd b3ee 0fbc
00000340: 8a3f 9ebd edd2 7abd fa6b c0bc 83f1 afbd
00000350: 4ec5 57bd fb40 52bc d07c 82bd b874 87bd
00000360: c48b 0dbd 6ea1 76bc c19f 74bc ce45 ebbc
00000370: 4f9f 19bd 838c 0ebd cabf b3bc 8d5b 20bd

batch_norm1.running_mean f4 [224]
-0.03030254 -0.019807946 0.0069586844 0.0145499315 0.013197178 0.001033927 -0.029057838 0.009368259
0.04530676 -0.008573009 -0.0116983345 -0.04663648 0.029706772 -0.05031651 -0.010281899 -0.023279972
0.021186508 0.03496052 -0.0026974801 0.007497832 0.012144449 0.0309749 0.05853993 -0.0034731897
0.0008721107 -0.01149982 0.023974877 -0.010447282 0.01927094 -0.007578814 0.0077831894 0.040806025
0.00019198086 0.02106554 -0.0013331719 0.027981536 -0.02025084 -0.029801592 -0.0028883787 -0.05515101
-0.0025853629 0.009712646 -0.022324627 0.028830033 -0.082764424 0.055569716 0.02440974 -0.012475606
-0.008985356 0.0072082174 -0.020804958 -0.008287453 -0.036988888 0.03728906 -0.01886285 0.016286897
0.0076501 -0.016379694 0.0102786645 0.039558858 0.060017813 -0.06631544 -0.0037686778 -0.059972484
0.026037397 0.025937174 -0.0033160225 -0.02462581 0.033995755 -0.027068919 0.013995878 0.006065037
-0.070099756 0.04464128 0.004319602 -0.011602782 -0.008032491 0.04202584 0.029668948 -0.0034825853
-0.0050470536 -0.025605012 0.0029866765 0.016943343 -0.027356409 -0.016452098 0.037108094 0.029173953
-0.08530925 -0.019460348 9.044805e-05 -0.010235112 0.01912928 0.059103046 -0.09214653 -0.020157339
0.0056158695 0.0027607991 -0.0233493 -0.011094542 -0.031815354 -0.027581837 -0.009601783 0.014157666
-0.020940525 0.030029252 -0.0008410418 -0.009617056 -0.039801564 -0.08988051 0.0335638 0.08046216
-0.013029326 -0.050123658 -0.043340877 0.002546119 0.048890952 0.03049205 0.00022277265 -0.063796125
-0.008038097 -0.01731531 0.009618764 0.0024793467 0.022144252 -0.0210264 -0.041224636 0.051118005
-0.0067171673 0.008886766 0.057945147 0.0039077722 0.027558537 -0.10353168 0.012076889 0.008152742
0.04993351 -0.048823778 0.052533317 -0.010840649 -0.045282148 0.01677453 -0.031813484 0.01700018
0.037054807 -0.005872039 0.0035544413 0.047701113 -0.022916684 -0.072462134 0.017627358 0.064894624
0.002844602 -0.023569087 0.0330191 -0.039797444 -0.037807483 0.017965611 0.033940144 0.056151614
0.0087676635 -0.0069419476 0.028634455 0.027098453 0.06893835 0.027288739 -0.0032846865 -0.04195561
-0.026464906 0.053951 -0.035073746 0.009916939 0.035043366 0.020850172 -0.022766056 0.010608091
0.037488 0.020939104 0.00930525 -0.012606355 0.023445867 0.00020945362 -0.01642573 0.025363076
0.013875417 0.004008412 -0.0153387915 0.023211643 0.0067541837 0.019976014 0.014873853 -0.019748148
0.061124608 -0.02954748 0.043123357 -0.034856148 -0.006509162 -0.022523668 0.0007817124 -0.008121243
-0.08308648 0.035914093 -0.01614932 0.04504905 -0.03208971 -0.07519119 -0.0052512526 -0.057374924
0.0060292045 -0.054259602 -0.0017623756 -0.08457309 -0.010437074 -0.009089678 0.03810387 0.053207606
0.0038183618 0.053252514 0.048145782 -0.004071828 -0.010132411 0.032148153 0.020817 -0.04465197
00000000: 083d f8bc 4644 a2bc ad05 e43b d662 6e3c
00000010: fa38 583c d584 873a b40a eebc 547d 193c
00000020: 9593 393d ce75 0cbc 5faa 3fbc e505 3fbd
00000030: 9e5b f33c af18 4ebd 6975 28bc a4b5 bebc
00000040: 548f ad3c c332 0f3d 35c8 30bb 60b0 f53b
00000050: 83f9 463c 13bf fd3c 91c7 6f3d 749e 63bb
00000060: 5c9e 643a be69 3cbc f666 c43c 142b 2bbc
00000070: 17de 9d3c b357 f8bb 200a ff3b 3824 273d
00000080: 784e 4939 a491 ac3c d3bd aeba 8939 e53c
00000090: 17e5 a5bc 7822 f4bc f44a 3dbb 07e6 61bd
000000a0: 316f 29bb ca21 1f3c 23e2 b6bc f62c ec3c
000000b0: 6580 a9bd 129d 633d eff6 c73c 7c66 4cbc
000000c0: 5137 13bc e932 ec3b 296f aabc 19c8 07bc
000000d0: a981 17bd 6abc 183d 4386 9abc 196c 853c
000000e0: b1ad fa3b b52e 86bc d867 283c 7808 223d
000000f0: 3dd5 753d 64d0 87bd ecfb 76bb b5a5 75bd
00000100: 614c d53c 327a d43c a051 59bb 11bc c9bc
00000110: 223f 0b3d a3bf ddbc f84e 653c 38bd c63b
00000120: 7690 8fbd c6d9 363d 738b 8d3b 9819 3ebc
00000130: b69a 03bc 4a23 2c3d 4b0c f33c 163c 64bb
00000140: c161 a5bb 9ac1 d1bc 1ebc 433b c4cc 8a3c
00000150: 8c1a e0bc 8dc6 86bc a8fe 173d 37fe ee3c
00000160: 9eb6 aebd 4f6b 9fbc edae bd38 2cb1 27bc
00000170: 02b5 9c3c 0916 723d 52b7 bcbd 0121 a5bc
00000180: 5405 b83b 86ee 343b 0847 bfbc e2c5 35bc
00000190: d150 02bd 4ef3 e1bc cc50 1dbc 8ef5 673c
000001a0: 778b abbc e8ff f53c 5c79 5cba db90 1dbc
000001b0: f706 23bd 4613 b8bd 327a 093d 58c9 a43d
000001c0: f478 55bc 774e 4dbd 3486 31bd cadc 263b
000001d0: e141 483d 77ca f93c 1498 6939 8ba7 82bd
000001e0: 39b2 03bc d6d8 8dbc 0598 1d3c 897c 223b
000001f0: dd67 b53c 8f3f acbc 2adb 28bd 1d61 513d
00000200: af1b dcbb cc99 113c e457 6d3d c50c 803b
00000210: 71c2 e13c 6b08 d4bd 25de 453c 1493 053c
00000220: 1587 4c3d 71fb 47bd 2d2d 573d fa9c 31bc
00000230: c679 39bd bd6a 893c db4e 02bd f643 8b3c
00000240: c8c6 173d 3c6a c0bb a1f1 683b 3e62 433d
00000250: c5bb bbbc 0767 94bd 4067 903c 79e7 843d
00000260: 816c 3a3b f513 c1bc 093f 073d a502 23bd
00000270: 05dc 1abd 9e2c 933c d204 0b3d 3cff 653d
00000280: 3fa6 0f3c 4779 e3bb ce92 ea3c 93fd dd3c
00000290: 8d2f 8d3d a28c df3c e543 57bb a5d9 2bbd
000002a0: eecc d8bc b9fb 5c3d 7da9 0fbd a87a 223c
000002b0: a289 0f3d fbcd aa3c e17f babc 8fcd 2d3c
000002c0: 048d 193d 7c88 ab3c 0c75 183c e38a 4ebc
000002d0: 8c11 c03c c7a0 5b39 418f 86bc 3ac6 cf3c
000002e0: b855 633c ff58 833b 8e4f 7bbc 5826 be3c
000002f0: 3352 dd3b bda4 a33c 76b1 733c dec6 a1bc
00000300: cc5d 7a3d 8f0d f2bc 1ea2 303d 52c5 0ebd
00000310: cf4a d5bb 8e83 b8bc d5eb 4c3a f60e 05bc
00000320: 3f29 aabd a81a 133d 944b 84bc 5a85 383d
00000330: 8070 03bd d7fd 99bd b312 acbb f801 6bbd
00000340: a290 c53b 513f 5ebd 83ff e6ba a834 adbd
00000350: 4300 2bbc dfec 14bc ce12 1c3d 38f0 593d
00000360: 7b3d 7a3b 4f1f 5a3d 8334 453d f86c 85bb
00000370: 6902 26bc c8ad 033d 6a88 aa3c fce4 36bd

batch_norm1.running_var f4 [224]
0.45082727 0.33887118 0.33661354 0.348189 0.43036106 0.61398536 0.33922496 0.50707334
0.3208759 0.2957099 0.2788151 0.47954473 0.39225137 0.37233993 0.51028645 0.22664659
0.37812513 0.64616597 0.36862037 0.469712 0.62128025 0.29923964 0.35019037 0.3209564
0.51449686 0.37970272 0.30069375 0.27626234 0.36388034 0.3280898 0.42645398 0.24003427
0.47724664 0.38074762 0.5568757 0.37718746 0.39263874 0.24787523 0.55450433 0.43143594
0.45156285 0.61023355 0.40766788 0.40455627 0.43330517 0.40146822 0.3997352 0.3746939
0.2502985 0.2632578 0.29163274 0.46617508 0.47487542 0.3527819 0.37927252 0.2659796
0.39549285 0.31409335 0.577572 0.38696918 0.3041606 0.46781102 0.42512256 0.39045033
0.429645 0.40710017 0.34079984 0.4156262 0.4508718 0.3952703 0.3916051 0.3600958
0.36697665 0.3846325 0.836853 0.4461498 0.43155175 0.2694361 0.4611556 0.48332953
0.48583773 0.39055708 0.29665527 0.45433617 0.3610026 0.8783964 0.37768903 0.47011644
0.41957954 0.38153014 0.74856746 0.37542194 0.29709214 0.4341712 0.5391953 0.3354971
0.31398654 0.29251826 0.43697014 0.40187436 0.38874042 0.3236875 0.31822738 0.30608854
0.4279811 0.42314377 0.2685953 0.46019053 0.5405778 0.5433981 0.5294878 0.36753312
0.41713908 0.39165056 0.43633527 0.35507703 0.3450077 0.8856428 0.31305978 0.27403855
0.38250846 0.29756746 0.3741361 0.3604091 0.6677666 0.57054126 0.36294103 0.4192336
0.37065807 0.5913612 0.49766958 0.43860954 0.5149973 0.4274579 0.3346441 0.3123883
0.3873923 0.32489157 0.4473657 0.45398155 0.29537407 0.46216455 0.48055267 0.47036365
0.46136957 0.34566727 0.30307057 0.24299616 0.41697636 0.43283227 0.3865393 0.4166806
0.3589152 0.3089362 0.44369748 0.38526824 0.32403168 0.627708 0.3906208 0.4819071
0.3795889 0.52033174 0.3775113 0.34841686 0.42046934 0.3597037 0.34916276 0.44968343
0.52874094 0.34995675 0.41778266 0.45005232 0.4734398 0.34547594 0.357383 0.4967651
0.5233658 0.8672169 0.38775253 0.39173037 0.6771767 0.40784913 0.5132213 0.29761338
0.29836306 0.34430277 0.5912354 0.47088897 0.6051987 0.47118682 0.5311026 0.6588223
0.4981798 0.54985535 0.38316423 0.2758669 0.40814048 0.26483694 0.23847237 0.38517556
0.4230187 0.5673521 0.42477864 0.2962314 0.49988186 0.5153078 0.49192834 0.27221644
0.35262343 0.5615575 0.33940467 0.61279094 0.37636605 0.523406 0.49907714 0.6049697
0.4771945 0.5323162 0.38879156 0.31616056 0.66684455 0.50216943 0.295907 0.43346244
00000000: d5d2 e63e 8680 ad3e 9c58 ac3e d445 b23e
00000010: 4958 dc3e 252e 1d3f e5ae ad3e 8fcf 013f
00000020: d949 a43e 4a67 973e dac0 8e3e e386 f53e
00000030: 2cd5 c83e 57a3 be3e 22a2 023f 0b16 683e
00000040: 9e99 c13e 226b 253f cfbb bc3e 177e f03e
00000050: 390c 1f3f f035 993e 274c b33e 6654 a43e
00000060: 11b6 033f 6568 c23e 88f4 993e 4272 8d3e
00000070: 864e ba3e 63fb a73e 2d58 da3e 8bcb 753e
00000080: ac59 f43e 5af1 c23e 688f 0e3f b71e c13e
00000090: f207 c93e 01d3 7d3e fff3 0d3f 2ce5 dc3e
000000a0: 3f33 e73e 4438 1c3f d8b9 d03e 0022 cf3e
000000b0: 2dda dd3e 3e8d cd3e 18aa cc3e e1d7 bf3e
000000c0: 2027 803e bac9 863e e350 953e 80ae ee3e
000000d0: df22 f33e d49f b43e 0230 c23e 7a2e 883e
000000e0: 0a7e ca3e d8d0 a03e c2db 133f d320 c63e
000000f0: f0ba 9b3e ed84 ef3e aaa9 d93e 1be9 c73e
00000100: 6efa db3e 6f6f d03e 517d ae3e f5cc d43e
00000110: abd8 e63e de60 ca3e 7780 c83e 7a5e b83e
00000120: 5de4 bb3e 8dee c43e 003c 563f bf6d e43e
00000130: 5af4 dc3e 87f3 893e 961c ec3e f876 f73e
00000140: b9bf f83e 19f7 c73e 33e3 973e c09e e83e
00000150: 55d5 b83e 96de 603f 7560 c13e 1ab3 f03e
00000160: 21d3 d63e eb57 c33e 1ea2 3f3f 4e37 c03e
00000170: 761c 983e b04b de3e b408 0a3f 47c6 ab3e
00000180: d8c2 a03e f4c4 953e 8dba df3e 7ac2 cd3e
00000190: fc08 c73e 5eba a53e b3ee a23e a3b7 9c3e
000001a0: 5720 db3e 4da6 d83e 5385 893e 189e eb3e
000001b0: 4f63 0a3f 231c 0b3f 838c 073f 4d2d bc3e
000001c0: 4193 d53e 6c86 c83e 5667 df3e a8cc b53e
000001d0: d9a4 b03e 7db9 623f 5f49 a03e c84e 8c3e
000001e0: 26d8 c33e c35a 983e c48e bf3e 8b87 b83e
000001f0: c0f2 2a3f fe0e 123f 68d3 b93e c9a5 d63e
00000200: e5c6 bd3e 7363 173f 8cce fe3e 6e91 e03e
00000210: ddd6 033f c3db da3e 7956 ab3e 5cf1 9f3e
00000220: 4958 c63e 3058 a63e 1e0d e53e 4570 e83e
00000230: 453b 973e d5a0 ec3e 000b f63e 81d3 f03e
00000240: a238 ec3e 4dfb b03e 112c 9b3e fcd3 783e
00000250: ed7d d53e 319c dd3e 7be8 c53e 2957 d53e
00000260: bcc3 b73e e32c 9e3e 512c e33e e141 c53e
00000270: 7be7 a53e 79b1 203f 73ff c73e 87bc f63e
00000280: 7a59 c23e 7634 053f 2949 c13e b263 b23e
00000290: c247 d73e 152b b83e 76c5 b23e e83c e63e
000002a0: 915b 073f 882d b33e 9ce7 d53e 426d e63e
000002b0: b466 f23e 39e2 b03e e8fa b63e ff57 fe3e
000002c0: 4dfb 053f ed01 5e3f 8087 c63e e290 c83e
000002d0: 745b 2d3f 9ad1 d03e 7962 033f c860 983e
000002e0: 0bc3 983e 7448 b03e 345b 173f 5c18 f13e
000002f0: 4dee 1a3f 663f f13e 57f6 073f 94a8 283f
00000300: 6c11 ff3e 52c3 0c3f 1a2e c43e 6d3e 8d3e
00000310: caf7 d03e b598 873e 1a32 743e bb35 c53e
00000320: e895 d83e fd3d 113f 967c d93e a4ab 973e
00000330: 84f0 ff3e 36eb 033f 08de fb3e f45f 8b3e
00000340: 0f8b b43e 3bc2 0f3f 73c6 ad3e dedf 1c3f
00000350: 0db3 c03e f0fd 053f 0a87 ff3e 4bdf 1a3f
00000360: d652 f43e e045 083f b00f c73e ccdf a13e
00000370: 53b6 2a3f 2d8e 003f 1f81 973e caee dd3e
